model_checkpoints/room_chair_models/latest/latest_net_Decoder.pth (torch, 300129 bytes, 33 tensors)

f_before.0.weight f4 [64, 97]
00000000: 9951 14bf 7362 243f 4d23 753e 2070 2abe
00000010: 9edd ea3e 1776 a13d edb1 9dbe b8b8 90bd
00000020: 4711 1a3d db25 adbd 4f09 ac3e 7deb 53bd
00000030: 8730 54bf 75e9 73be 89b6 86be 3a1d 4f3f
00000040: cc5a 15be 7290 313e 4409 0f3e 6697 073e
00000050: 7db2 773d cfa1 39bf f715 bb3d b1a1 c3bb
00000060: 1601 8e3e 54c9 e4bd 6bd2 363e ddbe 1bbd
00000070: 096f c73b f15d d9bc 8aab 8c3e a27b b9bc
00000080: 56ac aebc daea 283c a3aa f2bd 1e04 523e
00000090: e6a6 9dbe e6a0 5f3e 0f2e 673b 5157 8c3e
000000a0: f525 193d ad1b 02be 0226 f73d 13b6 e9bd
000000b0: 7bfa 6d3d 4519 ec3d 5504 7c3e d740 44be
000000c0: d03d d23d 1f0b cdbd af0f cd3d 8e43 1e3e
000000d0: 0a5e 6a3d 746a 28be 3eb2 4dbd 0261 97bc
000000e0: 94fd 94be 2c3c d2bb 8a12 74bd 2850 fbbc
000000f0: d8f7 a5bd 94b4 813c fac2 37bd e031 073e
00000100: 4bb0 dabd 198d 3dbc c075 c73d a647 efbb
00000110: 6853 7abe 2832 f23b 5e37 12bd fe14 c73d
00000120: e51e f33d f09b f1bc 3bdd 663e 543a 6abe
00000130: 4164 debb a529 3fbe 28ac afbd a0ff 1f3e
00000140: 3cc6 77bd f6a4 cf3d fc46 b3bd 7683 073d
00000150: 18e6 89bd ebd2 833d c471 7a3c 9fb9 37bd
00000160: a997 e13d 5ab3 f63c dec1 ccbd 6b92 953d
00000170: abde 86bd eec5 aabd f45d 62bd c988 c4bb
00000180: 93b1 bebd fe8f 003e 3bc0 bc3c 9f80 383d
00000190: dbe1 813e 6e85 7e3e cb77 e1bd a88b 7fbe
000001a0: f8e4 e0bd 60f4 72be 56e1 de3d 50dd 813e
000001b0: 2df0 2dbe cccb b63b 5320 703e 948d 2d3d
000001c0: 836d 803d 1d8a a63e f2ba e9bd 49e6 143d
000001d0: 4a3f 64be 2dda 1bbe 0f63 7f3d 8418 8ebe
000001e0: 0a12 c93d 174d ce3c 1403 53be c62b eabc
000001f0: f950 c73d 8dac a4bd c545 863d 8ada 803d
00000200: 6f5b 11be 398f 8b3d 1352 44be 5609 f43d
00000210: b32d a2be 4314 793c 03e0 bdbc b4ff e23d
00000220: 4e0e b43d ef0a b73d 154a 103d 68a0 4dbd
00000230: 2e24 e83d 86f9 1ebe 125c 893c e81e 353e
00000240: 894b e33e 2e63 89bd eaa2 9ebd 7ee0 9a3d
00000250: 5339 47bd b5cf 983d deb6 26be e919 143b
00000260: aef6 e0bd 8088 79be e55f 13bb dde3 81be
00000270: 0f4f d23d 365f c6bd 864d 153d 9857 b6bc
00000280: 62ed 08be 17d9 d6bb 2a09 ffbd f5b9 ef3c
00000290: d487 4f3e 67c4 9cbd 0c31 ec3d 2ec1 00be
000002a0: e994 6abe 3570 c13d 95f2 b33d 03c2 5ebd
000002b0: 29c3 6a3e 0363 d43d fe16 c2bd f513 d13d
000002c0: bdde 02be f30d 353e 2146 413d 2004 38bd
000002d0: 9641 8dbe 96bd c43d 7d7d 22be af66 02be
000002e0: ece1 8d3d 2a10 87bd 5eea b73d 17b9 1ebd
000002f0: 33dc d5bd 8115 073b 229c 36bd 31f0 dabd
00000300: db12 c1bc dadb bf3d 53ac cfbe e2c3 283e
00000310: a374 6c3d 9ee9 9fbe 363d 623e cdb1 64bd
00000320: 433e e6bd b466 1dbd f367 893d 73e5 73be
00000330: efbd 76bd 103a 5c3d 1afa b33c ef53 0dbe
00000340: f87a 97bc 9615 30be 3f2a 03be c248 d4bd
00000350: 717c b5bc 60e8 c3be 474a a0be 3e57 853d
00000360: df1c d13c 5cd3 e43d d795 803c 5c9c c73d
00000370: d667 893d 9aab 5d3c ffc8 293d 9405 c6bc
00000380: 5f7a 30bc 3b48 483c 9c83 333d d706 94bc
00000390: 9955 6dbd ccfe 84be 5496 533e 4ff2 d2bd
000003a0: c6f7 99be 699c 0dbe b823 a6be bad4 08be
000003b0: 8e50 d0be 8f62 b1bd 4679 ee3d 35a3 f43d
000003c0: d70b f5bd 2c0f 26be 5e32 faba 062a cabc
000003d0: 5e8c 223d 669a 0d3f 91a6 c6bd 898f 65be
000003e0: 2865 3fbd 907c ba3d db91 083e dce9 99bd
000003f0: 3a29 0bbf 6bcd f4bd bd76 a8bd 5b8c 15bd
-0.5793701 0.6421272 0.23939247 -0.16644335 0.45872205 0.07883852 -0.3079981 -0.07066482
0.037614133 -0.08454486 0.33600852 -0.05173825 -0.82886547 -0.23819526 -0.26311138 0.8090397
-0.14585418 0.17340258 0.13968378 0.13241348 0.060472954 -0.72512525 0.09135049 -0.005970203
0.27735204 -0.11171213 0.17853706 -0.03802382 0.0060862345 -0.026534053 0.27474624 -0.02264196
-0.02132241 0.010309899 -0.118489526 0.20509383 -0.30791396 0.21838722 0.0035275256 0.27410367
0.037389714 -0.1270587 0.12067796 -0.11411681 0.058100205 0.11528257 0.24611028 -0.1916536
0.10265696 -0.10011887 0.10012757 0.15455458 0.05721859 -0.16446859 -0.050218813 -0.018478874
-0.29099715 -0.0064158645 -0.059587993 -0.03067787 -0.08103913 0.015833177 -0.04486368 0.1320262
-0.106781565 -0.011569285 0.09739256 -0.0073022423 -0.2444588 0.007391233 -0.035697334 0.09720801
0.11871127 -0.029493302 0.2254533 -0.22873813 -0.0067868535 -0.1866823 -0.08577758 0.15624857
-0.060491785 0.10138886 -0.087537736 0.033084355 -0.0673334 0.06436714 0.015285913 -0.044854756
0.11015255 0.030114818 -0.09997915 0.07303318 -0.06585439 -0.08338533 -0.055265382 -0.0059977514
-0.09311213 0.12554929 0.023040881 0.045044538 0.25367627 0.24855587 -0.11009177 -0.24955618
-0.10981172 -0.23726034 0.10882823 0.2536416 -0.16986151 0.0055784937 0.2344983 0.042371348
0.06270888 0.32527247 -0.1141261 0.03635243 -0.22289768 -0.15219946 0.06235033 -0.2775308
0.09817894 0.025183244 -0.20606643 -0.028585326 0.09732241 -0.08040724 0.06556276 0.06291683
-0.14195035 0.06814427 -0.19171934 0.11915843 -0.3167549 0.015202585 -0.023178106 0.11083928
0.08791791 0.08937632 0.0352269 -0.050201803 0.11335026 -0.15524873 0.016767535 0.17687571
0.44393566 -0.0670837 -0.07745917 0.0756235 -0.048638653 0.07461492 -0.16280696 0.0022598451
-0.109845504 -0.24368477 -0.0022487578 -0.25369158 0.102689855 -0.09686129 0.036450885 -0.022258565
-0.13371804 -0.006556641 -0.1245292 0.029263476 0.20266658 -0.07654648 0.115327924 -0.12573692
-0.22908367 0.0944523 0.08786503 -0.054384243 0.2292601 0.103704475 -0.09477042 0.102088846
-0.1278028 0.17681102 0.04718602 -0.04492581 -0.275891 0.09606473 -0.15868182 -0.12734483
0.06927857 -0.0659488 0.08980249 -0.038750734 -0.1044239 0.0020612183 -0.044582494 -0.10690344
-0.023568561 0.09368105 -0.4056116 0.16480973 0.05772842 -0.31232923 0.22093663 -0.055833627
-0.11242344 -0.038428023 0.0670928 -0.23817997 -0.06023973 0.05376631 0.021969844 -0.1380155
-0.018491253 -0.17195734 -0.12809084 -0.1036544 -0.022154065 -0.38263226 -0.3130667 0.06510781
0.025526462 0.11173126 0.01569645 0.0974662 0.06709258 0.0135296825 0.04145145 -0.024172582
-0.010771363 0.012224252 0.043826684 -0.018069668 -0.05794296 -0.25975645 0.20662814 -0.10300123
-0.3007185 -0.13829197 -0.32449126 -0.13362399 -0.40686458 -0.08661377 0.11644225 0.11945192
-0.11965149 -0.16216725 -0.0019088497 -0.024678241 0.039684646 0.5531372 -0.09699739 -0.22418036
-0.04672733 0.0910579 0.1333689 -0.07515308 -0.5435978 -0.11953243 -0.082257725 -0.036510807

f_before.0.bias f4 [64]
00000000: 2871 93bb 0976 6cbd b25d 563d 7ec4 103e
00000010: 4748 c43d 9ebc 953c 3b02 133d 2443 4a3c
00000020: c51d 7f3d d9ae 953d f8ac c23d 6ed5 dd3d
00000030: faf9 273d e89e 853c 2caa 503e a87d 4fbd
00000040: 5871 16bd ab99 1cbe eac5 c0bc 5094 d0bc
00000050: 2c29 563d 8cfb 7b3d 795c b23d ce5a 8e3d
00000060: 4155 9abb 1d88 173e a4dd 5a3d 0194 b53d
00000070: ad1a 84bd ccb7 6f3c 96b3 a0bd 9e05 da3d
00000080: 2d81 463d e67a d73d b10e c5bd 1309 8f3d
00000090: efcf b3bc 0837 7bbd b8d6 643c c0e8 b2bd
000000a0: bd68 3e3d bd73 183d 2717 80bd 6c90 8b3d
000000b0: 0b83 f33d 85bd b33d aea8 483c 3294 a03d
000000c0: c5d2 173d 15b5 ed3d 3497 ac3d 470c 693d
000000d0: 4624 c23d 1afb 09bc 6f90 7b3d 8e5d ac3d
000000e0: 2e29 93bd 547d d33d caf1 5abd 9121 adbd
000000f0: f7b5 0c3e 4b7b 6b3e 1890 d23d d8de e13c
-0.0044995733 -0.057729755 0.05233545 0.14137456 0.09584098 0.018278416 0.0358908 0.012345109
0.06228425 0.0730874 0.095056474 0.10831724 0.04100988 0.016311124 0.20377415 -0.050656945
-0.036729187 -0.15292995 -0.023531873 -0.025461346 0.05228536 0.06151919 0.08709044 0.06950913
-0.00470987 0.14798017 0.05343403 0.0886612 -0.064504005 0.014631223 -0.07846753 0.10645603
0.048463035 0.10521488 -0.09621943 0.06984153 -0.021949736 -0.06133178 0.013967209 -0.087358
0.046486605 0.03721975 -0.06254416 0.06814656 0.11890229 0.08776382 0.012247248 0.07840766
0.03706624 0.11606804 0.08427277 0.056896474 0.09479575 -0.008421684 0.06141704 0.08416282
-0.07185589 0.10326639 -0.053453244 -0.08453668 0.13741289 0.22996251 0.1028139 0.02757208

f_before.2.weight f4 [64, 64]
00000000: 01d9 583c 674d 2c3d 8de6 fabd dc06 243e
00000010: 15d9 73be aeaf adbd 0c57 3abb 2e31 34be
00000020: 5305 23be ac66 9c3d e54b a3be e1ae 0e3e
00000030: f899 a2bd a7db 743e 86a4 fd3d e01c e2bd
00000040: 2668 0dbe 6484 14be 7b9c 8abe 9f38 563e
00000050: aad6 88bd a6f7 b8bd 8286 08bd bf71 6abe
00000060: e833 efbd 1275 91bc 7eea 35bc 1c6b 7d3e
00000070: 6d04 6bbe ab37 653e 7057 a73d 7e2a ba3d
00000080: 4efd 583e d7cf 023e ee53 0d3d be05 05be
00000090: 9bed c8bd 7bca 363e 1847 c03d 072b 8e3e
000000a0: eb19 a5bc f84b 5cbe 64c5 9a3b c816 22be
000000b0: acb6 d5bd 5927 0abe 0ba0 bcbd 33a7 f1bc
000000c0: 8b18 65bc 4c66 973e abdd 15be c843 78be
000000d0: 7b74 71bc 75fb 35bc 91ab 0d3e 36a4 d33d
000000e0: f0b7 d83d 401a eabd 38d4 f5bd 36b0 7a3d
000000f0: e866 fe3d 90dc 043e 4693 97bd 6ab0 f13d
00000100: 2225 51be 085d 35be 501a c43d 3da9 31be
00000110: cf61 b73d 0f1b 9e3e ccfd 29be 2723 f33d
00000120: 6656 4b3e 1609 163e 2ee4 493e fa48 d93c
00000130: 48d8 683e 9e6d 09bd c11c ad3e 67a2 3abe
00000140: ec5c a93d cde6 90be 6e94 023e 2678 87bd
00000150: cf2c 583d 44e5 adbd a01c 1ebe 2c14 fc3c
00000160: 5e62 49be 5e8a 8e3e 3963 7cbd cff9 d7bd
00000170: c33a 673e afa1 e33d c48a 82be 5c47 213e
00000180: 9a44 a1bc d4a1 263c a9d3 83be 6370 a33e
00000190: 75a0 00bd 3611 953d 00f2 91be 97a9 67be
000001a0: 5c04 853e 79d2 853e cdb5 22bd 08b5 01bd
000001b0: 48f2 df3e a9b4 5e38 f4bf b03d c747 753d
000001c0: 391e 50be bbe1 173b 411f 04bd 7b41 73be
000001d0: f8a7 0f3e 8115 1a3e 845f 8bbe 0f7e 3d3e
000001e0: 72af 663e f84c bd3d bf77 afbc 3bca 2dbe
000001f0: b57a 5e3d da89 923d a699 2b3e 705b 31be
00000200: 386c 33bd 29ec a8bb 23e7 a63e e375 8dbe
00000210: d6e8 093e f27e 3ebd 926c f6bd 0ec2 c33d
00000220: 2f97 973d 2619 013e dcc7 b03e bc5a 75bc
00000230: 83bf 513e d5aa d3be 7be3 523e 4ea8 ecbc
00000240: ad2e a03d 0480 efbd 58d6 763d 88c6 2abe
00000250: b550 1c3d 57db c8bd b076 febc c8cf 2c3e
00000260: 6ee8 093d 01ed 10be 2ac1 4cbd 0b63 22be
00000270: 1e62 c03e 885d f9bc 262c 803c 4459 77be
00000280: 27cb bebd 9d91 23bd 2001 b63d a437 ef3d
00000290: ba3e 083c 82d5 903d 541f 983d 9d76 d53c
000002a0: c8ea 39bc bc3f aa3d 28ba 20be c964 393e
000002b0: eb60 30be de2b a3be 7b1d c93d 9e75 893d
000002c0: 6191 fe3c 22d9 2dbe 1e83 c63e 9760 fa3d
000002d0: 74e4 3bbe b271 8dbe db85 76be 1084 cdbd
000002e0: 129d 07be 98c3 133e 79ab 953e c1e4 5dbe
000002f0: e8c2 7d3d 5b70 9ebc 855d 9e3d a9b6 94be
00000300: 0755 c6bd 3205 f13d 04dc 46be de1a 2b3f
00000310: c422 dfbd 6b06 ea3b 08dc 4b3e ea0d 1d3e
00000320: a636 efbb 82e6 02bd 2cd2 033c 3ecc dc3d
00000330: eba9 80bc 667d 653d cb93 0bbe c2e3 fa3d
00000340: e561 a2bc 81c0 db3d 402a 59bf 6406 e33c
00000350: 7421 dbbc 6ef8 0bbe a520 c53c 2150 d3bd
00000360: 68a5 c9bc 0b39 65bd bcb4 43bd 0217 183e
00000370: c6dc a23d 2155 6c3c c64d 863d d335 f63b
00000380: d582 8e3c 405e 093e 0baa d63c 9705 0cbe
00000390: fdbe 6fbe 3525 25be a7e2 143e b00e d13c
000003a0: c438 983d e034 963d cf26 4a3e ae50 a43d
000003b0: 4ec3 97bd 3352 ec3d b35e 413e b62f f43d
000003c0: d797 4e3e 3ea8 a9bd d837 c8be 45e8 62bd
000003d0: e5a0 133f 780d 543e 2a54 3dbc 3924 9cbb
000003e0: db94 e4bd 0b1e 1f3e c82e d5bd ee1e 403d
000003f0: 5ab7 1dbd a560 b03d 7b89 04bd af5f 5d3e
0.0132353315 0.042066004 -0.12251005 0.16018242 -0.23813279 -0.08480774 -0.0028433232 -0.17596886
-0.1592 0.076367706 -0.3189384 0.13933899 -0.079395235 0.23911916 0.12384896 -0.11040664
-0.1380926 -0.14503628 -0.2707251 0.20920037 -0.06681569 -0.0903161 -0.0333314 -0.22894953
-0.11679822 -0.017756019 -0.011103271 0.2474789 -0.22950907 0.22384517 0.08170974 0.09090136
0.21190378 0.12774597 0.03450387 -0.12990472 -0.09810945 0.17850678 0.0938856 0.27767202
-0.02015396 -0.21513355 0.004723238 -0.15829003 -0.104352325 -0.13491572 -0.09210213 -0.029498672
-0.013982902 0.29570234 -0.14635341 -0.24244606 -0.014737244 -0.011107315 0.13834979 0.10334055
0.10581958 -0.11430788 -0.12003368 0.061203204 0.124219716 0.12974763 -0.07401137 0.118012264
-0.20424321 -0.1771127 0.09575331 -0.17349716 0.089542024 0.3088002 -0.16600722 0.11871939
0.19857177 0.14651904 0.1971595 0.026524056 0.22738755 -0.033551805 0.33811 -0.18226014
0.082696766 -0.28301087 0.12751934 -0.06614713 0.052777108 -0.084909946 -0.15440607 0.030771337
-0.1966643 0.2783994 -0.061618064 -0.10545694 0.2258101 0.11114823 -0.25496495 0.15749878
-0.019686032 0.010170419 -0.2574742 0.31921682 -0.031403024 0.07278673 -0.28504944 -0.22623287
0.25979888 0.2613714 -0.03972416 -0.031666785 0.43739533 5.3097177e-05 0.08630362 0.059882905
-0.20324029 0.0023175317 -0.03225637 -0.23755448 0.14028919 0.15047266 -0.2722131 0.18505119
0.22527865 0.09243196 -0.021419404 -0.16971676 0.05431624 0.07155199 0.16757831 -0.17320037
-0.043804377 -0.0051551056 0.32598218 -0.27629003 0.13467726 -0.046507783 -0.12032427 0.09558497
0.07401883 0.1260725 0.3452748 -0.014975246 0.20483212 -0.41341272 0.2059459 -0.028888848
0.07821403 -0.11694339 0.060263008 -0.16677296 0.038162906 -0.09807461 -0.031062454 0.16876137
0.033668928 -0.1415291 -0.049988903 -0.15858094 0.37574857 -0.030440107 0.015646052 -0.24155146
-0.09316092 -0.03993379 0.08886933 0.116805345 0.008315736 0.070719734 0.0742785 0.026057536
-0.01134748 0.083129376 -0.15696013 0.18104853 -0.17224471 -0.31869406 0.09820076 0.06711887
0.031075181 -0.16977361 0.3877191 0.12225454 -0.18348867 -0.27625805 -0.240745 -0.100349545
-0.13243511 0.14430082 0.29232386 -0.21669294 0.061953455 -0.019340685 0.07732681 -0.2904561
-0.096841864 0.11768569 -0.19419867 0.6683787 -0.10895303 0.0071418784 0.19908154 0.15337339
-0.007300216 -0.03195811 0.008045714 0.107811436 -0.015706023 0.056027792 -0.13630597 0.122504726
-0.01982207 0.107300766 -0.84830093 0.027713008 -0.02674935 -0.13668987 0.024063418 -0.10318018
-0.024615005 -0.055962604 -0.047779784 0.14852527 0.079522654 0.014424593 0.06557803 0.0075137406
0.01739637 0.1341486 0.02620413 -0.13674007 -0.234127 -0.16127475 0.14539586 0.025519699
0.07432702 0.07334304 0.19741367 0.08023201 -0.07410298 0.11539116 0.18883781 0.11923163
0.2017511 -0.08284043 -0.39105105 -0.05539729 0.5766738 0.20708263 -0.011555711 -0.0047650603
-0.111612044 0.15538804 -0.104093134 0.046904497 -0.038504936 0.086121835 -0.032357674 0.21618532

f_before.2.bias f4 [64]
00000000: 1f5f 13be 6d45 b5bd 8055 693d 589b c63d
00000010: 7f0c 2dbe 06db 0a3e c137 aabd 3253 10bc
00000020: 9d80 273d 1aaa 1ebe e215 da3b 70c9 d2bd
00000030: ae0c 573e f6ca 32bd e6c3 c93d 3809 02bc
00000040: 7562 e5bc 46c2 613e 7b7c febd df7a d13c
00000050: eae2 1b3d fbd7 64bd 1675 14bd fc8b b5bd
00000060: 64d4 293e 1da3 b8bd 0389 71bd 6063 f7bd
00000070: dbda 133e 1985 623c 4e11 163d c045 eebd
00000080: 5774 ac3d 96b4 babc 0cca fb3d e4a7 c8bb
00000090: 827d febd 31fb 09be dbcf 83bd 81f0 8a3d
000000a0: fc4e c63b 626b 763d 7e39 a2bc ba64 c3bd
000000b0: c6ee 843d 5723 2739 ea73 37bd 0483 2b3d
000000c0: 78e9 013c 01b6 05be 2801 1b3e f83b b4bd
000000d0: 86d1 d7bd 27e7 96bc 72be d0bc 6807 05be
000000e0: aaa0 993d 8f41 243c d9f5 3a3c facf 033e
000000f0: 8557 35bd 8e15 843c c024 59bc e284 c03c
-0.14391755 -0.088511325 0.056966305 0.09697598 -0.16899298 0.13560113 -0.083114155 -0.008808898
0.04089414 -0.15494576 0.0066554407 -0.102923274 0.2100093 -0.04365059 0.09851818 -0.007936768
-0.02800105 0.22046766 -0.124260865 0.025571285 0.0380582 -0.055870038 -0.036244474 -0.088645905
0.16584927 -0.090154864 -0.058968555 -0.12079501 0.14438955 0.013825678 0.036637597 -0.116343975
0.084206276 -0.022791188 0.12294397 -0.0061235297 -0.124262825 -0.13474728 -0.0643613 0.06784154
0.006051896 0.060161002 -0.019802805 -0.095406964 0.06490855 0.00015939526 -0.04478828 0.041872993
0.007929198 -0.1305771 0.1513716 -0.08800501 -0.1053801 -0.018420769 -0.025481436 -0.12991107
0.07501347 0.010025396 0.011411154 0.12872306 -0.04427292 0.01612356 -0.013253391 0.023500863

f_before.4.weight f4 [64, 64]
00000000: 7305 adbe 9023 1bbe 9eaa 0bbf b30a 533b
00000010: ed09 c4bd 4f31 d23e 7267 163e 1687 383e
00000020: 8de2 4a3e 0eea a2bd f191 363e f180 72be
00000030: 9369 c4be 0698 1d3e 0e8a 49be 011e 853e
00000040: 30d5 92bd 1f1d e43d 3097 8e3d 0b2c 953e
00000050: 9e18 9cbd 40e9 2bbe 382f 5abe 483f 0abd
00000060: bc6f 4a3e 801d 32be 4d97 3ebd 8eb0 163b
00000070: aef9 dfbc 2515 34be 3bdb 2bbc ef58 053d
00000080: 2d55 0bbd 94f3 55be 4bfd b3be 8d90 abbd
00000090: b99c 1fbe 7945 8cbd d7cf 9e3d a5a9 febe
000000a0: 68df b8ba 1af2 29be 3173 9d3c 5435 74be
000000b0: 54a1 543e a6a5 de3e 94a6 03bd cea1 2f3e
000000c0: 96ab 7abe 98ac a53d aebb c0bd 3101 5d3d
000000d0: 449e c3bd f1ff d8bc b528 cabe 0648 7dbd
000000e0: 37b9 723d 1506 b5bd 5423 a73e a028 b63c
000000f0: 0db8 93be a56c 753d 98aa 17be 380a 813e
00000100: 0678 82be d88b c5bd de0b 21bd 2ce4 debb
00000110: 7124 f5bd 3e14 0c3e c6c8 9d3d 3cef 0ebd
00000120: f876 6d3c 5cdc e5be c91a 86bd 2c89 25be
00000130: d4b2 35bc 6252 99be 659b 38bd 5103 043f
00000140: 11aa 1dbe 91cd df3c 68c4 d2bd 5a23 a83e
00000150: 537f 00be 1799 8dbe a3a4 82bd fd2b cbbe
00000160: 5fd3 0d3e e63b 8e3c 9432 febd 5c9e d5bd
00000170: 8109 7bbd 36dc a0be 3b8e b33c ef8a 2a3f
00000180: 1536 44be 91b8 04be 3d2d 03be 9f6e 983e
00000190: 3ce7 edbd bb1b 2abe 4844 d13d f0d6 373d
000001a0: 2494 36be b831 0f3e 3553 d9bd 8648 a8bd
000001b0: 5b52 033f d817 0ebe 63c2 5ebd 2cdd 20bd
000001c0: 1d62 1bbe 9b9d 99be ac6f 06be 44f6 00be
000001d0: 2d5d 8cbd 4823 bfbe b3e9 1fbd d572 7fbe
000001e0: a123 bb3d a032 7abe 35c2 d4bd 61cd 1ebd
000001f0: e195 61be 7061 9e3d a8d5 4fbe 19e7 04bf
00000200: 4e40 783e 618f 07bd ffe8 443e ddc3 8d3d
00000210: a499 993d ba16 85bd 8df8 f7bd 2c14 f7bd
00000220: 6296 2abe 0deb 513c 3e62 e23e d2e3 463d
00000230: 6485 643d 1e8e 4cbd cf6a 503d 6d3e ba3e
00000240: 8009 c83d 538c dabd 7420 0dbd adad 38be
00000250: 1845 89bd b607 bc3d af97 edbd af1e 9a3e
00000260: e581 87be 321b 98be d36d 173e 963a b53d
00000270: 3063 a1be b038 913e cef3 e73d 703a 0b3d
00000280: 0709 3bbe 59b0 d33c 909f b93e c005 9c3d
00000290: 4ec3 9e3b 449d 3cbe aee5 843c 3719 e5be
000002a0: 8167 30be 53d8 113e 5d31 83be a2cf fcbd
000002b0: 83df afbe b10a fabc 6aac 13be a691 a23c
000002c0: c8d9 9a3e db0d 5abd 3efc f7bc 95bd 8abc
000002d0: 5194 643e 3af8 ba3d 4c36 ff3d 9a83 63be
000002e0: 572a 0cbe 0216 023f 21d4 edbe a4dd 9dbe
000002f0: 7c06 70bd e85f b8be d688 df3e 7189 b93e
00000300: 1a7c c6bd 549f 9abd 43d6 bf3d 33ed 263a
00000310: ab6c 85bd fb06 363e a683 0b3e b881 823b
00000320: 7a58 d33e 13a1 29be e688 fdbc 3aca 1abe
00000330: a025 50bb 8519 28be 454a bcbd b73e eb3d
00000340: a958 3dbc fb9b 9dbb b26e a1bd d5d0 29be
00000350: df13 28be 7a54 843d cebd 73be 5b30 f6bb
00000360: c59b 88bd 525d b2bc 9d9b 123e c395 333d
00000370: f29e 2ebd f91d 633e cf28 eebd 6d75 efbe
00000380: 111e be3d bc61 963e ee0e 9e3e fcf3 a8bc
00000390: 2f2d 92bd 5414 8bbd b366 013e d1a3 da39
000003a0: cb23 19bf d82d a9bd d701 053b 933b 2abe
000003b0: 93b9 f4be 0cb6 993d c4ed 8e3d 2cb4 71bd
000003c0: 21bf 583d 1e9a 66bd e5be e43d 7756 afbd
000003d0: 794b d6bd e5b2 e9be a461 6fbe e78c 88bd
000003e0: 5345 1c3e 2473 09be 0fa3 c6bd 12d2 443e
000003f0: 369a 1bbd f099 10be a80c 903e 1e89 023f
-0.3379322 -0.15150285 -0.54557216 0.0032202422 -0.09572206 0.41053244 0.14687899 0.18020281
0.19812985 -0.07954799 0.1782911 -0.23682 -0.38361797 0.15390024 -0.1968157 0.25999454
-0.071695685 0.11138367 0.069624305 0.29135165 -0.07621883 -0.16788197 -0.21307075 -0.033751756
0.19769186 -0.17394066 -0.04653101 0.0022993418 -0.027340736 -0.17586191 -0.01048928 0.032555517
-0.034016777 -0.20893699 -0.35154185 -0.0837718 -0.15587129 -0.06849188 0.07754486 -0.49738804
-0.0014104666 -0.1659626 0.019219967 -0.23848468 0.20764667 0.43485755 -0.032141283 0.17151567
-0.24479517 0.0808956 -0.09410797 0.053956214 -0.09551671 -0.02648923 -0.39484182 -0.061836265
0.059258666 -0.08839051 0.3264414 0.022236168 -0.28851357 0.059918065 -0.1481117 0.2520311
-0.25482196 -0.09645814 -0.039317958 -0.0068021026 -0.11969841 0.13679597 0.0770431 -0.03489612
0.014493696 -0.44894683 -0.065480776 -0.16165608 -0.011089999 -0.29945666 -0.04507007 0.5156756
-0.15396906 0.027319701 -0.10291368 0.3283947 -0.1254857 -0.2765586 -0.06379058 -0.39681998
0.13850163 0.017362546 -0.12411991 -0.10430595 -0.06128836 -0.31418008 0.021918407 0.66618246
-0.19161256 -0.12961031 -0.12810226 0.29771897 -0.1161637 -0.16612141 0.10218102 0.044882715
-0.17829949 0.1398381 -0.106115736 -0.08216958 0.5129754 -0.13876283 -0.0543846 -0.039273426
-0.15174146 -0.30003056 -0.13128537 -0.12593943 -0.06853709 -0.37331605 -0.039041232 -0.24946149
0.09137655 -0.24433374 -0.103886046 -0.038770083 -0.2202983 0.077334285 -0.20296347 -0.5191513
0.2424328 -0.03309572 0.19229506 0.069221236 0.07500008 -0.064984754 -0.12107954 -0.12064394
-0.16658929 0.012812388 0.44215578 0.04855711 0.055791274 -0.04994022 0.05088311 0.36375752
0.09767437 -0.10671296 -0.034454778 -0.18035002 -0.06702632 0.09181158 -0.11601197 0.30101535
-0.2646629 -0.29708248 0.14787988 0.08849065 -0.31520987 0.28363562 0.11325799 0.033991277
-0.18265162 0.025840925 0.3625455 0.07618284 0.0048450595 -0.18419367 0.016222801 -0.447458
-0.17226984 0.14242677 -0.256236 -0.1234429 -0.34350213 -0.030522676 -0.1442124 0.019844841
0.3024428 -0.05323587 -0.030271646 -0.016936103 0.22322203 0.09129377 0.12461528 -0.22218171
-0.13688026 0.5081483 -0.46450904 -0.3083316 -0.058599934 -0.3601067 0.43659085 0.36237672
-0.09691639 -0.07549921 0.09367039 0.0006367743 -0.065148674 0.177761 0.13624439 0.003982749
0.4127844 -0.16565351 -0.030949067 -0.15116206 -0.0031760707 -0.16415985 -0.09193853 0.11486571
-0.011556783 -0.004809854 -0.078824416 -0.1658357 -0.1641383 0.06461425 -0.23802873 -0.0075130886
-0.06670336 -0.021773014 0.14317174 0.043843996 -0.04263205 0.22179402 -0.11628877 -0.46769276
0.092830785 0.2937144 0.30870765 -0.020624153 -0.07137524 -0.06790987 0.12636833 0.00041702253
-0.5982024 -0.08260697 0.0020295286 -0.16624288 -0.47797832 0.07505426 0.06978944 -0.059009716
0.05291665 -0.05629932 0.11169223 -0.08561414 -0.10463614 -0.45644298 -0.2337709 -0.066675
0.1526082 -0.13422829 -0.0969907 0.1922076 -0.037988864 -0.14121222 0.28134656 0.50990474

f_before.4.bias f4 [64]
00000000: b71f 4ebb 386c ba3b 3aa7 80bd 16b9 6b3d
00000010: e7a7 ddbd 5678 663d f9a5 de3d 57bf 4fbe
00000020: a39b 41bd fe46 7d3e 05ff a03c fce8 28be
00000030: a72d 78bd 07c7 a0be dc50 89be be3e 06be
00000040: ec29 6dbe b9fc 09be 5363 d2bd 8c2a 463e
00000050: f243 babe b50a c73d 1719 00be ee84 0c3e
00000060: fd33 a23e 395d 97bd 9aa3 7ebd 15bf a2bc
00000070: 6cbd 19bc 9371 35bd 0a9b afbe 1dca fa3c
00000080: b7a8 e2bd 42e5 89bd ba4f 5cbe 7c42 76bd
00000090: fb64 843d fa17 c4be 7985 0fbe 122d 2bbd
000000a0: 0573 683e 47d8 52be 735e d63d 6e5d c1be
000000b0: e9ed 6f3d 18c9 55be 8343 3a3e b320 0b3d
000000c0: e6ab 9abd 06ec 41bd e33d b43c 3199 8c3e
000000d0: a4d8 ebbc 10ee 1abe 8ffb 1cbe cd87 85be
000000e0: 323e 943d 5aeb 013e bd14 3abe b288 93bd
000000f0: 9ce7 2e3e 7fa3 c13c f5e5 d23c 6bd7 a1bd
-0.003145201 0.00568917 -0.06281896 0.05754956 -0.108230405 0.056267105 0.108715005 -0.20287834
-0.047267567 0.24734113 0.019652853 -0.16495126 -0.060590412 -0.31401846 -0.26819503 -0.13109872
-0.23160523 -0.13475312 -0.10272851 0.19352168 -0.36379963 0.09718839 -0.12509571 0.13722584
0.3168029 -0.07390828 -0.06216774 -0.019866506 -0.009383541 -0.044297766 -0.34297973 0.030613953
-0.11067336 -0.067331806 -0.21514788 -0.060122 0.06464573 -0.38299543 -0.1401576 -0.04179103
0.22700126 -0.20590316 0.104672335 -0.37766594 0.0585765 -0.20877492 0.18189816 0.03396673
-0.07552318 -0.04734423 0.022002166 0.27460626 -0.028789826 -0.15129876 -0.15330337 -0.2608017
0.07238425 0.12687436 -0.18171974 -0.07203807 0.1708054 0.023637531 0.025744418 -0.07902416

f_after.0.weight f4 [64, 161]
00000000: a16b 5abd 76a9 51be 0955 023e 2804 123e
00000010: 3a55 b8be bb12 213d 1289 d2bc 8227 efbd
00000020: 4e38 cb3d e413 d6bd fa66 883d ef6f c53d
00000030: 1231 e73d 057c b4be bc84 0a3e e621 37bd
00000040: 3d37 ac3e 5783 393d 2e1c bf3e c681 ea3e
00000050: 4396 b8bc 3961 cebc 89cd 8cbd 543b 37be
00000060: 36bc b1bc 86b9 24be f678 c23c 6fdb ac3b
00000070: 64c3 ee3c b474 0bbd 0349 9f3c e17d aabc
00000080: 1ada 9fbd 80c7 f3bc 8cb7 7cbd 1d56 adbe
00000090: 2b0a 563e 7358 d6bd bb57 15be 47ac 843d
000000a0: d4b2 2c3e 3c4a 13be bdab 06bd cc4b 9ebe
000000b0: 937c d93d 7563 d6bc bddb 703d 1b24 0e3d
000000c0: b31e b33d a225 6cbd 47c4 55be 1049 db3e
000000d0: a704 0e3e 887f 283e a33e 3fbe e76f be3d
000000e0: 1ef5 6c3d c0ec 003e cf34 dc3e 5a1c 813d
000000f0: e698 203d 6425 143d ff76 07bd 679a 0cbc
00000100: e23f 57be 2210 603d c6bf c0bc 07fe 053d
00000110: c975 f8bd 16a9 553a 2710 ce3e e8c5 c8bd
00000120: 4f19 45bd f52f bdbd 104d dabc df66 1dbd
00000130: 3c2b 523e 32aa cbbd 4129 803d 3601 873b
00000140: 9769 83bd 9458 883c 899d 71be b8cf fdbd
00000150: 681e fe3d 958b a7bc 46ab 33bc 3b44 f3bc
00000160: b30d 86bc 19f6 8bbc 4301 903d 3535 363d
00000170: cb1f 5fbe a493 283e 5241 9cbc a33b 6dbd
00000180: a306 9bbc e9fc a4bd d9cb 47be cc04 283d
00000190: 8d13 cd3e 1e9e f63d 53c8 10ba b20e d3bc
000001a0: 14c7 763d d8fe 6abe 3c6e be3c ef57 7a3d
000001b0: e193 a03d ca9e d43d 7098 3f3e 49dc 0abe
000001c0: fd69 89be 66ca 06be 426f 56bd 8f95 6b3d
000001d0: 88a7 cd3d db9c a13d a6b4 68bd 38bd 14be
000001e0: 2dd8 f73c 5be3 95bd bc1d 9abd a6fc 0a3e
000001f0: d727 8fbd 8116 b13b e01b 0a3e 217b 68bd
00000200: e14d 2d3e 45f5 0f3e 0495 fbba a41f 213e
00000210: 0dd2 dc3d a2f8 adbd 009c f93c 8b72 da3d
00000220: 8e9f 793e 87ae 30be 2a44 e63d 9454 38bd
00000230: 01ef b1bd 577c 79bd 62b1 5d3c 9d7e 21be
00000240: a6f7 9cbc 4014 7abd e4da 90bd 16ac da3d
00000250: 2a6f fd3d 7fa9 8d3d 5171 db3c 3504 2b3e
00000260: 5186 2eb9 f709 46be fbbe a73c 2398 2dbe
00000270: 5024 39be 77c1 afbc 6920 c7bd 802f f4bd
00000280: 1e50 f4ba 61cc afbe 940b 2dbe f7a4 b7be
00000290: 500e dabe 6d23 cfbd 2d71 e4be 9b80 97be
000002a0: 5e9a e5be acd4 35be 9d25 66be db02 913e
000002b0: 7031 c8bc 8bfb f8be 66fc 2dbf 095a abbd
000002c0: 8e71 243e ebaa 003f 61d4 5ebe 3858 b23e
000002d0: e1e3 933d 21b2 803b 2a99 153c 11ec d4bd
000002e0: b816 ff3c c936 4bbd fbd8 233a 99da 9a3e
000002f0: e4ca 3abc fc8e fd3c 61a6 a3bc b178 16bd
00000300: 1525 06bc 1faa a6bd c62f 923e b4be 003d
00000310: c705 debe 2926 9dbd e41c a9bd f78b 7a3c
00000320: 22fc 37bd 0d6e 333d 0b58 efbd 3266 f93d
00000330: cda6 97bd 5bc4 eebd 0d12 b2bc ace8 ce3d
00000340: 8098 6c3a 51d6 7e3d 4ace bcbd f3f1 493c
00000350: 158a 9e3d 297f 283e a9d5 d9bd 40c7 54bd
00000360: 8460 8ebe 2706 e13d aba6 e53b 6ead d03e
00000370: ce3b 83bd a86a d73c 3807 dc3d 0243 9c3d
00000380: 7175 43bd e253 a63d 8b60 c73d 9c13 c33d
00000390: cae4 2a3d a7f5 f3bc e08d 4fbd cbe5 ca3c
000003a0: 2db2 c03c 7e9b 043e 58af d2bc 76f0 9f3d
000003b0: 88da 89bd ba00 203d 2b98 0fbe 5c84 703d
000003c0: 5012 583e 0a56 243d cd27 c23c de93 7cbd
000003d0: 1127 0c3c c3de 833c c2a5 0ebe c45e 65bd
000003e0: 5c50 593d e165 4bbd 6223 4ebe 4c62 203c
000003f0: f80a 58be ec85 46be e97b 4b3c 71d4 afbd
-0.0533253 -0.204748 0.12727751 0.14259398 -0.36002523 0.039324503 -0.025700126 -0.116774574
0.09922849 -0.104530126 0.06660266 0.0964049 0.11288656 -0.3525087 0.13527197 -0.044710062
0.33635893 0.04529127 0.37326187 0.45802134 -0.022532588 -0.025192844 -0.0687514 -0.17893726
-0.021696191 -0.16086397 0.02373932 0.005275182 0.029145904 -0.034046844 0.019443994 -0.020811977
-0.078052714 -0.029758215 -0.06169848 -0.33854762 0.20902316 -0.10466089 -0.14584248 0.06478172
0.16865093 -0.14383787 -0.032878626 -0.30917203 0.10619464 -0.026170472 0.05880331 0.0347024
0.0874609 -0.057653077 -0.20875655 0.4282918 0.13868962 0.164549 -0.18676238 0.092986874
0.05785095 0.12590313 0.4300904 0.06304236 0.039208315 0.03616847 -0.033072468 -0.008581734
-0.21020463 0.054702885 -0.023528945 0.032712962 -0.12131841 0.0008150501 0.40246698 -0.098033726
-0.04811984 -0.09237663 -0.026648074 -0.038428184 0.20524305 -0.099445716 0.062578686 0.0041200174
-0.06416624 0.0166438 -0.23595251 -0.12393135 0.12408143 -0.0204523 -0.010966128 -0.02969562
-0.016363954 -0.017085122 0.07031491 0.044484336 -0.21789472 0.1646257 -0.019074116 -0.057918202
-0.018924063 -0.08056051 -0.19511355 0.0410202 0.4005398 0.12041877 -0.00055230147 -0.025763843
0.06024845 -0.22948778 0.023245923 0.061119016 0.07840706 0.10381849 0.18710494 -0.13560595
-0.26838675 -0.13163146 -0.052352197 0.057515677 0.1004172 0.07891246 -0.056812905 -0.14525306
0.030254448 -0.07318755 -0.07525203 0.1357294 -0.06990021 0.005404294 0.13487196 -0.05675805
0.1692424 0.14058407 -0.001919419 0.15734726 0.107822515 -0.084946886 0.030469894 0.106663786
0.24377272 -0.17254077 0.1124347 -0.045002535 -0.086881645 -0.060909595 0.013531061 -0.15770955
-0.019161057 -0.06105447 -0.07073 0.10677354 0.123747185 0.069170944 0.026787432 0.16700824
-0.0001664397 -0.19339739 0.020476809 -0.16952567 -0.18080258 -0.021454556 -0.097229786 -0.119231224
-0.00186396 -0.34335616 -0.16898948 -0.35868046 -0.42589045 -0.10114179 -0.44617596 -0.29590306
-0.44844335 -0.17756909 -0.22475286 0.2832249 -0.024437636 -0.48629412 -0.67963254 -0.08366782
0.16058943 0.502608 -0.21760704 0.3483293 0.07221199 0.0039274846 0.009130755 -0.103965886
0.031138763 -0.049612794 0.0006250289 0.30244902 -0.011400912 0.03095197 -0.019976797 -0.036736194
-0.008187552 -0.08137917 0.28552073 0.03143187 -0.43363783 -0.07673294 -0.082574636 0.015292159
-0.044918187 0.043806124 -0.11686715 0.12177695 -0.074048616 -0.116585456 -0.021737123 0.101029724
0.000902541 0.062216107 -0.09219034 0.012325752 0.07741181 0.16454758 -0.106364556 -0.051947832
-0.2780801 0.109875016 0.0070083938 0.40757316 -0.06407891 0.026295975 0.10743564 0.07629968
-0.047719423 0.08121468 0.09735211 0.095252246 0.041722097 -0.029780222 -0.050672412 0.024767777
0.02352246 0.1294994 -0.025718376 0.07809536 -0.06731135 0.039063193 -0.14022891 0.058719978
0.21100736 0.040121116 0.02370062 -0.061664455 0.008554236 0.016097432 -0.13930419 -0.05599858
0.053055152 -0.049657706 -0.20130685 0.009789061 -0.21097934 -0.19387025 0.012419679 -0.08585442

f_after.0.bias f4 [64]
00000000: 52a4 af3d 7ab4 6abe 9b4c 3b3d 0882 c13d
00000010: fc8b 71be 2411 133e 7909 053e 047f 8e3e
00000020: 60e7 30be 8dc7 bbbd 7799 8e3d 670c a93d
00000030: e22c 2bbd 8739 923e b650 dbbd 477b 5abc
00000040: 9ee8 853e 2a07 00be 5b8c 04bd b97d 18be
00000050: bef6 763c ec8f fe3d 2897 c33d 7143 8cbd
00000060: c385 abbd 76fb 3abd 3963 a63d 40ec 003e
00000070: 9272 963d 7b49 62bc 94a5 50be 1d06 3d3b
00000080: 16ef 06be c4a3 43bd b10d 493d 6ef2 583d
00000090: 15a0 90bc 2239 723e 9262 d4bd 81d4 c3bd
000000a0: bc83 903d 138d 91bc d12a 063e 9b0a a43c
000000b0: a3e5 f9bd d50d b13c 066d e2bc db50 aebd
000000c0: 698d c5bd 9b09 d63c f7bd 30bd bf2f 013e
000000d0: ceed c63d 5a2f a33e 1ac2 823d e90d 873c
000000e0: 117b eebd a7e2 023e 5598 14be ba47 8f3d
000000f0: d9a8 ed3d 384a 863e 86e3 24bc dfcc d83d
0.085762635 -0.22920409 0.045727354 0.094486296 -0.23588556 0.14362007 0.12991895 0.2783128
-0.17275763 -0.09168921 0.06962865 0.08254319 -0.04179085 0.28559515 -0.10708754 -0.013335056
0.26154035 -0.12502733 -0.032360416 -0.1489171 0.015073476 0.12429795 0.09550315 -0.06848801
-0.083751224 -0.045649968 0.08124394 0.12590122 0.07346071 -0.013811464 -0.20375663 0.0028842755
-0.13177142 -0.0477636 0.049085323 0.052965574 -0.017654458 0.23654607 -0.10370363 -0.09562016
0.07056376 -0.017767465 0.1310227 0.020024588 -0.12202003 0.021613041 -0.027639877 -0.08511516
-0.096461125 0.026127627 -0.043149915 0.1261587 0.097133264 0.31872064 0.06384678 0.016486125
-0.11644567 0.12781774 -0.14511235 0.06996103 0.11604471 0.262285 -0.010064011 0.10585951

f_after.2.weight f4 [64, 64]
00000000: 0143 0e3e 271e aebe 52b9 a93d c428 8f3d
00000010: 167a 893e fe69 493e 3495 96be 464a 673e
00000020: 835c d73c 3ef0 08be 9352 c7bd a16e f0bc
00000030: c6f0 213e 54ae 833e 7b63 443e 67b4 cebd
00000040: cada 783b 56dd 7e3d 8b62 6f3c c341 18be
00000050: d583 bdbd bd27 24be b6eb dfbe 50e7 69bd
00000060: 44d5 923e 8a47 11bf 2069 52be 517c 00bf
00000070: ae9c 113e 2fa7 b23e cc76 21be 98d2 023e
00000080: 3991 a0bd b6ba 0fbe 1cd2 183e 9c16 a93d
00000090: 961e 883e 8a6f 22be e203 06bf f640 e33e
000000a0: 5c9d 1d3e e7b7 41be f0dd 553e 60f7 2bbf
000000b0: c510 2abe e061 023f 68ae d6bd 0d3e 313e
000000c0: fcb4 1a3e 96a4 003e dc11 f83d f3c4 b1bd
000000d0: fb6a aabe e250 9bbe ed4f 083e 74dd 85be
000000e0: 3ddb bc3d b70e af3e 28a3 113c 37fd 3ebd
000000f0: 7a89 9c3e fad6 3fbe c81d d33d 8322 b23d
00000100: 68c3 f73d ac39 153d 4da2 8abc d327 e9bc
00000110: 8efc 06bd 18f4 d43d 4a75 3ebd 0b18 2f3d
00000120: c400 57be cd15 8cbd 6001 4fbd b8ed e73e
00000130: 1b70 183e 10e4 0fbc aebe ecbd 1464 9d3d
00000140: c25b dabd 1a17 223d a0e7 af3d 5100 3a3b
00000150: 465b 163e bd08 47be 84b2 11be 1c5c 4e3d
00000160: 94e4 3cbf 638a ab3a f156 2f3d fc63 d53d
00000170: 3d2b ec3b 1e15 d43e 0988 50bd c0b8 a43d
00000180: 0628 993e 6266 993e 228b 0d3e cce8 9bbe
00000190: ba56 263f 3eb6 3e3e 584d 543e a373 253e
000001a0: 19a3 49bd 5e22 59be 5cf8 25be f05c 153a
000001b0: cdf6 293e c5d5 553e 605b c73d 432a 653e
000001c0: 1c67 79bd 5f00 ea3b d13b 433e 4e38 323d
000001d0: 07e9 aabe e7e5 d73d ef87 8e3d 411b e0be
000001e0: ab0a 99be 3a5d 3cbd 1232 c53d 70ba 953b
000001f0: 0e99 2ebd 73e5 813e beac 933c 82aa 1bbd
00000200: cfd9 cdbd e7eb 12bd bd29 a3bd b112 1f3d
00000210: 315b a5bc b976 1bbe 6537 3b3e 5125 a03d
00000220: 8bd5 28ba 7feb 54bd 59fa 0f3e 1e7a b7bd
00000230: 51e8 aebd 4839 9f3e 7def 55bd d3fd 08bc
00000240: 828c 543e 4b95 e4bd 4125 c3bd ced6 5d3e
00000250: 0b11 debd ed8d 14be b55b c33d cae9 99bd
00000260: c8ab 0b3d 88d0 983d bb91 2d3d cbfa 82bd
00000270: eed3 1a3d 62d1 46bd 2949 913d 0d7b cebd
00000280: 0ce4 fdbc 41dd 393d cd61 64bd b1fa b53d
00000290: 76d6 0d3e bf93 983d b9be 1abe bb81 a9bd
000002a0: 8a34 69bb 54e2 b13d c250 0a3e 6859 943d
000002b0: 4489 98bd 0ad8 25be 2c5b 98bd c2ff 6dbe
000002c0: c03b 4cbc 145c 60bd 8293 d7bc 95ac e1bd
000002d0: 755c be3d e4ad 1ebd 1d7b f9be f4e0 ae3d
000002e0: bef5 8c3e 5f93 4c3d 9ec2 54bd 5880 2e3c
000002f0: 5447 1c3d c026 adbb 998a 28bc aa61 37be
00000300: 2862 b8bd 3425 d9bc 31b4 7f3c 0264 3d3d
00000310: 9acd 2a3e 54c2 933d a1de 813e a17c 34be
00000320: 32ea d03d 6827 cc3d 5edd 883c 9f1f 89bd
00000330: dba8 23bd a7a0 873e ba92 463d 846c 35bc
00000340: b4b2 83bd bbc2 133d 058f 85be dcc1 cbbc
00000350: 6b17 a53c a3f1 7fbe 0207 2b3c e0f5 6dbd
00000360: 3131 cc3d dd73 5fbd e4de 723d 4fd8 753b
00000370: 0488 ab3c c739 ae3d cc67 7b3c b82f 663e
00000380: c56d 843d a041 aa3e 0a65 0abc ff1f 043d
00000390: b0cf b5be 7c77 913d b832 31bd 365d b0bb
000003a0: 624a 5f3d 90f9 053e e68b ca3e 66bc 6c3d
000003b0: ef41 b3bd d5ff c93d 87d5 273e ec1a 37be
000003c0: ddaa b23b c168 6f3d e64e 8abc 12ec 003e
000003d0: 6994 41bc a31c e03c 30a4 833d c91e 313d
000003e0: ce3f c33c 387e fa3a 6935 413d 1d6a 10bd
000003f0: 54eb ab37 e23a 85bb fabd 1c3d dffb 14bf
0.13892747 -0.3400738 0.082873 0.06990197 0.26850957 0.19669339 -0.29410708 0.22586927
0.02628923 -0.13372895 -0.09732547 -0.029349627 0.15814504 0.2571894 0.19178574 -0.10093003
0.0037972205 0.0622228 0.014610897 -0.14868836 -0.092536606 -0.16030784 -0.4373452 -0.057105362
0.28678334 -0.56749785 -0.20547915 -0.5018969 0.14219925 0.34893176 -0.15767974 0.12775648
-0.07840199 -0.14036068 0.149239 0.082562655 0.26585835 -0.15862861 -0.52349675 0.443855
0.15392059 -0.1891781 0.20885444 -0.6717434 -0.1660796 0.50930595 -0.10482484 0.17308827
0.15108103 0.12562785 0.121127814 -0.08680143 -0.33284745 -0.30335146 0.1331174 -0.26145518
0.09221504 0.34190914 0.008888997 -0.046628203 0.30573636 -0.18734351 0.10308415 0.08697989
0.12097818 0.036431953 -0.016923094 -0.028461372 -0.0329557 0.1039812 -0.046498574 0.04274754
-0.20996386 -0.06840096 -0.05053842 0.45298553 0.14886515 -0.008782402 -0.11559807 0.07685104
-0.10662033 0.039572813 0.08589101 0.0028381536 0.14683256 -0.19436927 -0.14228255 0.05038081
-0.7378628 0.0013087507 0.042807523 0.10419461 0.007207303 0.4142236 -0.050910983 0.08043051
0.29913348 0.29960924 0.13822606 -0.30451047 0.64976084 0.18624207 0.2073263 0.16157393
-0.049227808 -0.21204516 -0.16208023 0.00056977477 0.16598053 0.20882328 0.09734225 0.22379403
-0.06088935 0.0071411575 0.19065787 0.043510728 -0.3338091 0.10541897 0.06959521 -0.43770793
-0.29890952 -0.045987345 0.09628691 0.004569344 -0.042626433 0.25370368 0.018026706 -0.038004406
-0.10051309 -0.035869505 -0.07966945 0.038836185 -0.020185085 -0.15182008 0.1828285 0.078196175
-0.0006440512 -0.0519824 0.14060344 -0.08958839 -0.085404046 0.3109839 -0.052230347 -0.008361298
0.20756724 -0.11161288 -0.0952859 0.21663973 -0.108430944 -0.14507265 0.09538976 -0.07515295
0.03409937 0.07461649 0.042375308 -0.06395491 0.03779977 -0.048539527 0.07094032 -0.10082064
-0.03099253 0.04537702 -0.055757333 0.08885706 0.13851342 0.07450055 -0.15111817 -0.08276697
-0.0035584294 0.08685747 0.13507369 0.072436154 -0.07448056 -0.16195694 -0.07439265 -0.23242095
-0.012465417 -0.054775313 -0.026315454 -0.110192455 0.092949785 -0.038740054 -0.4872674 0.08539
0.27531236 0.04994523 -0.051943414 0.010650717 0.03815396 -0.0052841604 -0.0102869505 -0.1790835
-0.09003097 -0.026506998 0.015606926 0.046237953 0.16679993 0.072147995 0.25365165 -0.17625667
0.10200919 0.09968454 0.016707119 -0.06695484 -0.039955955 0.26489756 0.048479773 -0.011073235
-0.06430569 0.03607438 -0.26085678 -0.024872713 0.020152768 -0.24994521 0.0104386825 -0.058095813
0.0997032 -0.054553855 0.059294596 0.0037512963 0.02093888 0.08507114 0.015344571 0.22479141
0.064662494 0.33253193 -0.008446941 0.032257076 -0.35510015 0.07102868 -0.04326126 -0.0053822054
0.054514296 0.13083482 0.3955986 0.05779686 -0.0875281 0.09863249 0.16390048 -0.17881364
0.0054524974 0.05844951 -0.016883325 0.12590054 -0.011815169 0.027357405 0.06427801 0.04324225
0.023834135 0.0019111102 0.047170077 -0.035257448 2.0494372e-05 -0.0040658573 0.038267113 -0.58196825

f_after.2.bias f4 [64]
00000000: 2409 103d e3ae 8b3d 75bc 6a3e 852d 1f3e
00000010: d0c1 08be 398d 163c 7f15 0f3b 901d e03d
00000020: 114a 77be 421d ef3d 4fb6 453d 8cb7 103e
00000030: 57d7 3bbe 71c0 0d3e 02ba 233e 3a01 543e
00000040: 45bd 0abd ce21 1abe d76c 8fbc 62c0 98ba
00000050: 7ced 74be ef71 253e 629d 203e 842c cb3c
00000060: 7305 6cbc bc47 34bc 6867 b6bd 8027 00be
00000070: e813 473e 4534 8d3e 73c6 cb3d f85f 72bd
00000080: cb9a 893e ad14 803e a0e3 3cbe 07cc 6abc
00000090: e800 433e 7b83 01be 4a22 b0bd e53f 34bd
000000a0: 4c72 9a3d 4573 aebd 5b84 4ebc 3d08 34bc
000000b0: 6b6f bd3d d00c 38be c4ee 6e3d 4dc1 69bd
000000c0: a394 373e 62e6 0b3e c22a 163e 1a30 debc
000000d0: 42ce 423e 708e 37bd 4fe8 5a3d 9a29 fdbd
000000e0: 4350 dd3d fff2 fc3d 19cc 05bc 49a5 02be
000000f0: dc45 e9bd b26c 80be c008 073d 77c5 e73d
0.035164967 0.06820466 0.22923453 0.15544708 -0.13355184 0.009188944 0.002183288 0.109431386
-0.24149348 0.11675502 0.048269566 0.14132518 -0.18343864 0.13842942 0.15988925 0.20703593
-0.033871908 -0.15051958 -0.017507954 -0.0011654014 -0.23918718 0.16156743 0.15685037 0.0248015
-0.014405596 -0.011003431 -0.08906442 -0.12515068 0.19441187 0.2757894 0.099499606 -0.059173554
0.2687591 0.25015774 -0.18446207 -0.0143308705 0.19043314 -0.12647812 -0.0860029 -0.044006247
0.07541332 -0.0851808 -0.012604798 -0.010988292 0.09249767 -0.17973638 0.058333173 -0.05706911
0.17927794 0.13662103 0.14664748 -0.027122546 0.19023994 -0.044813573 0.053444203 -0.123614505
0.10806324 0.12351035 -0.008166336 -0.12758364 -0.11390278 -0.25082928 0.03296733 0.1131696

f_after.4.weight f4 [64, 64]
00000000: 72bd 36bf 4d74 af3d a38e 76bd 073e ad3d
00000010: 833f d23d 105f fbbe dd15 5b3e 6cb9 f5bb
00000020: a0a9 c0be 3e5e bb3e 5ae4 79bf 1f82 383e
00000030: 076b 463c 0895 123f e280 ce3e 12f7 033f
00000040: 41d8 323d bd3a 80bf 24bb d0bc 71ac 30bf
00000050: 1dad 9dbf 5f18 5b3c 226c 913e b6c9 24be
00000060: 96d8 bf3e f977 82bc 58d2 09bf eb30 6e3f
00000070: e1eb 44be 25ef 6c3d e3fe d13e f67d 1d3c
00000080: 921c 013f dac0 a6bf 0f59 21bf 3440 3abf
00000090: 9184 3a3d 9c24 c4be caee ddbe 8bde 38bf
000000a0: 739c 40be 2c8f 51bf 5eba 22bf 5d08 afbc
000000b0: 7428 96bf 73d9 33c0 ae32 15be 094c 88bf
000000c0: c01d d3bf 1ceb 0ebd fa55 593e eee5 20bf
000000d0: a62a 983e 2c84 4dbf 4ada 9dbd 2a64 fc3e
000000e0: d367 12bf 128e 21bf f9cd fd3e 3d14 48bf
000000f0: 821e 85bd cdc6 cd3c be98 ecbe b30f 3cbf
00000100: ff1a 09bb 9ed3 37be 4b54 003e 76a1 103e
00000110: 59dc a43d 750e 4dbc 981b f7bd 83e0 1d3e
00000120: 3bf3 a43e d0ad ae3e d315 973e 04ea 7ebe
00000130: 76f9 983c 2b00 293b 0b8a d1be 6770 8fbe
00000140: aa6f d9bd b23a 8bbd 2834 3dbc 2477 a8be
00000150: 5026 f03d d735 b23b c4ec e3bd 832f 8b3e
00000160: f09b 2b3e 4328 b63d cb3b cbbd fc40 e1bd
00000170: f5fa df3c b5ee dcbe acc0 c73d c2a4 d5bb
00000180: a736 8b3e d456 0ebd 1e7a eb3d 3d88 9b3e
00000190: 810b cd3c f716 f2bd 9cc2 4a3d 7224 36bf
000001a0: c0cc 15bf 0087 f23c db59 5c3e f5a3 343d
000001b0: 9484 febc ebc1 9b3e e330 93be 1628 2a3d
000001c0: 8856 843e ccac c93d 620c 32bd 60b4 48be
000001d0: 2f60 98bc 201c 983e f804 9fbe 0bc9 19be
000001e0: da91 67be af88 66be ca9e 93be 800f a7bd
000001f0: 115d d3bd fcda cc3d 1eca 823d 3c23 12be
00000200: 227c ab3e 3159 933d 09ee 333e 3c9c 12bd
00000210: 3014 af3d 794a 983d f640 903c 18e9 fe3d
00000220: 2953 69be 8fdf a9be 5e2f 013c f944 8ebd
00000230: 7324 1ebc 5b7c 693e 1302 563e 4bb1 003e
00000240: df97 bebd b4cf 93be b182 ecbd 7bd6 743d
00000250: f591 b63d 2df6 4d3d 308c 7b3d c5a8 963e
00000260: 5eb5 dc3e a21f 61bc 7ea4 793e 255b fcbd
00000270: 1a0a 053e 9041 263e 3998 753e 41e1 59bd
00000280: c96f bcbd 0e1e e8bd 3d7d 9c3c 3316 123e
00000290: 051b 23be f961 c7bb 3574 5dbe 22b3 89be
000002a0: 5280 67bf 9de8 95bb c6f9 aebe 4132 5cbe
000002b0: 2ea4 90bb 04ef c8be 53a1 a53e 0a83 0dbf
000002c0: 64da 2f3e 2369 a53d 5bc4 28be d9eb 9abd
000002d0: 321e 80bd 5f2b 033e 3226 c5be 19d7 9dbe
000002e0: cfc9 29be e107 be3e 2279 c1bd 8018 dabd
000002f0: ae0a 9fbd c63c a23e d7e5 bb3e 023a bcbd
00000300: affb 48bd 6337 36be ca8f 6c3e a4cf a83d
00000310: 378f 623d 5c87 243e 9797 793d daac 9fbf
00000320: bb81 e8bd 385e cebd 10a4 ba3a c030 ab3e
00000330: 17ed 49bd b0d1 643d 1ca1 38bc 49f0 ddbd
00000340: f863 e6be 1dde da3d 6d21 09bc e713 c7bb
00000350: 8637 6dbd afb9 ebbe 953e 283e 954b b2be
00000360: d5cc 8b3d 75da ccbe 4b9b dcbd c1e4 b03d
00000370: b4be 46bd 98a2 bc3d 2d53 9bbd ce67 eabf
00000380: d400 da3d fbdc 9e3d ea8b 0dbe 5cac b2bd
00000390: faf2 c7bb 0210 34be a62c a93d c287 69bc
000003a0: e65c 743c 0c56 7c3d 9176 14be 53bc a4bd
000003b0: 371e 193d b919 b7bc d6ad 95bd 19de 633d
000003c0: 50f9 62bd c048 14bc f63f 8f3d 5b00 0b3d
000003d0: c2f2 153c 1d64 08bb 27d0 df3d 9465 8a3d
000003e0: f9c0 28bd 4256 74ba c56a d33d 898f 493d
000003f0: 1b00 dcbe 99bc 02bf f1a2 abbc 0e0e e03d
-0.7138282 0.085671045 -0.060194623 0.084590964 0.1026602 -0.49095964 0.21395059 -0.0074989107
-0.37629414 0.3659534 -0.9761406 0.18018387 0.012110478 0.57258654 0.40332705 0.51548874
0.043663267 -1.0017926 -0.02547986 -0.69013125 -1.2318455 0.01337251 0.2840281 -0.16092572
0.3746993 -0.015926348 -0.53836584 0.9304339 -0.19230606 0.057845253 0.41014776 0.009612551
0.5043422 -1.3027604 -0.6302652 -0.72754216 0.04553658 -0.3830918 -0.43346244 -0.72214574
-0.1880968 -0.8185909 -0.63565624 -0.021366293 -1.1731095 -2.810147 -0.14570114 -1.0648204
-1.6493454 -0.034892187 0.21224204 -0.62850845 0.29720038 -0.80279803 -0.07707651 0.4929517
-0.57189673 -0.6310741 0.49571207 -0.7815588 -0.064999595 0.02511921 -0.46210283 -0.73461455
-0.0020920632 -0.1795182 0.12532155 0.14124092 0.080498405 -0.012515654 -0.1206581 0.15417676
0.3221682 0.34116983 0.29508838 -0.24893957 0.01867364 0.0025787454 -0.4092563 -0.28015444
-0.10617001 -0.067983046 -0.01154808 -0.32903397 0.117260575 0.005438547 -0.11129144 0.27184686
0.16758704 0.08894398 -0.09923514 -0.10998723 0.027341345 -0.4315087 0.09753546 -0.006519885
0.27190134 -0.034750775 0.114979014 0.3037738 0.0250299 -0.118207864 0.049502 -0.7114936
-0.5851555 0.029605389 0.21518652 0.044101674 -0.031069078 0.30421385 -0.28748235 0.041542135
0.25847268 0.098474115 -0.04346884 -0.19600058 -0.018600551 0.29708958 -0.31058478 -0.15018098
-0.22614232 -0.22513078 -0.28832084 -0.08157253 -0.103204854 0.100027055 0.06386207 -0.14271253
0.33493143 0.07194746 0.17571272 -0.035793528 0.08548772 0.074360795 0.0176091 0.12446803
-0.2278563 -0.33178374 0.007884828 -0.06946749 -0.009652245 0.22801344 0.20899229 0.12567632
-0.09306311 -0.28869402 -0.11548365 0.059774857 0.08914558 0.0502836 0.06141299 0.29425636
0.43107122 -0.013740452 0.24379155 -0.12322072 0.12992135 0.16235948 0.2398385 -0.053193334
-0.09201009 -0.113338575 0.019102687 0.14266281 -0.15928276 -0.0060846773 -0.2162636 -0.2689448
-0.90430176 -0.004574849 -0.34174937 -0.21503545 -0.004414103 -0.39244854 0.32349643 -0.55278075
0.17173153 0.08076694 -0.16481154 -0.075645156 -0.06255759 0.12809514 -0.38505703 -0.3082817
-0.1658089 0.37115386 -0.094469324 -0.10649204 -0.07765709 0.3168699 0.3669879 -0.091907516
-0.04906815 -0.17794566 0.23101726 0.08242729 0.05531236 0.1606726 0.060935583 -1.2474625
-0.11352869 -0.100765646 0.0014239568 0.3343563 -0.049298372 0.055864036 -0.01126888 -0.108368464
-0.44998145 0.10686896 -0.008369786 -0.0060753706 -0.05791428 -0.46040103 0.16430123 -0.3482329
0.06826178 -0.4001042 -0.10771807 0.08637381 -0.048521712 0.092107 -0.07584224 -1.8312929
0.10644689 0.077569924 -0.13822904 -0.08724281 -0.006101963 -0.17584231 0.08260469 -0.014253559
0.014914727 0.0616055 -0.14498354 -0.080437325 0.03738233 -0.022351133 -0.07308547 0.05563173
-0.055413544 -0.009050548 0.069946215 0.033935886 0.009152116 -0.0020811625 0.10928374 0.06757656
-0.041199658 -0.0009320715 0.10323099 0.04920915 -0.4296883 -0.5106903 -0.02095172 0.10940181

f_after.4.bias f4 [64]
00000000: 3321 c03d a7e7 073d 50a5 f83d 820e 403e
00000010: 95f1 8c3e 54b4 07be 53ad 0dbf 2cca a3bd
00000020: 1c22 85bc ca9e 883e 95a1 fbbe ab0a 69bd
00000030: a07d e33d cd6b 82be 2ff1 1bbe 9c3f d8bd
00000040: 9e5b 2bbe 994f 493e 6d98 9a3c 30a1 32be
00000050: dbac 0cbc e55b 0b3e 2a8b e93d 1082 6dbe
00000060: c25e dbbd ae9c 6abe c8b1 0d3e 0524 e13e
00000070: 4f07 f33d 40ea c63e 8883 8fbe ee26 a63d
00000080: 74da 223e 8b17 73bd b3a4 603d 2e7e 833e
00000090: a01c 063d a49a 8fbe f97c 5d3e 8569 74bd
000000a0: b83f a33e 6a7f 5cbe 44ed 83bd 0503 47bc
000000b0: c7a0 cd3e fe2c bc3d a578 963e 26fa 943e
000000c0: 26dc 143e 4c87 123c 390a 22bd 0e69 e3bd
000000d0: e2f7 3a3c ed7b bfbe 1ec1 993e fa0b 863e
000000e0: 3a1c 8bbe cc6e f1bd 9b9c 56be 5e63 1a3f
000000f0: de7a dc3d 2332 cc3c 140b 303e b53b 993c
0.09381332 0.033179905 0.12140906 0.18755534 0.27528062 -0.13252383 -0.55342597 -0.079975456
-0.016251616 0.26683646 -0.49146715 -0.05689494 0.111079454 -0.2547287 -0.15228723 -0.105590075
-0.16734168 0.1965927 0.01887151 -0.174443 -0.008586134 0.13609274 0.114034966 -0.23194146
-0.10711433 -0.22911331 0.1383735 0.43972793 0.118666284 0.38850594 -0.28030038 0.08112894
0.15903646 -0.059348624 0.05484457 0.25682205 0.032742143 -0.2804767 0.21629705 -0.059670944
0.3188455 -0.2153298 -0.06441739 -0.012146716 0.40161726 0.09188269 0.2938892 0.29097098
0.14537105 0.00894339 -0.03956053 -0.11104022 0.011411639 -0.37399235 0.3003015 0.26181012
-0.27169973 -0.11788711 -0.20958178 0.6030787 0.107656226 0.02492625 0.17191726 0.018705228
