model_checkpoints/room_chair_models/latest/latest_net_SlotAttention.pth (torch, 412513 bytes, 34 tensors)

slots_mu f4 [1, 1, 64]
0	0xbfdfd7ca	-1.7487729
1	0x3e02f74b	0.12789647
2	0x3e25d2c1	0.16193677
3	0x3ea55d0e	0.32297558
4	0xbe656b8b	-0.22404306
5	0xbe14e4fa	-0.14540473
6	0xbfee5801	-1.8620607
7	0xbf6b9e18	-0.92038107
8	0x3f876f07	1.0580758
9	0x3e15b867	0.14621125
10	0x3eefd9c4	0.4684583
11	0x3f7f7bf3	0.99798506
12	0x3ed91c0b	0.42404208
13	0xc0018f09	-2.0243552
14	0x3f8b7fae	1.089834
15	0x3f91c5fb	1.1388544
16	0xbf131869	-0.5745912
17	0x3f84a2ce	1.0362184
18	0xbf3927b4	-0.7232621
19	0x3f6b6fd0	0.9196749
20	0x3fbc1e41	1.4696733
21	0xbe22a40e	-0.15882894
22	0x3fdaf5e8	1.7106295
23	0x3f14a11c	0.58058333
24	0xbf7e0859	-0.9923149
25	0xbeabcebf	-0.33556172
26	0x3e6c8d6c	0.23100823
27	0x3f7f55b1	0.9974013
28	0xbe04e6ba	-0.1297864
29	0xc005ad39	-2.0886977
30	0x3f421bfe	0.7582396
31	0xbf88eb42	-1.0696795
32	0xbf3e20f0	-0.7426901
33	0xbfc44417	-1.5333279
34	0x3efce1ab	0.4939092
35	0xbe8f528f	-0.27992675
36	0xbf7c4833	-0.9854767
37	0xbf5b5359	-0.85674053
38	0x3f9cfe57	1.2265118
39	0x3ee68f2e	0.45031112
40	0x3f29017c	0.6601789
41	0xba405257	-0.00073364883
42	0xbf455665	-0.7708495
43	0x3f6ce4e7	0.9253678
44	0xbe1be79c	-0.1522507
45	0xbe1ebf56	-0.15502676
46	0x3ef1803e	0.47168154
47	0xbfe364a9	-1.7765094
48	0xbfa72cf8	-1.3060598
49	0x3ec62800	0.38702393
50	0xbf9fcec5	-1.2484976
51	0xbf9a1f27	-1.2040757
52	0x3ea7338a	0.3265651
53	0x3f64f25a	0.894323
54	0x3f402458	0.75055456
55	0xbfde135f	-1.7349662
56	0x3f07d2b4	0.5305588
57	0x3fb2904d	1.3950287
58	0xc01915ae	-2.3919482
59	0xbef33931	-0.4750457
60	0x3f5d1ff1	0.86376864
61	0xbea8f60b	-0.33000216
62	0xbed913c0	-0.4239788
63	0xbd3db59a	-0.046315767

slots_logsigma f4 [1, 1, 64]
0	0xbdbe0d0a	-0.09279831
1	0x3db06b44	0.08614209
2	0xbea851d7	-0.3287494
3	0xbbb904fe	-0.005646347
4	0xbea3becd	-0.31981507
5	0xbd620474	-0.055180028
6	0xbe51a404	-0.20472723
7	0xbe58638e	-0.21131727
8	0xbe015088	-0.12628376
9	0xbc010ed5	-0.007877071
10	0xbdaf66c4	-0.08564523
11	0x3dc54f3b	0.09634253
12	0xbdb8526b	-0.09000095
13	0xbd9bc583	-0.07606032
14	0xbe938518	-0.2881248
15	0x3db81d2d	0.0898994
16	0xbe174c55	-0.14775212
17	0xbe0162f4	-0.12635404
18	0xbe896754	-0.26836646
19	0xbeae7359	-0.34072378
20	0xbd644ce8	-0.055737406
21	0xbe3aef6a	-0.18255392
22	0xbe0e5e58	-0.13903177
23	0xbd3c55b2	-0.045980163
24	0xbe603373	-0.21894626
25	0xbe74f9c9	-0.2392341
26	0xbd92f9bc	-0.07176539
27	0xbd7ee606	-0.062231086
28	0x3df04dec	0.117336124
29	0xbe3d1b26	-0.18467388
30	0x3e6ad1ad	0.22931547
31	0xbe3656d2	-0.17806557
32	0xbd0b5b1b	-0.03402243
33	0xbdebed5e	-0.115198836
34	0xbdc83ea2	-0.09777571
35	0xbe5e0046	-0.21679792
36	0x3e4b8b8d	0.19877453
37	0x3d5443bc	0.05182241
38	0xbe002f3d	-0.1251802
39	0xbe1891de	-0.14899394
40	0xbefa1db6	-0.48850793
41	0xbeb70b3e	-0.35750765
42	0xbe507906	-0.20358667
43	0xbe5a3ce7	-0.21312295
44	0x3de76f8d	0.113005735
45	0x3d80350c	0.06260118
46	0xbe1726dc	-0.14760917
47	0x3bc869cb	0.006116127
48	0x3e4444c9	0.19166864
49	0x3e4c04ac	0.19923657
50	0xbebc9b48	-0.3683722
51	0xbdf1c85d	-0.118057944
52	0xbe592c80	-0.21208382
53	0xbe219447	-0.1577922
54	0xbea4d7bd	-0.32195845
55	0x3ceb2aac	0.028706871
56	0xbdd449f7	-0.1036567
57	0xbe0f776f	-0.14010404
58	0xbca6244d	-0.020280981
59	0xbea9133f	-0.33022496
60	0xbec7bf8a	-0.3901332
61	0xbef009a2	-0.4688235
62	0xbe2b597d	-0.16733356
63	0xbef99487	-0.4874613

slots_mu_bg f4 [1, 1, 64]
0	0x3fe36901	1.776642
1	0x3e941902	0.2892533
2	0xbf91ae47	-1.138131
3	0x3f60fe74	0.87888265
4	0x3f055eea	0.5209795
5	0x400f2920	2.236885
6	0xbeb75b1c	-0.35811698
7	0x402ab3f2	2.667233
8	0x3e70aac3	0.2350264
9	0x3fc87697	1.5661191
10	0x3fb832d1	1.4390508
11	0xbf67b22b	-0.9050624
12	0x3ec7e48f	0.39041564
13	0x3daa1425	0.083046235
14	0xbead2839	-0.3381975
15	0xbf2f7865	-0.6854308
16	0xbf423efc	-0.75877357
17	0x4001bca0	2.0271378
18	0x3f94345f	1.1578482
19	0xbed19b90	-0.40938997
20	0x3df8b5b9	0.12144036
21	0x3fe21da8	1.76653
22	0xbf66cdca	-0.9015776
23	0xbfd16165	-1.6357847
24	0x401f42a6	2.488443
25	0x3e4d757d	0.2006435
26	0xbf8f10b7	-1.1176976
27	0x3f3c9a55	0.7367299
28	0xbf258e9c	-0.6467073
29	0xbed948db	-0.42438397
30	0x40057a8c	2.0856047
31	0xbe9e8ffd	-0.3096923
32	0xbf1110ee	-0.5666646
33	0x3f97ff32	1.1874754
34	0xbfa168b1	-1.2610074
35	0xbec4adbb	-0.38413796
36	0x3e7fd45a	0.2498335
37	0xbf2f906a	-0.68579733
38	0x3f07ddad	0.53072625
39	0xc0821e00	-4.066162
40	0xbfd2953c	-1.6451793
41	0xbe292ef8	-0.16521823
42	0x3fe1badf	1.7635154
43	0x3f803f42	1.0019305
44	0x40548e57	3.3211877
45	0x40023867	2.0346925
46	0x3e8020cc	0.25025022
47	0xbfb32a5b	-1.3997301
48	0x3f338025	0.7011741
49	0xbf0a974a	-0.541371
50	0x4010523f	2.25502
51	0xbed8d434	-0.42349398
52	0xbf0e345e	-0.55548656
53	0xbeb445c3	-0.35209474
54	0xc006ede6	-2.1082702
55	0xbdb012da	-0.08597346
56	0xbed2ca72	-0.4117008
57	0xbf953da7	-1.165944
58	0x3fea2f43	1.8295673
59	0x3dd961d3	0.106143616
60	0x3fc4af97	1.5366086
61	0x3fba3138	1.454627
62	0xbf90f456	-1.1324565
63	0xbe9021b2	-0.28150707

slots_logsigma_bg f4 [1, 1, 64]
0	0xbe3e411b	-0.18579523
1	0xbe5e726c	-0.21723336
2	0xbe9f064b	-0.3105949
3	0xbcb9e70d	-0.022693181
4	0xbe4ae89f	-0.198153
5	0xbe9a0e38	-0.30088973
6	0xbef5e7ca	-0.48028404
7	0xbd25c144	-0.040467516
8	0xbd9ac4f0	-0.07557094
9	0xbe3d65cd	-0.18495865
10	0xbec37780	-0.3817711
11	0xbc615968	-0.013754226
12	0xbde93152	-0.1138636
13	0xbe966875	-0.2937657
14	0xbe34d393	-0.17658834
15	0xbed6f01b	-0.4198006
16	0xbe544948	-0.2073108
17	0xbe0d6066	-0.13806304
18	0xbeb9335a	-0.3617199
19	0xbd8e0370	-0.069342494
20	0xbe0a6c9a	-0.1351799
21	0xbe4e13fe	-0.20124814
22	0xbe3a9ecf	-0.18224643
23	0xbe0e3f96	-0.13891444
24	0xbe364fc6	-0.17803869
25	0xbe90a62d	-0.28251782
26	0xbdf0cc7e	-0.11757754
27	0xbe7fbb4e	-0.24973795
28	0xbaf28563	-0.0018502887
29	0xbeb2fa5e	-0.3495664
30	0xbe9f2966	-0.31086272
31	0xbead01d8	-0.3379047
32	0x3ca8a60c	0.02058699
33	0xbe94d4ce	-0.29068607
34	0xbe5179cd	-0.2045662
35	0xbdbc21b0	-0.09186113
36	0xbe942e68	-0.28941655
37	0xbec17087	-0.37781164
38	0xbe9d16d2	-0.30681473
39	0xbdf2d37c	-0.11856744
40	0xbd81c8eb	-0.0633715
41	0xbeb425fa	-0.35185224
42	0xbec0c19a	-0.37647706
43	0xbe9e1288	-0.30873513
44	0xbe7c5430	-0.2464149
45	0xbed2216b	-0.4104112
46	0xbe4eda0c	-0.20200366
47	0xbec88161	-0.39161208
48	0xbdf0dac8	-0.11760479
49	0x3da3771e	0.07981704
50	0xbda24715	-0.07923714
51	0xbf076c28	-0.5289941
52	0xbe97ca20	-0.29646397
53	0x3dc89d36	0.097956106
54	0xbe570606	-0.20998392
55	0xbec001f8	-0.37501502
56	0xbdd44ed8	-0.10366601
57	0xbe8311cb	-0.25599512
58	0xbd913ecc	-0.07092056
59	0xbd83f352	-0.06442894
60	0xbe676f1d	-0.2260098
61	0xbda86cb7	-0.08223861
62	0xbe9e0b76	-0.3086812
63	0x3d9b81f9	0.0759315

to_k.weight f4 [64, 64]
0	0xbdfdca8b	-0.12392148
1	0x3b851b07	0.00406206
2	0x3ea89bec	0.3293146
3	0x3d988ccb	0.07448729
4	0xbe6e069d	-0.2324471
5	0x3db59d47	0.08867889
6	0x3e662f15	0.22478898
7	0x3e5fad73	0.2184351
8	0xbeb79002	-0.35852057
9	0xbd811895	-0.06303517
10	0xbe02c8a6	-0.12771854
11	0x3e4ff966	0.20309982
12	0x3e3637ba	0.17794695
13	0x3dbc8ebf	0.09206914
14	0xbd27f03c	-0.04100059
15	0xbe9cfd6f	-0.30662104
16	0x3d94a1be	0.072574124
17	0x3d55e66e	0.052221708
18	0xbdc2e065	-0.09515456
19	0x3e52e451	0.20594908
20	0xbf041d8b	-0.5160758
21	0x3e218965	0.15775068
22	0x3e7b2def	0.24529241
23	0xbe69e258	-0.2284025
24	0x3e7f2573	0.2491663
25	0x3d121024	0.035659924
26	0xbe0d737f	-0.1381359
27	0xbbc16389	-0.005901758
28	0x3e86411a	0.26221544
29	0x3e8db981	0.2768059
30	0xbde43b1f	-0.11144089
31	0x3ccbdbc0	0.024885058
32	0x3e44e683	0.19228558
33	0x3e7b6f3e	0.24554154
34	0xbdcaea99	-0.09908027
35	0x3e7b8d3f	0.245656
36	0x3dddb457	0.10825413
37	0x3dc24b1a	0.09486981
38	0x3d94dc89	0.07268626
39	0xbc00b2d7	-0.007855139
40	0xbe243f9b	-0.16039889
41	0x3e8284d3	0.25491962
42	0x3e48d4b8	0.19612396
43	0xbd239551	-0.03993732
44	0xbe887411	-0.26651052
45	0xbd849324	-0.06473377
46	0x3e5238e2	0.20529512
47	0x3bd9edcd	0.0066506625
48	0x3e264953	0.16238908
49	0x3e529b65	0.20567091
50	0x3ea59193	0.32337627
51	0x3e44288a	0.1915609
52	0x3e1d6e63	0.1537414
53	0x3e248195	0.16065057
54	0xbd632264	-0.05545272
55	0x3e2dc0e9	0.1696812
56	0xbebf95fb	-0.37419114
57	0x3cc825e3	0.024432128
58	0x3e76bb8f	0.24094985
59	0xbcad35ae	-0.02114376
60	0x3e687a25	0.22702844
61	0x3e3c113b	0.18365948
62	0x3da3e956	0.0800349
63	0x3dce1b9a	0.10063858
64	0x3e030db1	0.12798192
65	0xbcdaea1d	-0.026722962
66	0xbebb3b7d	-0.36568823
67	0x3db9bd6d	0.09069333
68	0x3e17707f	0.14789008
69	0xbdf5b96f	-0.11998259
70	0xbdc7f65c	-0.09763786
71	0xbdde5c1b	-0.108574115
72	0x3e946468	0.28982854
73	0x3d907228	0.070530236
74	0x3e9c3b7e	0.3051414
75	0xbdd743a1	-0.10510946
76	0xbe2b0695	-0.1670173
77	0x3e1f62f0	0.15565085
78	0xbd105b6d	-0.03524344
79	0x3e2df7f7	0.16989122
80	0x3e0fdc6d	0.1404893
81	0xbda135b1	-0.07871569
82	0x3e8bbe46	0.27293605
83	0xbd4add55	-0.049527485
84	0x3e92bcd3	0.28659686
85	0x3d88e697	0.066846065
86	0xbdf4794a	-0.119371966
87	0x3d713d3a	0.05889628
88	0xbdafb432	-0.085792914
89	0x3e036fbc	0.12835592
90	0x3cfa774e	0.030574467
91	0xbe18b5c2	-0.14913085
92	0xbe83e0bb	-0.25757393
93	0xbe130090	-0.14355683
94	0x3e80bab2	0.25142437
95	0x3d8c4da0	0.06850743
96	0x3bf70f34	0.007539654
97	0xbdaab97b	-0.08336159
98	0xbe7168d1	-0.2357514
99	0xbd759c9e	-0.059963815
100	0xbe32eb2a	-0.1747252
101	0xbbb9b106	-0.005666855
102	0x3a207d66	0.00061222014
103	0x3e1bc893	0.15213232
104	0x3df83eed	0.12121377
105	0xbe54566e	-0.20736095
106	0xbda73fd4	-0.08166471
107	0x3e0a2a8a	0.1349279
108	0x3e0b23b1	0.13587834
109	0xbd220387	-0.039554145
110	0xbd624fb4	-0.055251792
111	0x3df2b0c4	0.118501216
112	0x3d83df50	0.06439078
113	0xbda65ae2	-0.08122803
114	0xbeaa7174	-0.33289683
115	0xbd6ce5b1	-0.05783624
116	0x3d949aa7	0.0725606
117	0xbd747fa2	-0.059692033
118	0x3cb99f39	0.022658931
119	0xbd7c1cf7	-0.06155106
120	0x3e5c114c	0.21490973
121	0x3aaad1cc	0.0013032495
122	0xbddf94d8	-0.109170616
123	0xbde5e7e2	-0.11225869
124	0xbca53a07	-0.020169271
125	0x3d0d1992	0.034448214
126	0x3cbc3b44	0.022977479
127	0xbe74a7d0	-0.2389214
128	0x3d08e7ee	0.03342431
129	0x3d713d44	0.058896318
130	0xbe855237	-0.26039287
131	0xbe014667	-0.12624513
132	0x3c8cd8fe	0.017193314
133	0xbd5531e1	-0.05204952
134	0xbd56d215	-0.052446444
135	0xbda9c22e	-0.0828899
136	0x3ef50542	0.47855574
137	0xbd36e9ff	-0.04465675
138	0x3e11338b	0.14179818
139	0xbd7421e4	-0.059602633
140	0x3e1c0442	0.15235999
141	0x3cfb7a9f	0.030698119
142	0xbe204120	-0.15649843
143	0x3e25ecf3	0.1620367
144	0x3c0c2091	0.008552686
145	0x3d5c58fe	0.053795807
146	0x3e9ae392	0.30251747
147	0xbd930c00	-0.07180023
148	0x3eac2669	0.33623055
149	0xbd10305a	-0.03520236
150	0xbd1e2982	-0.038613804
151	0x3d4722a4	0.04861702
152	0xbd013fb8	-0.031554908
153	0xbdc9aa52	-0.09846939
154	0x3db6907c	0.08914277
155	0x3cfa3cf3	0.030546641
156	0xbe91e80e	-0.28497356
157	0xbedb0beb	-0.4278253
158	0x3ebfe7ef	0.3748164
159	0xbbf4f646	-0.007475647
160	0xbddf3a6a	-0.108998135
161	0xbd4aaf03	-0.04948331
162	0xbceb5691	-0.028727802
163	0xbd23c0a9	-0.039978657
164	0x3d7ac378	0.06122157
165	0xbd8c7f23	-0.06860187
166	0xbdf14684	-0.11781028
167	0xbbc37619	-0.005965006
168	0x3da98468	0.082772076
169	0xbe939b23	-0.28829297
170	0xbd88f677	-0.066876344
171	0x3c7ce494	0.015435357
172	0xbbe62b9e	-0.0070242425
173	0xbd85d403	-0.06534579
174	0x3c47020e	0.012146486
175	0x3e05e306	0.13074884
176	0x3de4623e	0.11151551
177	0xbd4bcd5a	-0.049756385
178	0xbe9331fd	-0.28749076
179	0xbe8e33d4	-0.27773917
180	0x3cac8b94	0.02106265
181	0x3c6e0f29	0.014529982
182	0x3e264b48	0.16239655
183	0xbc103ed4	-0.008804042
184	0x3e6d7b06	0.23191461
185	0x3c6b3f38	0.014358334
186	0xbce624b5	-0.028093675
187	0x3ca043c8	0.01956357
188	0xbd770248	-0.06030491
189	0xbda9ce26	-0.08291273
190	0xbdb2b925	-0.0872672
191	0xbd83dcdc	-0.0643861
192	0x3d07c54d	0.033147145
193	0xbe06b553	-0.13155107
194	0x3d07a63c	0.033117518
195	0xbe947129	-0.28992584
196	0xbe3bb7c1	-0.18331815
197	0xbd01b527	-0.0316669
198	0xbca15d64	-0.019697852
199	0x3c860731	0.016360851
200	0x3e7a7448	0.2445842
201	0xbdfbea69	-0.123005696
202	0xbc4437e5	-0.011976217
203	0x3cee3e5d	0.029082472
204	0xbd59e9d3	-0.053201508
205	0xbd90a7df	-0.07063269
206	0xbe14f6dc	-0.14547294
207	0x3de6f984	0.1127806
208	0xbda6c751	-0.08143485
209	0x3d14e45c	0.036350593
210	0x3c79607f	0.01522076
211	0x3c705aee	0.014670117
212	0x3e2468d5	0.16055615
213	0xbe0d0bba	-0.13774005
214	0xbc1897b3	-0.009313512
215	0x3d7022b8	0.05862686
216	0x3d429493	0.047504973
217	0xbdf9f01b	-0.122039996
218	0x3c8700ea	0.016479928
219	0x3df79d0f	0.120905034
220	0x3dd4bd89	0.103877135
221	0xbe0a08c2	-0.13479903
222	0xbcbc53cc	-0.022989176
223	0x3d1a844c	0.037723824
224	0xbdaa785b	-0.08323737
225	0x3bb9af4a	0.005666648
226	0x3ec32981	0.38117602
227	0x3cdf8769	0.027286248
228	0x3ecc2c9f	0.39877793
229	0x3cfdc7b2	0.030979011
230	0xbd8e03f3	-0.06934347
231	0xbd7aba7f	-0.061213013
232	0x3c18d068	0.009327032
233	0xbdf3c064	-0.1190193
234	0x3c8d9f3d	0.017287845
235	0x3d069c4d	0.032863904
236	0xbdec8197	-0.11548155
237	0x3d834787	0.06410127
238	0xbde04690	-0.10950959
239	0xbd767425	-0.060169358
240	0xbb3f468e	-0.002918634
241	0xbc8b4fad	-0.017005766
242	0x3ddb0a85	0.10695366
243	0xbd946ea8	-0.072476685
244	0xbd1a2557	-0.037633266
245	0xbca9ce12	-0.020728145
246	0x3e2c6e1b	0.16838877
247	0xbdd65d46	-0.10467009
248	0x3dd9fcda	0.10643931
249	0xbb8fea91	-0.004391976
250	0x3d2a5c93	0.041592192
251	0x3e33bf57	0.17553459
252	0xbca697ed	-0.020336116
253	0xbec85bf0	-0.39132643
254	0xbe70d182	-0.23517421
255	0x3e8c074a	0.2734931

to_v.weight f4 [64, 64]
0	0xbd8b2a30	-0.06795156
1	0x3e25cac1	0.16190626
2	0x3d92fdb7	0.071772985
3	0xbdab1e70	-0.08355415
4	0xbdc002b1	-0.09375513
5	0xbd846d90	-0.0646621
6	0xbd82beb9	-0.06384034
7	0xbd9bbb64	-0.07604101
8	0xbdc4cb0c	-0.096090406
9	0x3d7bf078	0.061508626
10	0xbd54111f	-0.05177414
11	0xbd79e877	-0.06101271
12	0xbe64f3c2	-0.22358611
13	0x3d5846ec	0.05280201
14	0xbd4bedab	-0.049787205
15	0x3dfa8286	0.122319266
16	0xbc1543e6	-0.0091104265
17	0x3c32ea58	0.01092013
18	0xbd119b05	-0.03554823
19	0xbdae3ae5	-0.08507327
20	0x3e0cc5fc	0.137474
21	0x3d583d04	0.052792564
22	0xbd4fa46d	-0.050693918
23	0x3c00c11a	0.007858539
24	0xbd40995f	-0.047021266
25	0xbd13f446	-0.03612163
26	0x3c4b51be	0.012409626
27	0x3d43edd6	0.04783424
28	0xbd991dd1	-0.0747639
29	0xbc5a9e0e	-0.013343347
30	0xbd18e688	-0.037329227
31	0xbe970da0	-0.29502583
32	0x3e1f464f	0.15554164
33	0xbd9e0164	-0.07715109
34	0x3e6b9dd8	0.23009431
35	0xbd88ada4	-0.06673744
36	0xba1a8419	-0.0005894318
37	0x3e231d7c	0.15929216
38	0x3d3de1ec	0.046358034
39	0x3e68cacf	0.22733615
40	0x3d96352a	0.07334359
41	0xbe320237	-0.17383657
42	0xbd804b34	-0.06264344
43	0xbd6eaa7b	-0.05826805
44	0xbb143d50	-0.0022619553
45	0xbd424855	-0.047432262
46	0xbd30d6a9	-0.043173466
47	0xbe07d0ae	-0.13263199
48	0x3a7b855f	0.0009594764
49	0xbd44d719	-0.048056696
50	0xbd7bb8ec	-0.061455652
51	0xbd3df185	-0.04637291
52	0x3cff28d7	0.031147404
53	0xbd13aeeb	-0.036055487
54	0xbd49418b	-0.049134772
55	0xbd920fc3	-0.071319126
56	0x3e017b29	0.12644638
57	0x3db246bf	0.087049
58	0xbdd73b64	-0.10509375
59	0x3da5e9f9	0.08101267
60	0xbdb8e7ee	-0.09028612
61	0xbd90bbc2	-0.07067062
62	0xbd91ac5b	-0.07112952
63	0xbdaa48d4	-0.08314672
64	0x3e4c9eb8	0.19982421
65	0xbe2993ed	-0.16560335
66	0xbdbacbf8	-0.09120935
67	0xbd5ed8a6	-0.05440583
68	0x3e0b41ef	0.1359937
69	0xbdae0f57	-0.084990196
70	0xbd6e9a54	-0.058252648
71	0xbb1462c4	-0.0022641877
72	0xbd43f23a	-0.047838427
73	0xbdcad104	-0.09903148
74	0x3d4504c0	0.048100233
75	0x3bdf589b	0.0068159825
76	0xbe09534d	-0.13410683
77	0xbdbcfdc1	-0.09228087
78	0x3e4f43b9	0.20240678
79	0xbce2dad4	-0.027692236
80	0x3dd8bfc3	0.10583451
81	0xbd711e3b	-0.05886672
82	0xbd9bafa6	-0.07601862
83	0xbcb0bc7d	-0.021574253
84	0x3d8c4001	0.06848145
85	0xbdc799ec	-0.09746155
86	0xbd5b5ff3	-0.0535583
87	0x3c765ca2	0.015036734
88	0xbceb7fed	-0.028747523
89	0xbca580bd	-0.020202989
90	0x3ca4a7cd	0.020099545
91	0xbe694ee8	-0.22784007
92	0xbd040937	-0.03223535
93	0xbdac9a04	-0.08427814
94	0xbcaeaed6	-0.021323603
95	0x3dc8a554	0.09797159
96	0x3dd10b5b	0.10207244
97	0xbd266f6e	-0.04063361
98	0xbcd97d4d	-0.026549006
99	0xbd4b5c29	-0.049648438
100	0xbddf2232	-0.10895194
101	0x3d3eddf7	0.0465984
102	0xbdba4932	-0.09095992
103	0xbcee3810	-0.029079467
104	0xbcc45441	-0.023965957
105	0xbd01e550	-0.03171283
106	0xbda17ed7	-0.07885521
107	0x3b2487e3	0.002510541
108	0xbd1abf6c	-0.03778021
109	0x3e0d211b	0.1378216
110	0xbdae30a7	-0.085053734
111	0xbcfb84ad	-0.030702913
112	0xbe3db143	-0.18524651
113	0xbd74ff4a	-0.059813775
114	0x3cdc5248	0.026894704
115	0xbe214ccb	-0.1575195
116	0xbdbbc757	-0.091688804
117	0x3c71b331	0.014752195
118	0x3e056e87	0.13030444
119	0xbd00b81b	-0.031425577
120	0xbd3f2852	-0.04666931
121	0xbaf77289	-0.0018878739
122	0xbd981037	-0.07424968
123	0x3c34825d	0.011017409
124	0xbcfc401a	-0.030792285
125	0xbd5e8606	-0.054327033
126	0xbca95626	-0.020670962
127	0xbdf071dd	-0.11740468
128	0xbdced8d9	-0.10099954
129	0xbe6cc314	-0.23121291
130	0x3e242163	0.16028361
131	0xbdabef69	-0.08395273
132	0xbd865141	-0.06558467
133	0x3d54265d	0.0517944
134	0x3c135978	0.008993499
135	0xbd80cfdc	-0.06289646
136	0xbc009c0a	-0.007849703
137	0xbd5c1f38	-0.05374071
138	0x3d0e7165	0.03477611
139	0xbb904a7e	-0.0044034114
140	0x3d4a624c	0.04941015
141	0x3d792f4b	0.060836118
142	0x3ddd8beb	0.10817703
143	0x3d223f73	0.03961129
144	0xbe0f1401	-0.13972475
145	0x3bbceb73	0.0057653724
146	0x3cde819c	0.027161412
147	0xbc568be9	-0.013094881
148	0xbd9fabab	-0.07796415
149	0xbc35b169	-0.011089661
150	0xbca85220	-0.020546973
151	0xbda78084	-0.08178809
152	0xbcd575b3	-0.0260571
153	0x3d4c9497	0.049946394
154	0x3decb698	0.115582645
155	0x3d9adf58	0.07562131
156	0x3e308e5c	0.17241806
157	0x3de7e01f	0.113220446
158	0xbd0f712c	-0.03502004
159	0x3ce01f2d	0.027358616
160	0x3dc408ac	0.095719665
161	0xbb84485f	-0.0040369476
162	0x3df87888	0.121323645
163	0x3c521b08	0.012823828
164	0x3e3706df	0.17873715
165	0xbdb986cd	-0.09058914
166	0xbcff586b	-0.03117009
167	0x3d0e30fc	0.034714684
168	0x3df89b90	0.12139046
169	0xbd7997ac	-0.06093566
170	0xbcea00c7	-0.028564824
171	0x3d3e50bd	0.046463717
172	0x3da0605b	0.07830878
173	0xbe881af8	-0.26583076
174	0xbd2dea7a	-0.042459942
175	0x3e0fbc8e	0.14036772
176	0xbd0b19df	-0.03396022
177	0x3c86c1d2	0.016449843
178	0x3e49ec63	0.1971908
179	0x3e0706ed	0.13186236
180	0x3c6ed128	0.014576234
181	0x3d1ffee7	0.039061453
182	0xbd7e1c4a	-0.062038697
183	0x39cec9ec	0.00039441825
184	0x3d9e8aca	0.07741316
185	0xbc0bc879	-0.008531683
186	0xbc8ceedd	-0.017203743
187	0xbd2dc56f	-0.042424615
188	0x3c2737e4	0.010206196
189	0x3b91a037	0.004444148
190	0x3de39356	0.111120865
191	0x3cc11f1e	0.023574408
192	0x3c5981cf	0.013275578
193	0xbeb935bf	-0.36173818
194	0x3e06e13a	0.13171855
195	0xbca0b933	-0.01961956
196	0x3dd7039b	0.104987346
197	0xbd76d367	-0.060260203
198	0xbd77fae3	-0.060542
199	0xbd8950a0	-0.06704831
200	0xbd2133ac	-0.03935592
201	0x3d425f11	0.047453944
202	0xbd4ffd04	-0.050778404
203	0xbd2ad742	-0.041709192
204	0xbe2f9941	-0.17148305
205	0xbded593a	-0.11589284
206	0xbe9b0296	-0.3027541
207	0x3db7a049	0.08966119
208	0xbea544b2	-0.32278973
209	0xbc6f3a56	-0.014601311
210	0x3cb6e41f	0.022325573
211	0xbd5ded00	-0.0541811
212	0x3d9e9faa	0.07745297
213	0xbd1edded	-0.038785864
214	0xbc0f18ca	-0.0087339375
215	0x3dc825b5	0.09772817
216	0xbc9c137f	-0.019052265
217	0xbd961aa1	-0.07329298
218	0xbde6ef3b	-0.11276098
219	0xbc3632af	-0.011120482
220	0xbb90fc88	-0.0044246353
221	0x3d1eb420	0.038746
222	0x3d6fee7f	0.058577057
223	0x3db18150	0.086672425
224	0xbcd1f65e	-0.025630172
225	0xbc9ed699	-0.019389438
226	0x3c9015ef	0.017588584
227	0xbd51afa4	-0.051192895
228	0xbe6c3f85	-0.23071106
229	0x3e38cf39	0.18047799
230	0xbb26df18	-0.0025462564
231	0x3db2df99	0.08734054
232	0x3d7941ca	0.060853757
233	0xbd80d142	-0.06289913
234	0xbd0ee49b	-0.034885984
235	0xbe230b1e	-0.1592221
236	0x3c27c263	0.0102392165
237	0x3da67ee8	0.08129674
238	0xbd17764c	-0.03697805
239	0x3e0c9eb4	0.13732415
240	0x3e05e2b7	0.13074766
241	0xbd0f4951	-0.03498203
242	0xbe11f2a6	-0.1425272
243	0xbda6e0dd	-0.08148358
244	0x3cb7e2dc	0.022447042
245	0xbe3d98d1	-0.18515326
246	0x3c63e5a0	0.013909727
247	0x3bd3ce9f	0.00646384
248	0xbd563e3a	-0.052305438
249	0x3b3f2cd6	0.0029171011
250	0xbc65ba34	-0.014021445
251	0x3cadbef9	0.021209227
252	0xbd603de4	-0.054746523
253	0x3d89b2a5	0.06723527
254	0x3d99ff89	0.075194426
255	0xbda25604	-0.079265624

to_q.0.weight f4 [64]
0	0x3f6e67ae	0.9312695
1	0x3f7fe30d	0.99955827
2	0x3f85e3ec	1.0460181
3	0x3f804011	1.0019552
4	0x3f83424a	1.0254605
5	0x3f6db611	0.92855936
6	0x3f8685bc	1.0509562
7	0x3f66520a	0.8996893
8	0x3f6e6187	0.93117565
9	0x3f82ba0b	1.0213026
10	0x3f83e591	1.0304433
11	0x3f8a6e1d	1.0814854
12	0x3f99168a	1.1960003
13	0x3f8704ae	1.0548303
14	0x3f2d2da8	0.6764779
15	0x3f8d2928	1.1028185
16	0x3f643322	0.8914052
17	0x3f910c32	1.1331847
18	0x3f606233	0.8764984
19	0x3f87be88	1.060502
20	0x3f90a867	1.1301392
21	0x3f7aeb8a	0.98015654
22	0x3f935aef	1.1512126
23	0x3f5e9c90	0.86957645
24	0x3f81e7f4	1.0148911
25	0x3f6a1ff5	0.9145501
26	0x3f50bbd9	0.8153663
27	0x3f92af4d	1.1459748
28	0x3f8b0fe2	1.0864222
29	0x3f6549bc	0.89565635
30	0x3f8b08f6	1.086211
31	0x3f922e2a	1.1420338
32	0x3f73a0b2	0.95167077
33	0x3f93ab02	1.1536562
34	0x3f78a569	0.97127396
35	0x3f63a70e	0.8892678
36	0x3f957a6f	1.1677989
37	0x3f5afa01	0.85537726
38	0x3f7892c1	0.9709893
39	0x3f683ac8	0.90714693
40	0x3f860729	1.0470935
41	0x3f6d7885	0.92762023
42	0x3f5146d4	0.817487
43	0x3f4cde9c	0.80027175
44	0x3fa1cd62	1.2640803
45	0x3f96fc16	1.179568
46	0x3f8462ca	1.0342648
47	0x3f944c7d	1.1585842
48	0x3f9c26f1	1.2199384
49	0x3f738c67	0.9513611
50	0x3f625f3e	0.8842658
51	0x3f7e8c82	0.9943315
52	0x3f64e11a	0.8940598
53	0x3f8be913	1.0930504
54	0x3f7d27bd	0.9888876
55	0x3f8402e3	1.0313381
56	0x3f91ef27	1.1401109
57	0x3f7819a5	0.9691413
58	0x3f49d115	0.7883466
59	0x3f83ee85	1.0307165
60	0x3f6ddb7c	0.9291303
61	0x3f666070	0.899909
62	0x3f8572b7	1.0425633
63	0x3f7772cd	0.9665955

to_q.0.bias f4 [64]
0	0xbe05ed94	-0.1307891
1	0x3dcb3aa9	0.09923298
2	0xbe34f537	-0.17671667
3	0x3d4b5bc7	0.049648073
4	0xbde7ea28	-0.11323959
5	0x3dceb00c	0.10092172
6	0xbe50cc3a	-0.20390406
7	0x3e47e073	0.19519214
8	0x3e8a1414	0.26968443
9	0xbcfcee38	-0.03087531
10	0x3da2ee22	0.079555765
11	0x3db75f1b	0.08953687
12	0xbd529c2c	-0.05141847
13	0xbe14e32f	-0.14539789
14	0x3e783202	0.24237826
15	0xbd833082	-0.064057365
16	0x3d779517	0.060444918
17	0xbcf60d8b	-0.030035755
18	0x3dc6c001	0.097045906
19	0xbdd6b0b1	-0.1048292
20	0xbe2e901b	-0.1704716
21	0x3e59bf62	0.21264413
22	0x3e462f67	0.1935402
23	0xbdc7dc44	-0.09758809
24	0x3d5df4c7	0.054188516
25	0xbcccaed9	-0.024985718
26	0x3da50875	0.08058254
27	0xbdd9a1ae	-0.10626541
28	0xbded3b0f	-0.1158353
29	0x3e0ef9d8	0.13962495
30	0x3e107a50	0.14109159
31	0x3c58b885	0.013227587
32	0x3da1bed7	0.07897728
33	0xbd35d759	-0.044394825
34	0x3dd67882	0.10472204
35	0x3e2a2a50	0.16617703
36	0x3df797b8	0.12089485
37	0x3e0d910c	0.13824862
38	0xbe39b3e7	-0.18135034
39	0xbdd984b5	-0.10621015
40	0x3e5f1a37	0.21787344
41	0xbd4c991b	-0.0499507
42	0x3d9e3c02	0.07726289
43	0x3c873bc4	0.01650799
44	0x3d39e205	0.045381565
45	0xbd1408c7	-0.036141183
46	0xbc471976	-0.012152066
47	0xbe20dafb	-0.15708534
48	0xbde6e772	-0.112746134
49	0xbdc84961	-0.09779621
50	0xbe6ef77b	-0.23336594
51	0xbe56b2cb	-0.20966642
52	0x3de3e938	0.11128467
53	0x3c682fa0	0.014171511
54	0xbe399d33	-0.18126373
55	0xbdf05b39	-0.11736149
56	0x3e48deda	0.19616261
57	0x3d4caa72	0.049967237
58	0x3e609465	0.21931608
59	0x3e2c4aec	0.16825455
60	0x3cc530f8	0.024071202
61	0x3e360964	0.1777702
62	0xbd635cfe	-0.055508606
63	0x3e8a2b74	0.26986277

to_q.1.weight f4 [64, 64]
0	0xbe488773	-0.1958292
1	0x3e6cb283	0.23114972
2	0x3e8c49c5	0.27400032
3	0xbe446bb5	-0.19181712
4	0x3d6612ac	0.05617015
5	0xbd990309	-0.07471282
6	0x3dee2eed	0.11630044
7	0xbd08413a	-0.03326533
8	0x3e6c4349	0.23072542
9	0x3e5a2e64	0.21306759
10	0xbe76438f	-0.24049209
11	0xbe3d674c	-0.18496436
12	0x3e5df861	0.2167678
13	0x3e29e300	0.165905
14	0xbce31fd6	-0.027725141
15	0x3ddb9960	0.10722613
16	0x3daf5679	0.08561415
17	0x3e594749	0.212186
18	0xbb6be4d6	-0.003599455
19	0xbdf890c8	-0.1213699
20	0xbde44940	-0.11146784
21	0x3ca6ef74	0.020377852
22	0x3e223539	0.15840615
23	0xbdbfd167	-0.09366112
24	0xbdb1274e	-0.08650075
25	0x3e2c3446	0.16816816
26	0xbe764378	-0.24049175
27	0xbe8a408f	-0.2700238
28	0xbe647615	-0.2231067
29	0x3d282b17	0.04105672
30	0x3e00da17	0.12583195
31	0xbe2c2e41	-0.1681452
32	0x3dd4d2fa	0.10391803
33	0xbe32e7ee	-0.17471287
34	0xbe5d54d1	-0.21614386
35	0x3e1504cc	0.14552611
36	0x3e376c92	0.1791251
37	0x3dd9e237	0.1063885
38	0xbe2e5e48	-0.17028153
39	0xbe478c54	-0.19487125
40	0x3e02bc41	0.12767126
41	0xbc9093f3	-0.017648673
42	0xbd08edef	-0.033430036
43	0x3ce83052	0.028343353
44	0xbe142e4e	-0.14470789
45	0xbc9e6183	-0.019333607
46	0x3c8651ea	0.016396482
47	0xbe282bed	-0.16423006
48	0x3e7ffaff	0.24998091
49	0xbd4f5b2c	-0.050624058
50	0x3cae1268	0.021249011
51	0xbcfacb90	-0.030614644
52	0x3d5284de	0.051396243
53	0xbc05966e	-0.008153541
54	0x3e0a8474	0.1352709
55	0xbe0470b7	-0.12933622
56	0xbe217b4e	-0.15769693
57	0x3d4412ab	0.047869366
58	0x3d047c42	0.032345064
59	0xbcf0e003	-0.029403692
60	0xbda0bc28	-0.07848388
61	0xbe40e757	-0.18838249
62	0x3db29905	0.087205924
63	0x3ca27259	0.019829916
64	0x3e6400b6	0.22265896
65	0xbe2435be	-0.16036126
66	0xbe121c68	-0.14268649
67	0x3dd1762f	0.1022762
68	0xbb2ec545	-0.0026667875
69	0xbc3c0e26	-0.011477983
70	0xbc80a7e8	-0.015705064
71	0xbcba5b87	-0.022748722
72	0xbe1e8fad	-0.15484495
73	0xbd880b0c	-0.06642732
74	0x3e1242de	0.1428332
75	0x3db7fc6a	0.08983691
76	0xbe3508c3	-0.17679124
77	0xbdf525e0	-0.11970115
78	0xbd8ad638	-0.0677914
79	0x3b8e4f7f	0.0043429728
80	0xbd6c72a2	-0.05772651
81	0xbe8b965d	-0.27263156
82	0x3d592a97	0.053019132
83	0x3e9181a7	0.2841923
84	0x3e6cb6f0	0.2311666
85	0xbd8768bc	-0.06611773
86	0xbd6d641d	-0.057956804
87	0x3d33f74b	0.04393701
88	0x3e65e3a9	0.22450127
89	0xbdb16e00	-0.08663559
90	0x3e26bdcb	0.16283338
91	0x3eaad691	0.33366826
92	0x3e13a43f	0.14418124
93	0x3b12ee4c	0.0022419868
94	0xbe83133e	-0.25600618
95	0x3e70b52c	0.23506612
96	0xbcedd32a	-0.029031355
97	0x3e217a21	0.15769245
98	0x3de8d886	0.113694236
99	0x3c02a64a	0.007974217
100	0xbea30ce2	-0.31845766
101	0x3c40fe74	0.011779416
102	0x3dbe6e55	0.09298388
103	0x3ddfcbcd	0.10927544
104	0xbd76aa1c	-0.060220823
105	0xbd02e5e2	-0.031957515
106	0x3b36a494	0.0027869092
107	0xbe17a174	-0.14807683
108	0x3db0beed	0.08630166
109	0x3c31bbf5	0.010848035
110	0xbcdf659f	-0.027270136
111	0x3e8d08e4	0.27545846
112	0xbe300095	-0.17187722
113	0x3d27435b	0.04083572
114	0x3e06f071	0.13177659
115	0xbc764825	-0.015031849
116	0xbd3764e7	-0.044773962
117	0x3d8be8f5	0.068315424
118	0xbbf83eeb	-0.00757586
119	0x3dde983c	0.1086888
120	0xbd0303a7	-0.031985905
121	0xbdc5bd45	-0.09655241
122	0xbdda60b5	-0.10662977
123	0x3d4afc06	0.049556755
124	0xbcca47b3	-0.024692392
125	0x3da841d3	0.0821568
126	0xbd991c36	-0.07476084
127	0xbe31a216	-0.17346987
128	0x3e71a572	0.23598269
129	0xbe284b8a	-0.16435066
130	0xbdb11669	-0.086468525
131	0x3e5bad49	0.21452822
132	0xbd7f5db7	-0.062345233
133	0xbdcf453e	-0.10120629
134	0x3cc62c2b	0.024190983
135	0x3de87519	0.113504596
136	0xbe17a641	-0.14809515
137	0xbe07e7d5	-0.1327203
138	0x3e1a8604	0.15090185
139	0x3d39cea6	0.04536309
140	0xbe7926e3	-0.2433124
141	0xbe58c968	-0.2117058
142	0xbd4240b1	-0.047424976
143	0xbe690fdc	-0.22759956
144	0xbe0f0a40	-0.13968754
145	0xbeb68162	-0.35645586
146	0xbd103347	-0.035205152
147	0x3df46bea	0.119346455
148	0x3d70d3b1	0.058795635
149	0x3cb12ae3	0.021626895
150	0xbe09da8d	-0.13462277
151	0x3cc60ca9	0.024175959
152	0x3e24f658	0.16109598
153	0xbd87969b	-0.066205226
154	0x3d93a273	0.07208719
155	0x3e23f743	0.16012292
156	0x3e61b660	0.22042227
157	0xbdcd1423	-0.100136064
158	0x3d9082b5	0.070561804
159	0x3d4771b7	0.04869243
160	0x3cb0e869	0.021595197
161	0x3e818c5a	0.25302392
162	0xbcc306e9	-0.023807006
163	0xbda2bc9d	-0.079461314
164	0xbe797576	-0.24361214
165	0xbd8c27b0	-0.06843507
166	0x3e0d4280	0.13794899
167	0x3dd8466e	0.105603084
168	0x3d9b7e46	0.07592444
169	0xbd254da3	-0.040357243
170	0x3ca28010	0.019836456
171	0xbe31c243	-0.17359261
172	0x3e9c8bc5	0.30575386
173	0x3e1e662f	0.15468667
174	0xbd580c46	-0.05274608
175	0x3e0cdc19	0.13755836
176	0xbe8350ba	-0.25647527
177	0x3d5ca0a2	0.05386413
178	0xbbbe7e20	-0.005813375
179	0xbc0fa1b1	-0.008766578
180	0xbd059410	-0.032611907
181	0x3d96f0a1	0.07370115
182	0xbd75ad25	-0.059979577
183	0x3c74060d	0.014894021
184	0x3d055a74	0.032556966
185	0x3ca991e8	0.020699456
186	0xbde42b26	-0.111410424
187	0x3d71adba	0.05900357
188	0xbd386cdc	-0.04502569
189	0x3da2f9bc	0.07957789
190	0x3c70c918	0.014696382
191	0xbdd36b1b	-0.10323163
192	0xbdde4f8c	-0.10855016
193	0x3e22266e	0.15834972
194	0xbdb41236	-0.08792536
195	0x3d85918b	0.06521901
196	0xbe326ebb	-0.17425053
197	0xbda31488	-0.079629004
198	0xbdec9e38	-0.11553615
199	0xbce5ccd1	-0.028051766
200	0xbbe172ae	-0.006880126
201	0xbd8207c1	-0.06349135
202	0x3dc4b667	0.09605103
203	0xbde9b22c	-0.11410937
204	0x3dc481c0	0.0959506
205	0xbe558a0c	-0.20853442
206	0x3e0a17c7	0.13485633
207	0xbe7b59b5	-0.2454594
208	0x3d57d05c	0.05268894
209	0xbd8c3ae7	-0.06847172
210	0x3d391f36	0.04519578
211	0xbe36aa01	-0.17838289
212	0xbe03818d	-0.12842388
213	0x3e3591fe	0.17731473
214	0xbdaccec7	-0.08437877
215	0x3d520398	0.05127296
216	0x3d1b33ed	0.037891317
217	0x3d96508e	0.07339583
218	0x3dd41e0a	0.10357292
219	0xbe475010	-0.19464135
220	0x3e242b44	0.1603213
221	0xbd1f8fda	-0.038955547
222	0x3e1c4951	0.15262343
223	0xbe655fd8	-0.22399843
224	0x3d9d9b2a	0.07695611
225	0x3c0f2ac9	0.008738228
226	0xbce253fc	-0.027627937
227	0xbdbbb202	-0.09164812
228	0x3e1ae492	0.15126255
229	0x3c233514	0.009961385
230	0x3c8bfec3	0.017089253
231	0x3df176df	0.11790251
232	0x3e206cb8	0.15666473
233	0xbe0059ff	-0.12534331
234	0xbb97ca79	-0.004632291
235	0x3d04577e	0.03231
236	0x3e8bbc86	0.2729227
237	0x3e304f66	0.17217788
238	0xbd8c8b8b	-0.06862553
239	0xbe92e72c	-0.28691995
240	0xbe56e9cc	-0.20987624
241	0x3dffd277	0.12491315
242	0xbe0770d2	-0.13226631
243	0x3d5bd662	0.05367125
244	0x3e4d83ea	0.20069852
245	0xbb9c5493	-0.004770824
246	0xbe0d4909	-0.13797392
247	0x3c5059bb	0.012716706
248	0x3df5d2ce	0.120030984
249	0x3d9507eb	0.07276901
250	0xbd2e03bb	-0.042484026
251	0xbc815999	-0.015789794
252	0xbb812097	-0.0039406526
253	0x3dd42d65	0.10360221
254	0x3dd154be	0.102212414
255	0x3dae2f30	0.08505094

to_q_bg.0.weight f4 [64]
0	0x3fa13c87	1.2596596
1	0x3f540b25	0.82829505
2	0x3f891b91	1.0711538
3	0x3f51d667	0.81967777
4	0x3f6330e8	0.887465
5	0x3f8105f9	1.0079948
6	0x3f548815	0.83020145
7	0x3f3976a8	0.7244668
8	0x3f9d2262	1.2276118
9	0x3f896213	1.0733055
10	0x3f6bed49	0.92158943
11	0x3f59033b	0.84770554
12	0x3f8c303b	1.0952219
13	0x3f70ac5c	0.94013
14	0x3f49d539	0.78840977
15	0x3f5da786	0.86583745
16	0x3f9c597c	1.2214808
17	0x3f643ebd	0.8915823
18	0x3f5f761c	0.87289596
19	0x3f7ae325	0.98002845
20	0x3f8973a6	1.0738418
21	0x3f6fef3e	0.9372443
22	0x3f479591	0.77962595
23	0x3f8f31c6	1.1187065
24	0x3f33a26e	0.70169723
25	0x3f33f2eb	0.7029254
26	0x3f83a5bd	1.0284954
27	0x3f95d7ac	1.1706443
28	0x3f895117	1.0727872
29	0x3fa3a044	1.2783284
30	0x3f8207b1	1.0158597
31	0x3fc82c61	1.5638543
32	0x3f801011	1.0004903
33	0x3f45bec3	0.77244204
34	0x3f6bd1bd	0.9211691
35	0x3fbbaf49	1.4662868
36	0x3f3cf886	0.73816717
37	0x3f8c3cba	1.0956032
38	0x3fb0f8ca	1.3825924
39	0x3f6c82f4	0.9238732
40	0x3f8b3f22	1.0878642
41	0x3f8cbd3c	1.099525
42	0x3f4bf5b8	0.7967181
43	0x3f8472c4	1.0347524
44	0x3f629fb0	0.88524914
45	0x3f8d1d54	1.1024575
46	0x3f53d876	0.8275217
47	0x3f82c2d9	1.0215713
48	0x3f894d40	1.07267
49	0x3f18cdda	0.59689105
50	0x3f64b3c5	0.89336807
51	0x3f3f4359	0.7471214
52	0x3f5dd510	0.8665323
53	0x3f7276da	0.94712603
54	0x3f4a2dd7	0.78976196
55	0x3fa178da	1.2615006
56	0x3f3eb635	0.74496776
57	0x3f598877	0.84973854
58	0x3fb80155	1.4375407
59	0x3f7e08c4	0.99232125
60	0x3f9dc9c9	1.2327205
61	0x3f494363	0.7861845
62	0x3f6d829c	0.9277742
63	0x3f9a15d0	1.2037907

to_q_bg.0.bias f4 [64]
0	0x3e7b9755	0.24569447
1	0x3c3296bf	0.0109001985
2	0xbe4b02cf	-0.1982529
3	0xbe27ef7e	-0.16399953
4	0xbd73867e	-0.059454434
5	0xbe3707d1	-0.17874075
6	0x3e20852d	0.15675803
7	0xbd52c0f6	-0.051453553
8	0x3ea919b3	0.3302742
9	0x3e8a714a	0.27039558
10	0xbdc5cf6b	-0.096587025
11	0xbc6579de	-0.014006106
12	0xbcd8a3f1	-0.02644536
13	0xbe2e93ae	-0.17048523
14	0x3d0316a8	0.03200403
15	0xbd9677b9	-0.07347054
16	0xbea63b5c	-0.32467163
17	0x3cc87b92	0.024472985
18	0xbea671e8	-0.3250878
19	0x3e783c85	0.24241836
20	0xbe05f0de	-0.13080165
21	0xbddb9415	-0.10721604
22	0x3e9ac854	0.30230963
23	0xbe93434d	-0.28762284
24	0xbe5c0a50	-0.21488309
25	0xba7f3411	-0.00097352365
26	0x3e800594	0.25004256
27	0xbdedbc1e	-0.11608146
28	0xbea4f911	-0.32221273
29	0xbe8b6e9d	-0.2723283
30	0x3e16b457	0.14717232
31	0x3e75b270	0.2399385
32	0xbe29fe22	-0.1660085
33	0x3d5630b1	0.05229253
34	0x3e4c1965	0.19931562
35	0xbd6a61c6	-0.05722215
36	0xbe84668f	-0.25859496
37	0x3eb1c198	0.34718013
38	0xbe22eb62	-0.15910104
39	0xbdb49fbe	-0.08819531
40	0xbe9377b7	-0.28802273
41	0x3e91e82c	0.28497446
42	0xbeb6fd03	-0.35739908
43	0xbe84f4c3	-0.25967988
44	0xbd1e327b	-0.03862236
45	0x3e56a1d9	0.20960177
46	0x3daaf093	0.08346667
47	0x3e4a5399	0.19758452
48	0xbea1cbee	-0.31600899
49	0x3dc846eb	0.097791515
50	0xbe6ccd2a	-0.23125139
51	0xbd82a7f0	-0.06379688
52	0x3a943b75	0.0011309223
53	0x3e95eb8a	0.29281265
54	0x3e537b9b	0.2065262
55	0x3e69c317	0.22828327
56	0x3cffb7b4	0.031215526
57	0x3e704135	0.23462375
58	0x3ec7e2cb	0.39040217
59	0x3d5c3234	0.053758815
60	0x3d0ac2ae	0.033877067
61	0xbd08c91a	-0.03339491
62	0xbd464173	-0.04840226
63	0xbe5f2244	-0.21790415

to_q_bg.1.weight f4 [64, 64]
0	0x3e0a78a0	0.13522577
1	0x3dbf0515	0.09327141
2	0x3e1bf6f3	0.15230922
3	0x3daf71bf	0.08566617
4	0x3dc4f4da	0.09617014
5	0x3e12cb22	0.14335302
6	0xbe5e4bc6	-0.21708593
7	0x3d0f7049	0.035019193
8	0x3d57330b	0.052538913
9	0x3c389c30	0.011267707
10	0x3cf0e5c2	0.029406432
11	0xbc2ef2b0	-0.010677978
12	0x3e3211d0	0.17389607
13	0x3bbb2834	0.0057115797
14	0x3c39690c	0.011316549
15	0xbdac1168	-0.084017575
16	0x3d5dd729	0.05416027
17	0xbe1f1352	-0.15534714
18	0x3e5c5305	0.21516044
19	0xbe4a4c4c	-0.19755667
20	0x3e735448	0.2376262
21	0xbe0ed60b	-0.13948838
22	0x3dbb14a1	0.09134794
23	0x3c1399e1	0.009008856
24	0x3d28da30	0.041223705
25	0x3d8d3f00	0.06896782
26	0x3a6a6510	0.0008941451
27	0x3e831cc3	0.2560788
28	0x3dd23681	0.10264302
29	0x3e42e13d	0.19031234
30	0xbdc63fae	-0.09680115
31	0xbf137950	-0.57606983
32	0x3d4413b6	0.04787036
33	0x3d4aa4ee	0.049473695
34	0xbe60e3fb	-0.21961968
35	0xbe915c55	-0.28390756
36	0x3d923afe	0.07140158
37	0xbe995221	-0.29945472
38	0x3ec195b5	0.3780953
39	0xbdd91dd9	-0.10601396
40	0x3ba5aa86	0.0050557284
41	0xbea80297	-0.32814476
42	0x3cf87351	0.030328425
43	0x3e695867	0.22787629
44	0x3dbcb2ce	0.09213792
45	0xbdd901fc	-0.105960816
46	0xbd8e85e7	-0.069591336
47	0xbda54db5	-0.08071462
48	0x3e5e9a25	0.21738489
49	0x3cf7b705	0.030238638
50	0x3e30bb25	0.1725889
51	0xbc423b66	-0.011854982
52	0xbdd7acc0	-0.10530996
53	0xbe10ade0	-0.14128828
54	0xbd53aa42	-0.051676042
55	0xbe95cc45	-0.29257408
56	0xbda5d6b2	-0.080975905
57	0xbd386b31	-0.0450241
58	0x3e09cbac	0.13456601
59	0xbe22ac0e	-0.15885946
60	0x3e01ae14	0.12664062
61	0xbbca128b	-0.0061667613
62	0xbd6cc7ae	-0.057807617
63	0x3d3d148d	0.046162177
64	0x3e6728a2	0.22574094
65	0xbd910ab0	-0.070821166
66	0x3b50b8d7	0.0031848454
67	0xbdcd7944	-0.10032895
68	0xbdbd46be	-0.092420086
69	0x3d02df0a	0.031950988
70	0xbd593edb	-0.05303846
71	0x3d820da8	0.06350261
72	0x3e01e9cf	0.12686847
73	0x3dd08e0b	0.101833425
74	0x3dcee6d1	0.101026185
75	0xbdc26bfb	-0.09493252
76	0xbe016fb7	-0.12640272
77	0x3cd3329e	0.025780972
78	0xbcfbf510	-0.030756503
79	0xbcd05916	-0.025433104
80	0xbdee0968	-0.11622888
81	0x3e48c96a	0.19608083
82	0xbc9a59e8	-0.018841699
83	0xbce91da4	-0.028456517
84	0xbd19e34d	-0.037570287
85	0x3d8e493c	0.06947562
86	0x3dac5d03	0.08416178
87	0xbe09711e	-0.13422057
88	0x3dafa6a3	0.08576705
89	0xbb124f54	-0.0022325115
90	0x3c265ed2	0.010154443
91	0xbbdc82c8	-0.0067294575
92	0xbdcba97a	-0.099444345
93	0xbdc6658d	-0.09687338
94	0x3e1e39f3	0.15451793
95	0x3e5cb967	0.215551
96	0xbd2ee0d4	-0.04269488
97	0xbc9ee782	-0.0193975
98	0x3d067445	0.032825727
99	0xbe2359b5	-0.1595219
100	0xbdeabe0d	-0.114620306
101	0x3e4634bc	0.19356054
102	0x3e1b0edd	0.15142389
103	0xbdbed765	-0.09318427
104	0xbd96c63f	-0.07362031
105	0x3e07b971	0.13254334
106	0xbc7b18ac	-0.015325706
107	0xbd951daa	-0.072810486
108	0x3d8fa3ac	0.0701364
109	0x3e0e31bf	0.13886164
110	0x3c502cda	0.012706006
111	0xbdc9280f	-0.09822094
112	0xbdba8940	-0.091082096
113	0xbd7b39ac	-0.061334297
114	0x3db3f5c6	0.08787112
115	0xbe0a469d	-0.135035
116	0xbc8acac7	-0.016942395
117	0xbd2207ea	-0.03955833
118	0x3d2b459f	0.041814443
119	0xbcc1f8d4	-0.02367822
120	0xbbce5b4c	-0.0062975045
121	0xbdfd85b3	-0.12379017
122	0x3db0e051	0.08636535
123	0x3d9eea85	0.07759575
124	0x3d67747c	0.056507573
125	0x3de6ecaf	0.112756126
126	0xbe1e585f	-0.15463398
127	0xbe5e6859	-0.21719493
128	0x3ddac52a	0.10682137
129	0xbca6047b	-0.020265808
130	0xbdebe1ff	-0.11517715
131	0xbdedb5e3	-0.11606958
132	0xbe22530e	-0.15851995
133	0xbd895e05	-0.06707386
134	0xbc77e505	-0.015130286
135	0x3d8f94d3	0.07010808
136	0x3e3eb877	0.18625055
137	0x3da2ddfc	0.079524964
138	0x3dd98fa6	0.10623102
139	0xbcecf3ac	-0.028924786
140	0xbe56d88e	-0.20981047
141	0xbd32d577	-0.043660607
142	0x3c4a6381	0.012352825
143	0x3d3492e5	0.044085402
144	0xbe35f117	-0.1776775
145	0x3e20f7e2	0.1571956
146	0xbd2bf6ea	-0.041983522
147	0x3d200f7e	0.039077275
148	0xbe067bfa	-0.13133231
149	0x3db5dc98	0.088799655
150	0xbd4e65df	-0.05039012
151	0xbdcb2464	-0.0991905
152	0x3d2a24bf	0.04153895
153	0x3d21ba51	0.039484326
154	0xbdc453d8	-0.095863044
155	0x3c87d9bc	0.016583316
156	0xbe01ff9d	-0.12695165
157	0xbe44bdad	-0.1921298
158	0x3e1f9ee0	0.1558795
159	0x3e70718a	0.23480812
160	0xbd133657	-0.035940494
161	0x3b87899d	0.004136278
162	0xbc5bf9a7	-0.013426221
163	0xbdd70394	-0.10498729
164	0xbddab8ac	-0.106797546
165	0x3e7b83e5	0.24562033
166	0xbda851fd	-0.08218763
167	0xbd1bb451	-0.03801376
168	0xbd8c2a7e	-0.06844042
169	0x3db98ea3	0.09060409
170	0x3c83dff8	0.016098008
171	0xbd7f8514	-0.062382773
172	0x3c755323	0.014973435
173	0x3dce4491	0.10071672
174	0x3dcb1fb5	0.09918157
175	0xbda86d49	-0.082239695
176	0xbe8d86fd	-0.2764205
177	0x3d423d5e	0.047421806
178	0xbd36e1f9	-0.044649098
179	0xbdf90a58	-0.12160176
180	0xbd1336b9	-0.03594086
181	0x3d84cf93	0.06484904
182	0x3db8a228	0.09015304
183	0x3c3d27d5	0.011545141
184	0x3b4b3e10	0.0031012334
185	0x3cefa925	0.02925546
186	0x3e0bf722	0.13668492
187	0xbd99071f	-0.07472061
188	0x3dd8a2f5	0.105779566
189	0x3d07857b	0.03308628
190	0xbdc8b105	-0.09799389
191	0xbe3803af	-0.17970155
192	0xbea4553b	-0.32096276
193	0x3a72ad8e	0.0009257429
194	0x3d63bc1a	0.05559931
195	0x3dc840b0	0.09777963
196	0xbd0bbe9d	-0.03411733
197	0xbe327b08	-0.17429745
198	0x3e0fd1be	0.14044854
199	0xbe59f0f0	-0.21283317
200	0xbe8c42e1	-0.27394775
201	0xbe31091a	-0.17288628
202	0xbd8c9331	-0.06864012
203	0x3e5be458	0.21473825
204	0x3c5ba11f	0.0134051135
205	0x3e1ba650	0.15200162
206	0xbdf2999a	-0.118457034
207	0x3e18aa36	0.1490868
208	0x3ea43c51	0.32077268
209	0xbdc2a557	-0.09504192
210	0x3bff4fbc	0.0077914875
211	0x3e5889ad	0.21146269
212	0xbd8cb575	-0.06870548
213	0xbd806f2a	-0.06271203
214	0xbca604bb	-0.020265928
215	0x3e5c3d63	0.21507792
216	0xbe65e46c	-0.22450417
217	0xbd8f1a4c	-0.069874376
218	0xbd2519a2	-0.04030765
219	0xbe1f848c	-0.15577906
220	0x3db5a226	0.08868818
221	0x3dfd9f45	0.12383894
222	0xbe163caa	-0.14671579
223	0x3e55460e	0.20827505
224	0xbd029dc3	-0.031888735
225	0xbe212f84	-0.15740782
226	0x3dc65550	0.09684241
227	0x3ecd11f2	0.40052754
228	0x3dd361dd	0.103214
229	0x3d282be1	0.04105747
230	0xbe35efc8	-0.1776725
231	0x3e630a8d	0.22171994
232	0x3e80c1a2	0.2514773
233	0x3d0a84a0	0.033817887
234	0xbe0ab8fa	-0.13547125
235	0xbe8b1f0b	-0.2717212
236	0xbe683b51	-0.22678877
237	0xbe1e1921	-0.15439273
238	0xbc9ca722	-0.019122664
239	0x3e2c7488	0.16841328
240	0x3e5dfeb0	0.21679187
241	0x3db8866a	0.090100124
242	0xbe3bb910	-0.18332314
243	0x3dfd7ff0	0.12377918
244	0x3e238141	0.15967275
245	0x3baf5d83	0.0053517236
246	0x3db753ad	0.08951507
247	0x3eaba752	0.33526093
248	0x3d45d29c	0.048296556
249	0x3dcc5e1b	0.09978887
250	0xbe949e4f	-0.2902703
251	0xbcb4e458	-0.022081539
252	0xbe67f6db	-0.22652762
253	0xbdb7ac30	-0.08968389
254	0x3e7270ee	0.23675892
255	0x3e7c08de	0.24612758

gru.weight_ih f4 [192, 64]
0	0xbe758268	-0.23975527
1	0x3da01507	0.07816511
2	0x3d81e736	0.06342928
3	0x3d03624d	0.03207617
4	0xbc9ab63b	-0.018885722
5	0xbe48786d	-0.19577189
6	0x3e206dc9	0.1566688
7	0x3e9a8845	0.3018209
8	0xbe046cb1	-0.12932087
9	0x3e83b46d	0.2572359
10	0x3d8fb92e	0.07017742
11	0x3c5f2f17	0.013622067
12	0xbca97abc	-0.020688407
13	0x3e7d3d1c	0.24730343
14	0x3d95b00a	0.073089674
15	0xbe6bb7b6	-0.23019299
16	0xbd87525b	-0.06607505
17	0xbd5cc54f	-0.053899106
18	0xbe1ca3d9	-0.15296878
19	0xbcd237db	-0.0256614
20	0x3e541a1f	0.2071309
21	0x3dc44e55	0.09585253
22	0x3c434425	0.011918102
23	0xbda10c0c	-0.07863626
24	0xbe8330ae	-0.25623077
25	0x3dcdd6a2	0.100507036
26	0xbe6f81ba	-0.2338933
27	0xbd5db6f9	-0.054129574
28	0xbdbbbe0b	-0.09167107
29	0xbd05c068	-0.032654196
30	0x3c9ff43b	0.019525638
31	0xbe071815	-0.1319278
32	0xbd261a0a	-0.040552177
33	0x3e1267b9	0.1429738
34	0xbd4a804e	-0.049438767
35	0x3dd09ec6	0.10186534
36	0xbdbc59d0	-0.09196818
37	0x3dc2eaf4	0.0951747
38	0x3c7d1d46	0.015448874
39	0xbb9a3738	-0.0047062896
40	0x3da0ea00	0.07857132
41	0x3dca099b	0.09865113
42	0xbdccb771	-0.09995926
43	0xbe001c96	-0.12510905
44	0xbe1c63fc	-0.15272516
45	0x3e95e25e	0.29274267
46	0x3dc398c8	0.09550625
47	0xbbf7458f	-0.007546134
48	0x3dd9385b	0.10606452
49	0xbd862f84	-0.06552032
50	0x3d29386f	0.041313585
51	0xbe0679a0	-0.13132334
52	0xbddf1b25	-0.10893849
53	0xbe3eb7b4	-0.18624765
54	0xbb45d8e6	-0.0030189096
55	0x3b2fd471	0.0026829506
56	0x3c5e3739	0.013562971
57	0x3e017a0d	0.12644215
58	0x3d03e154	0.03219731
59	0xbd9cf480	-0.07663822
60	0x3e4600b9	0.19336213
61	0xbd5d1e87	-0.05398419
62	0xbdd92457	-0.106026344
63	0x3e771007	0.24127208
64	0xbc5b6441	-0.013390602
65	0x3e1363a3	0.14393477
66	0x3e06c518	0.13161123
67	0x3c5c25eb	0.013436775
68	0x3d98e45e	0.074654326
69	0xbcffd5a2	-0.031229798
70	0x3cc980e5	0.024597595
71	0x3dadfac2	0.08495094
72	0x3d7d6a0f	0.061868723
73	0x3c6b5d2c	0.014365476
74	0xbc6355cc	-0.013875436
75	0x3e4fcd8e	0.20293257
76	0x3e7aa44e	0.2447674
77	0x3d992251	0.074772485
78	0xbdd8794e	-0.10570012
79	0x3cf6eb1a	0.030141402
80	0xbc5ea125	-0.013588225
81	0x3e6ac155	0.22925313
82	0x3dd37307	0.10324674
83	0xbd5ab3b2	-0.053394027
84	0x3dc2e813	0.09516921
85	0x3e9f1823	0.31073102
86	0xbe7775fd	-0.24166103
87	0xbd9e28e0	-0.0772264
88	0xbe7ba9eb	-0.24576537
89	0xbd82c1b3	-0.063846014
90	0x3c13a5f5	0.009011735
91	0xbe1062ef	-0.1410024
92	0xbc73cf34	-0.014880944
93	0xbdac7e68	-0.084225476
94	0xbddb5081	-0.10708714
95	0xbe0db067	-0.13836823
96	0xbde0f415	-0.10984055
97	0x3e59845a	0.21241894
98	0xbd8a1bc0	-0.06743574
99	0x3e7dfb54	0.24802905
100	0x3d958f17	0.07302683
101	0xbe21135d	-0.15730043
102	0xbdccc415	-0.09998337
103	0x3e018d03	0.12651448
104	0xbd13f877	-0.036125626
105	0x3e6113cf	0.21980213
106	0xbd33836a	-0.043826498
107	0x3bc08453	0.0058751493
108	0xbb6da545	-0.0036261838
109	0x3e8e3015	0.2777106
110	0xbe1fc1e1	-0.15601303
111	0xbdacf88a	-0.084458426
112	0xbe2b70fa	-0.16742316
113	0x3dce7afb	0.100820504
114	0x3da572a0	0.080785036
115	0xbe0864a7	-0.13319646
116	0xbe788d83	-0.24272732
117	0xbc65587d	-0.013998148
118	0x3e132c99	0.14372481
119	0x3d911459	0.07083959
120	0xbcfbe09a	-0.030746747
121	0x3cbc15f8	0.022959694
122	0x3c95e84c	0.018299244
123	0x3d1addfd	0.03780936
124	0x3e13c8d8	0.14432085
125	0xbd4d0d8d	-0.05006175
126	0x3c3bff20	0.011474401
127	0xbd1f60a7	-0.038910534
128	0x3ccb4b19	0.024816083
129	0x3e353442	0.17695716
130	0xbdb2eab4	-0.08736172
131	0xbd2b9f6a	-0.041900076
132	0x3df490b9	0.11941666
133	0xbda31448	-0.07962853
134	0xbe1db681	-0.15401651
135	0xbd4ee586	-0.05051186
136	0x3dbab39a	0.091162875
137	0xbe3812e4	-0.17975956
138	0x3ce035a5	0.02736933
139	0xbd92d5e8	-0.07169706
140	0xbeac8487	-0.3369486
141	0x3dccf488	0.10007578
142	0x3dde307f	0.10849094
143	0xbe82b688	-0.25529885
144	0xbd8f69e6	-0.070026204
145	0x3bb9f449	0.005674873
146	0xbd66f5c5	-0.056386728
147	0x3e6156c9	0.22005762
148	0x3a493640	0.00076756254
149	0x3dfc9ed1	0.12334979
150	0x3d05b9a7	0.032647755
151	0x3e0713b6	0.13191113
152	0xbe0f724a	-0.14008442
153	0x3e2ac214	0.16675597
154	0x3d1c25fa	0.038122155
155	0xbc14626f	-0.0090566715
156	0x3d9db673	0.07700815
157	0x3df544cc	0.119760126
158	0x3e4f60c0	0.20251751
159	0xbc485798	-0.012227915
160	0xbd169860	-0.03676641
161	0xbdb50c38	-0.08840221
162	0xbdc5eec8	-0.096646845
163	0xbdcb7a09	-0.09935386
164	0xb98353a6	-0.0002504859
165	0x3dcd195f	0.10014605
166	0x3d60a815	0.054847796
167	0x3e0f9de6	0.14025077
168	0xbe5f4572	-0.21803835
169	0xbe6bc5bb	-0.23024647
170	0x3e079ec8	0.13244164
171	0x3cc3d460	0.02390498
172	0x3da49a0b	0.08037194
173	0xbe16dcb0	-0.14732623
174	0xbe1c2446	-0.15248212
175	0xbd67ec2e	-0.056621723
176	0x3ea73814	0.32659972
177	0x3db6b21e	0.08920692
178	0xbc93d8e5	-0.01804776
179	0xbe0d424d	-0.13794823
180	0xbd8fa0c0	-0.070130825
181	0x3d5aaac7	0.053385522
182	0x3d0cb654	0.03435357
183	0xbe149e92	-0.14513615
184	0xbda8c9ad	-0.082415916
185	0x3d968300	0.07349205
186	0x3e2e8e5c	0.17046493
187	0x3dd3db3d	0.10344551
188	0xbe57b8c8	-0.21066582
189	0xbd72d65d	-0.059286464
190	0x3db6d46b	0.08927234
191	0x3dd5c8fc	0.10438725
192	0xbe85c9c4	-0.26130497
193	0xbc3e87f9	-0.011629098
194	0x3e465c55	0.1937116
195	0x3c2cb186	0.010540372
196	0xbdb01346	-0.08597426
197	0xbe6636e1	-0.22481872
198	0x3e14710c	0.14496249
199	0x3db20798	0.08692855
200	0xbddfd7cc	-0.10929832
201	0x3bad4c0a	0.0052886056
202	0xbdf8685a	-0.121292785
203	0x3e746030	0.23864818
204	0xb9aeba2f	-0.00033326584
205	0x3cf51353	0.029916441
206	0x3d19e6f2	0.037573762
207	0xbd6cefa7	-0.057845738
208	0x3c09636e	0.008385522
209	0x3cab5808	0.020916
210	0x3e035e52	0.12828949
211	0xbc6affe3	-0.014343235
212	0xbdd64b1b	-0.10463544
213	0x3eddb0ef	0.43299052
214	0xbe3bba47	-0.18332778
215	0x3e3a51fb	0.18195336
216	0xbe0fa046	-0.14025983
217	0xbe66da6f	-0.22544263
218	0x3dfa685e	0.12226938
219	0xbdb82613	-0.08991637
220	0xbdbce97e	-0.092242226
221	0x3c62e00c	0.013847362
222	0xbdb3f738	-0.087873876
223	0xbdb36117	-0.08758753
224	0xbd87e6cb	-0.06635817
225	0x3d19927b	0.03749321
226	0x3ce6e82c	0.02818688
227	0xbdd862f3	-0.10565748
228	0x3df5ba10	0.11998379
229	0x3e2f2947	0.1710559
230	0x3dac2286	0.08405022
231	0x3df3b186	0.11899094
232	0xbebb1084	-0.36536038
233	0x3d867938	0.065660894
234	0x3dccecf3	0.10006132
235	0x3d2c4ba8	0.04206434
236	0xbdc7c02b	-0.0975345
237	0x3cdc0171	0.026856156
238	0xbe141a00	-0.14463043
239	0x3e5fafc3	0.21844392
240	0x3cb0d9fa	0.021588314
241	0x3e73ad61	0.23796608
242	0x3de67d29	0.11254341
243	0x3da49ed3	0.08038106
244	0xbe92e6c8	-0.28691697
245	0x3c4df62f	0.012570902
246	0x3d83e01c	0.0643923
247	0xbe040f8c	-0.12896556
248	0x3c4c3fa9	0.01246635
249	0x3d0b5e7c	0.034025654
250	0x3d55034b	0.052005094
251	0x3de5b4f2	0.11216153
252	0xbc0d9ba5	-0.008643066
253	0xbe3108b2	-0.17288473
254	0xbdd5143c	-0.1040425
255	0x3e1b6bff	0.15177916
