model_checkpoints/room_diverse_models/latest/latest_net_SlotAttention.pth (torch, 412513 bytes, 34 tensors)

slots_mu f4 [1, 1, 64]
000000 5e 27 7b 3e 0c 09 c4 bf 18 44 82 bf d0 d6 bc 3f
       0.24526736 -1.5315261 -1.017703 1.4753056
000010 c9 a5 85 bf b9 33 c1 bf 39 d9 60 bf de 72 b0 bf
       -1.0441219 -1.509391 -0.87831455 -1.3785055
000020 bc 25 b3 bf 32 84 85 bf f1 16 d9 be 9e 4b 86 3d
       -1.3995891 -1.0430968 -0.42400315 0.065573916
000030 0a f2 a6 3d 58 e5 0e be fb f3 b1 3f dc 13 b0 bf
       0.08151634 -0.13954675 1.3902582 -1.3756061
000040 6c 55 e8 3e 81 36 93 be 3d c8 74 3f 00 56 b5 3f
       0.45377672 -0.2875252 0.9561804 1.416687
000050 22 9c ad be a7 2d 91 3e 84 f0 a8 3f 93 7c bc 3f
       -0.33908182 0.28355142 1.31984 1.4725517
000060 c4 67 e0 be c1 2e 51 bf a9 51 b4 bf 0f b2 34 bf
       -0.43829167 -0.81711966 -1.4087421 -0.70584196
000070 56 79 0b bf eb 58 37 bf 4e 21 be 3d 3a e4 1d 3f
       -0.5448202 -0.71620053 0.09283696 0.6167637
000080 4e 9f 2c bf 53 e3 aa bf 38 09 e9 3d b2 89 e5 be
       -0.6743058 -1.3350624 0.113787115 -0.44831616
000090 fa f9 9d 3f 20 5e d2 3e ca 21 01 c0 55 eb 2d be
       1.2341912 0.41087437 -2.0176873 -0.16984303
0000a0 a2 8a 9b 3f de 29 ef bf a2 a0 d3 3f 4c 91 4d 3e
       1.2151682 -1.8684652 1.6533396 0.20074958
0000b0 e0 0b 47 3f 5f d3 c4 3f 66 4c 0e be 5c 0e d1 bf
       0.77752495 1.5377005 -0.13896331 -1.6332507
0000c0 e6 4a 87 3d 15 f9 ba be 5b 8b be 3d e8 98 b3 bf
       0.066060826 -0.3651816 0.09303924 -1.4031038
0000d0 ec 45 93 3e a4 d6 28 3f 22 b7 84 bf 8e b3 66 3f
       0.28764284 0.65952516 -1.0368388 0.9011773
0000e0 ef 28 cc bd 58 3c 5e 3e b7 75 7c 3f 5d 0c 61 bf
       -0.09968745 0.21702707 0.9861712 -0.8790949
0000f0 9b 55 3a 3f 64 fd b6 bf a7 d3 cd 3e 49 aa 00 3f
       0.72786874 -1.4296079 0.4020054 0.50259835

slots_logsigma f4 [1, 1, 64]
000000 66 ae b9 be 76 d7 c3 be 1c 0a 26 3d 0d e3 ed bc
       -0.36265868 -0.3825032 0.040536985 -0.02903893
000010 c7 86 80 3d 04 04 7b 3e ed 1d 28 be de 5b 97 be
       0.06275707 0.2451325 -0.16417666 -0.29562277
000020 86 b2 b1 be 50 5b ca be ed 62 ec bd fa 28 4f be
       -0.34706515 -0.3952279 -0.11542306 -0.20230475
000030 46 03 47 be 5d 75 63 be 7e 51 85 3d 0e 69 7a bd
       -0.19434842 -0.2221274 0.06509684 -0.061135344
000040 66 8e 8a 3d 4f 6c b8 3c d5 4b 15 be 3d e9 a8 3d
       0.067654416 0.022512583 -0.14579709 0.08247612
000050 e6 6b aa 3d f4 2f ce 3e 05 97 26 be 46 0f 05 be
       0.08321361 0.4027096 -0.16268547 -0.12994108
000060 19 8f 72 bc 01 2e bf bc 84 0f c7 3d c4 4c d7 3d
       -0.014804625 -0.023337366 0.09719756 0.10512689
000070 b5 bc 58 be 52 ea 4d be 84 83 29 3d f7 1d c6 be
       -0.21165736 -0.20108917 0.04138519 -0.38694736
000080 67 e4 92 bd 47 0d ab be f3 ef 9e bd d1 51 8c be
       -0.071724705 -0.33408567 -0.077606104 -0.2740617
000090 e6 e9 dc be ff b0 87 be 90 79 97 be 22 f0 4a 3d
       -0.431472 -0.26502225 -0.29584932 0.049545415
0000a0 fc 08 a6 bd b2 b9 e6 be af ed 0f bd f5 9d eb be
       -0.081071824 -0.4506355 -0.035138782 -0.4601895
0000b0 15 bf 05 be ff 04 92 be 1b 2b ab be 21 d2 32 be
       -0.13061173 -0.28519437 -0.33431324 -0.1746297
0000c0 b2 e9 c4 be 95 6f d1 be c5 e7 b1 be 65 b1 18 bd
       -0.38459545 -0.40905443 -0.3474714 -0.03727855
0000d0 05 42 39 3d 26 f0 12 be 89 8d 77 be 4a 24 18 3e
       0.045228977 -0.14349422 -0.24175085 0.14857593
0000e0 63 7b 30 be 73 e6 ec 3d 6b a1 e0 bd 8a 2a fa bc
       -0.17234568 0.11567392 -0.10968288 -0.030537862
0000f0 03 80 92 bd 3e 4b b2 bd ca ba 14 be 75 42 88 be
       -0.071533225 -0.087057576 -0.1452438 -0.26613203

slots_mu_bg f4 [1, 1, 64]
000000 87 35 7c 3f f0 48 8a bf 60 7f 01 be 38 07 5e bf
       0.98519176 -1.0803509 -0.12646246 -0.86729765
000010 ac 77 0e 3e ec ae 3e 3f 60 f6 27 bf a0 5f 14 3f
       0.13912839 0.7448566 -0.65610313 0.5795841
000020 de ea e8 3f 67 64 0b c0 89 f4 fa be a0 97 ab bf
       1.8196676 -2.178003 -0.4901469 -1.3405647
000030 33 b8 93 bc 20 58 d9 be 69 cd 1a 3f fc 08 00 3f
       -0.018032169 -0.42450047 0.6046968 0.5001371
000040 79 55 5b bf 3b 7d 14 3d 99 e8 ea 3e fe b0 98 3d
       -0.85677296 0.03625224 0.45880583 0.074556336
000050 0f 3a c7 3f de 58 6b be 19 3d 40 bf 59 b3 a5 3f
       1.5564593 -0.22983119 -0.7509323 1.2945358
000060 e2 4f 6a 3f 17 6e 94 bf 4a c6 dd bf 4f 23 dc 3f
       0.9152814 -1.1596097 -1.7326138 1.7198275
000070 59 0e 37 c0 e8 9d 84 be 29 91 c9 3f ed 1f a0 3f
       -2.8602507 -0.25901723 1.5747424 1.2509743
000080 52 77 e2 bf 14 e1 a1 3f 94 4b c8 bf 38 61 7b 3f
       -1.7692664 1.2646813 -1.5648065 0.9819522
000090 08 d1 4f 3f b9 07 1c 3f f3 45 aa bf 71 46 23 40
       0.8117833 0.60949284 -1.3302597 2.5511744
0000a0 32 13 f2 be 4c 9d 2b 3f e3 da eb 3f bf 06 9e bf
       -0.4728027 0.6703689 1.8426174 -1.2345809
0000b0 23 b9 15 c0 c4 27 e4 3e 41 7c 03 c0 9d 7c 42 bf
       -2.3394248 0.4456159 -2.0544589 -0.75971395
0000c0 eb 1d 7d be 5b d9 84 3f c6 c3 8d bf af 1c 99 3f
       -0.24718444 1.0378832 -1.107537 1.1961879
0000d0 38 a8 b8 bd 97 db 49 3d 42 00 56 bf 06 50 1b bf
       -0.0901646 0.049281683 -0.83594143 -0.6066898
0000e0 33 93 de 3f 93 a3 d2 bf bf 14 9f bf e2 ee fc be
       1.7388672 -1.6456169 -1.2428206 -0.49401003
0000f0 8e 5e 33 40 dc fc 5d bf 05 54 9f bf ae b7 79 bd
       2.8026462 -0.8671396 -1.2447516 -0.060966186

slots_logsigma_bg f4 [1, 1, 64]
000000 29 41 de be 92 17 c4 bd 60 b9 81 be 12 a5 4d be
       -0.43409088 -0.09574808 -0.25336742 -0.200825
000010 b9 a6 4e be a4 2e 8c be 80 80 ce be 97 4b 9f be
       -0.20180787 -0.27379334 -0.40332413 -0.31112358
000020 12 a1 f2 bd 41 e5 53 be 76 99 65 3d 87 86 cb bd
       -0.11847128 -0.20692922 0.056054555 -0.099377684
000030 c9 34 bc bc 35 f5 98 be 3d 25 13 be 22 b9 0f be
       -0.022974389 -0.29874578 -0.14369674 -0.14035466
000040 c8 99 89 be 52 78 d8 bd ff bc a8 bc 72 4a 7a be
       -0.26875138 -0.10569824 -0.020597933 -0.24442461
000050 cf 6c 05 3d 1c e1 ab be d3 71 44 be 89 3d a3 be
       0.03257447 -0.33570182 -0.19184045 -0.31882885
000060 3b 62 56 be a1 93 5f 3e 63 24 06 be 7b 07 bb bd
       -0.2093591 0.2183366 -0.13099818 -0.09132286
000070 e7 b9 8f be a2 6b e2 be fa f5 e6 be fc 0a 1b be
       -0.2807152 -0.44222742 -0.4510954 -0.15140909
000080 84 b9 b0 be 96 82 dd bd ea 74 20 bd fa 02 29 bd
       -0.34516537 -0.10815923 -0.039173998 -0.041262604
000090 3b 9e a8 bd b9 58 b6 be de 4f ba be 03 ba f4 be
       -0.08233305 -0.35614565 -0.3638906 -0.47798166
0000a0 cb 02 58 be a5 7e c1 bb 47 0a 53 bc e6 64 f9 be
       -0.21094815 -0.00590499 -0.012880868 -0.48709792
0000b0 b5 ee eb bd 2d f2 8c be 22 31 d7 be 8a e1 a9 be
       -0.11520139 -0.27528515 -0.42029673 -0.33179885
0000c0 20 d0 3c be c4 97 4b be ce 8e c9 be cc a6 69 be
       -0.18438768 -0.19882113 -0.39366764 -0.22817534
0000d0 7a 50 91 bc 18 ec da 3d 7c 3b b0 be 14 cd a0 bc
       -0.01773857 0.106895626 -0.34420383 -0.019629039
0000e0 43 b2 00 be 3d 12 c0 be e6 26 8c be ed 32 99 3d
       -0.12568001 -0.37513915 -0.27373427 0.074804164
0000f0 46 e7 3c be 42 46 c5 be 3d 80 d6 be 43 e8 b5 bd
       -0.18447599 -0.38530165 -0.41894713 -0.08882191

to_k.weight f4 [64, 64]
000000 c8 de c9 bd a6 7e 0a be 54 01 8f bd 25 d5 d5 bd
       -0.09856945 -0.13524875 -0.06982675 -0.10441045
000010 19 ac 9f 3e 08 15 aa 3c c3 b4 d9 3b 76 df d7 3d
       0.31185988 0.020761982 0.006643863 0.10540669
000020 ab 4e 4f 3d b6 6b 90 bd d5 7a 60 bd b1 05 11 bc
       0.050612133 -0.07051794 -0.05480464 -0.008851455
000030 f6 ff 33 3d 33 45 79 be bf bc b8 bd 1e ff 56 3e
       0.043945275 -0.24342804 -0.090203755 0.20995757
000040 78 65 4c bd 7a 0d 09 3d 9d 37 dd 3d 3c 60 51 3e
       -0.049901456 0.033460118 0.10801623 0.20446867
000050 a0 0d ba 3c fe d6 2c 3d 1a da 80 3d d8 dc 20 bd
       0.022711575 0.04219722 0.062915996 -0.039273113
000060 58 81 33 bd 65 d0 50 be 74 6a 88 be 7e 23 bd 3d
       -0.043824524 -0.20391996 -0.26643717 0.09235285
000070 81 58 f8 3b 07 37 8c bd 02 0f 39 bd 43 dc 01 bd
       0.00757891 -0.06846433 -0.04518033 -0.0317042
000080 0c d3 2a 3e 7e 4d 03 3d 08 8d d9 bd c6 34 de 3b
       0.1668207 0.032056324 -0.10622603 0.0067811934
000090 d1 18 b2 bd 0a ff 25 3d 94 7c be 3d fe ab 2b be
       -0.086961396 0.040526427 0.09301105 -0.16764829
0000a0 59 78 5e 3e b1 19 cc bd ca b2 ca 3c 73 5f d0 bd
       0.21725596 -0.09965838 0.024743456 -0.101744555
0000b0 35 32 5b 3d e6 26 75 bc 80 9b 01 3e b4 ec a9 3e
       0.053514678 -0.014962887 0.12656975 0.33188403
0000c0 14 b9 3c bd 4b 20 26 3d 8b e4 e0 be a5 42 2b bd
       -0.04607494 0.04055814 -0.43924364 -0.041811604
0000d0 0a af 2c 3d 3c 19 e3 bc 75 e7 d1 bc 16 4e b3 bc
       0.042159118 -0.027721994 -0.025623063 -0.02188782
0000e0 1e e4 0d 3e a7 31 ba 3d de 73 a1 be 54 97 ae bd
       0.13856551 0.09091502 -0.31533712 -0.08524957
0000f0 33 af 4f 3b 13 7f 40 bd 06 f0 92 3d 5a 56 1a 3d
       0.003169012 -0.046996187 0.07174687 0.037680008
000100 27 28 3a 3d f0 2d f6 bd 2e 26 72 bc 3e 73 59 bd
       0.04544845 -0.12020481 -0.014779611 -0.05308842
000110 48 57 d8 bd 2e 53 74 3c d9 f6 4b bc 56 ac 26 3e
       -0.105635226 0.01491241 -0.01244899 0.16276678
000120 99 31 e8 3c f2 91 33 be ec 34 c6 3c 9c c7 32 3e
       0.028343963 -0.17536142 0.024195157 0.17458957
000130 98 a3 5f 3d ee f2 fe 3c b0 1d be bd e4 ee 36 be
       0.054599375 0.031121697 -0.09283006 -0.17864567
000140 77 30 a6 bc 36 b3 98 3e e0 c6 c3 bd 89 42 5a 3e
       -0.020286782 0.29824227 -0.09559417 0.21314444
000150 a3 80 9a bc 6f cd df bd bc 66 61 be 81 55 53 bd
       -0.018860167 -0.10927855 -0.22011846 -0.051595215
000160 04 ae 25 bd c4 25 5d bd d8 cb 44 bd 2e f5 2f bd
       -0.040449157 -0.053991094 -0.048045963 -0.04295843
000170 c7 f8 3c bd c9 6a 9c bd 6a 19 1d bd c2 fe dc bd
       -0.04613569 -0.07637555 -0.038354315 -0.10790779
000180 dc 2b 30 be c7 54 24 3d 08 89 0f 3e 6b 11 bb 3c
       -0.17204231 0.040119912 0.14017117 0.022835454
000190 12 92 fb 3d ec ef 16 3d 82 14 2a 3e 13 a6 5b bd
       0.1228372 0.0368499 0.16609386 -0.053625178
0001a0 a7 67 af bd 86 9b ee bc 36 bf a6 3d 8d d1 2c bd
       -0.08564692 -0.029126894 0.08141939 -0.04219203
0001b0 77 41 be 3d e5 cd 8b 3b 89 69 26 3e 47 ef 85 bc
       0.0928983 0.004266488 0.16251196 -0.016349448
0001c0 16 7d 17 bd dd 80 2c 3e af 4d 8b be 24 12 39 3d
       -0.036984526 0.16846032 -0.27207705 0.045183316
0001d0 15 6c 84 bd 27 de bd bc 63 9e 99 bd 4e 22 0e be
       -0.064659275 -0.02317722 -0.07500913 -0.13880274
0001e0 45 a5 f1 3d f1 83 1f bc 04 d3 b0 be 9a e6 12 bc
       0.11799101 -0.009736047 -0.34535992 -0.0089661125
0001f0 fe 96 26 bc 2f 5c 4a be 97 5a e2 3c 7d 2c 86 bd
       -0.010167835 -0.19761728 0.027631087 -0.06551454
000200 82 0c 86 3d ce 6e 3d 3e 88 cf d5 3d 91 01 a2 3d
       0.065453544 0.184993 0.10439974 0.07910455
000210 18 8e d9 bd 85 e3 16 bc 37 e4 99 bc 42 15 a2 3d
       -0.10622805 -0.009209518 -0.01878558 0.07914211
000220 c2 1e d2 3d fc 18 a5 3d e0 f4 77 3c 45 49 af be
       0.10259773 0.08061406 0.015134066 -0.34235588
000230 9b 39 77 3d 6a 98 07 be 57 53 90 3c 2c 93 da 3d
       0.06035767 -0.13241735 0.017617865 0.10672602
000240 23 47 be 3c f6 f0 59 3e 01 c8 d8 ba 06 dc 93 3d
       0.02322728 0.21283326 -0.0016539098 0.072197005
000250 52 65 8c bd 6c 79 aa 3d 22 33 fa 3d a7 47 5b 3e
       -0.06855263 0.08323941 0.12216784 0.21414052
000260 b1 b1 c1 bc 3b 25 5b 3d f2 49 13 3e 96 53 dc 3d
       -0.0236443 0.053502303 0.14383677 0.1075813
000270 40 8c 38 3e 22 16 37 3e ac d1 de 3d d4 5b c2 3c
       0.18022251 0.17879537 0.108798355 0.023725428
000280 28 9f 08 3c 7f 90 87 be f9 40 4b 3d b7 46 08 3d
       0.008338727 -0.2647743 0.04962251 0.033270564
000290 6e 8b b8 be 08 3f f9 3c 34 38 92 be a3 68 61 bd
       -0.36043876 0.030425563 -0.28558505 -0.05503143
0002a0 bc 82 97 3d 64 31 16 3e 15 ad b3 3c d7 0a 7a 3e
       0.073979825 0.14667279 0.021933118 0.24418198
0002b0 d4 74 af 3d 79 18 ca bc 2a a5 16 3e 60 c6 4a be
       0.08567205 -0.024669873 0.14711443 -0.19802237
0002c0 6b d5 be bc 03 97 a8 be 78 88 8d 3e 28 10 d0 bd
       -0.023295125 -0.32927713 0.2764318 -0.101593316
0002d0 5c b1 3c 3e 75 19 c5 3d be fa 0d 3e 50 d5 7c bd
       0.18427032 0.09623996 0.13865182 -0.06172687
0002e0 54 6a e0 be b4 14 2a 3d c6 9b d4 3e 72 f4 03 3d
       -0.43831122 0.04152365 0.41525096 0.032215543
0002f0 40 1f c9 3d 78 b7 73 3e eb 68 a2 3d 80 55 0b 3d
       0.098204136 0.23800457 0.07930168 0.034017086
000300 68 b8 91 bd db f8 13 be 7a cf 46 bd f8 fa f1 bd
       -0.07115251 -0.144504 -0.04853771 -0.118154466
000310 d2 9e 92 3e 48 b1 ca bd 17 ec ea bb b3 f1 30 3d
       0.28636795 -0.09897095 -0.0071692574 0.043199252
000320 9b 1f 07 3b fe b2 f3 bd 50 78 d4 bd a3 ed 2d 3e
       0.0020618204 -0.118993744 -0.1037451 0.16985182
000330 95 0c 4e bb ef 19 e0 bd 0f 0e 3e 3c 68 c7 9d 3d
       -0.0031440605 -0.109424464 0.0116000315 0.07704049
000340 7a 90 25 bd 0f 54 98 3c 2f a9 d7 3d df e0 05 3e
       -0.040420987 0.01859477 0.10530316 0.13074063
000350 35 3d c9 3c 5c ed 7d 3c 0f a1 06 3d bf 76 0c be
       0.024565319 0.015498485 0.03286844 -0.13717173
000360 9c 64 91 bd 9f 06 33 be 6a cd 7d be ef 99 0c 3d
       -0.07099268 -0.17482994 -0.2478539 0.03432649
000370 31 c4 e4 bd 0b d4 06 be 3f 7b 07 be 95 ac 58 3d
       -0.11170233 -0.13166825 -0.13230608 0.052898962
000380 04 5c 97 3d da c4 7f 3d 0c 04 ed bd 7f 11 24 bd
       0.073905975 0.06244359 -0.115730375 -0.040055748
000390 e7 62 6d 3d da f0 98 bc 6e ec 30 3e c5 32 06 be
       0.05795565 -0.018669534 0.17277691 -0.13105305
0003a0 3c cb 53 3e ed ae 2e be 4f 8a 89 bd b9 c3 47 be
       0.20682997 -0.17058916 -0.067158334 -0.19508256
0003b0 b0 1e 9a 3c ce 23 b5 bb 35 06 d4 3c 65 85 a3 3e
       0.018813461 -0.00552795 0.025881866 0.3193771
0003c0 d4 73 06 bd 70 a3 53 3e 40 55 a2 be 87 81 3e bc
       -0.032825306 0.20667815 -0.31705666 -0.011627561
0003d0 2d 61 82 bd 5a 57 2f 3d c9 e0 05 3d e8 3e f4 bb
       -0.06366191 0.042807914 0.032685075 -0.007453788
0003e0 83 18 68 3e a4 cc 7d bd 84 22 a9 be 64 37 3f be
       0.226656 -0.06196274 -0.33034146 -0.18673474
0003f0 5f 1d 90 bd b1 c1 84 bd 73 66 27 bc 0c 60 fc 3b
       -0.07036852 -0.06482256 -0.010217297 0.0077018794

to_v.weight f4 [64, 64]
000000 d4 2a 90 bd a3 45 ab bd 7c f5 86 3d b6 a4 1c bc
       -0.07039419 -0.083628915 0.06589791 -0.0095607545
000010 09 53 34 3e e9 bc 93 bc a5 4e 18 bd 97 c3 15 3b
       0.176098 -0.018034415 -0.037184376 0.0022852176
000020 1c a2 d4 bd 3e f9 6c bd 7d 87 41 bd 3e eb 99 bc
       -0.103824824 -0.057854883 -0.047248352 -0.01878893
000030 2d 31 c6 bd f7 24 cb 3d 33 69 f9 bc 10 0b c2 bc
       -0.09677348 0.0991916 -0.03044567 -0.023686916
000040 7c 0f 2b be 3b 68 66 3c fb dd 01 3b 2d df 0b be
       -0.16705126 0.014062936 0.0019816149 -0.13659354
000050 0c 44 48 3d 8c be 09 3c 59 57 55 be 66 25 5d 3b
       0.04889302 0.008407246 -0.20834102 0.0033744215
000060 0a 60 1e 3d 52 da e2 3d e2 b1 22 3c ba eb 95 bd
       0.03866581 0.110767975 0.009930106 -0.07320352
000070 f4 13 02 be 0e 56 a1 bd cd c9 13 be 1b ab 61 3d
       -0.12702924 -0.07877742 -0.1443245 0.05509482
000080 27 61 3d 3e 28 64 62 3e ea 26 ec 3d 1d 76 1d be
       0.18494092 0.22108519 0.1153086 -0.15377088
000090 3b dd a5 3d 2f 1a 87 bc 29 b2 8b 3d 83 5a 1f 3d
       0.08098837 -0.016491977 0.06821091 0.038904678
0000a0 a7 e6 2b bb a3 71 39 3e 11 7f 06 3e 15 9b d6 bd
       -0.0026230009 0.18109755 0.1313441 -0.10478798
0000b0 67 b0 1e bc 31 cd 00 3d 3b ca 1c be 87 8d a4 3d
       -0.009685612 0.031445686 -0.1531152 0.08034807
0000c0 2b 32 95 3c a7 6a 46 3d 96 2f 23 bb 12 cd 4e bc
       0.018212399 0.048441555 -0.002490019 -0.012622135
0000d0 a2 c3 f9 bd c5 32 91 be ba a9 79 be 3c 73 7f 3e
       -0.12195517 -0.28359047 -0.24381152 0.24946302
0000e0 61 70 8e 3d 45 6d 5e bd 03 72 c9 3d 5b 0a e3 3d
       0.06955028 -0.054303426 0.09836199 0.110859595
0000f0 a7 3e 6f bd fb 2a 34 3e 2e 58 6c be da 70 12 3e
       -0.05840936 0.17594521 -0.23080513 0.14300862
000100 4c fa b5 bb 39 9c 97 3d 6f f1 b7 bc fc dd ac 3d
       -0.0055535194 0.07402844 -0.022453992 0.08440778
000110 ac a6 49 be 82 09 41 3d e6 0b 09 bc 6b 46 cd bd
       -0.19692487 0.047128208 -0.008364653 -0.10023197
000120 84 d2 84 3d 08 30 14 3e fa 59 24 3d cd 13 16 be
       0.06485465 0.14471447 0.04012487 -0.14655991
000130 a1 70 f1 3d 92 5c f2 3d 67 18 46 be 4b 67 eb 3c
       0.117890604 0.11834063 -0.19345246 0.028735777
000140 2f a9 19 3e 78 99 94 bc fb 4b cc 3d c7 11 96 bd
       0.15005945 -0.018139586 0.099754296 -0.073276095
000150 41 9b ca 3d e5 75 c1 bc 5a b0 69 bd 30 24 a7 bb
       0.098928936 -0.023615787 -0.057052948 -0.0051007494
000160 35 74 48 bd 31 0b 97 3d 6d 00 e7 3d 65 b2 d3 bc
       -0.04893895 0.073751815 0.11279378 -0.025841901
000170 b2 3c 99 3d bc 26 56 3d 08 6b be bc da 49 7d bb
       0.0748228 0.052283034 -0.023244396 -0.0038648755
000180 90 ed 39 bd f1 1e 58 be f9 44 3e 3d 29 6e 7d 3d
       -0.045392573 -0.21105553 0.046452496 0.061872635
000190 a4 fa 8a bd 15 65 f9 3d 39 dc 54 be f6 53 05 3e
       -0.06786087 0.12177483 -0.20787133 0.1302031
0001a0 38 34 a1 bd d2 6d 55 bc e4 de b3 3d 6f 63 e0 3d
       -0.07871288 -0.0130266715 0.087827474 0.109564655
0001b0 18 52 d3 bd 1d 95 cb 3b 9a c3 a6 3b 5d 0f b0 be
       -0.103183925 0.006212844 0.0050892355 -0.3438672
0001c0 6c 28 8e 3d 94 18 98 3c 09 16 a3 3d dd cf 05 bd
       0.069413036 0.018566407 0.07963187 -0.032668937
0001d0 d7 44 f6 3d 2a 78 cf 3c 3a 16 08 bc 42 04 36 3d
       0.12024849 0.025325853 -0.0083060805 0.044437654
0001e0 81 e5 9f be ba 9a 78 3d 56 be 13 be 9d 8a e1 3d
       -0.31229785 0.060694434 -0.14428076 0.110127665
0001f0 88 79 73 3d 5c a7 b0 3c ba 5c 7c be 96 20 10 be
       0.059442073 0.021564178 -0.24644747 -0.1407493
000200 c9 f4 21 bd 7d 68 b7 bd 9d ed 80 bc 6b 9b f9 3d
       -0.039540086 -0.089554764 -0.015738303 0.12187847
000210 d9 9a b5 3d e1 fb a1 3d 94 4f a1 bc f2 c9 2e 3e
       0.088674255 0.0790937 -0.019691266 0.17069224
000220 42 33 23 3d 3a 70 12 3d cf fc 8f 3d 83 7e bb 3c
       0.039843805 0.03575156 0.07030641 0.022887474
000230 72 af 40 3c 0e 01 52 3d ad 55 1f 3b 9d 90 d9 3c
       0.011760579 0.051270537 0.0024312541 0.026558215
000240 fa 95 81 bd 28 b3 7d bd 08 2a 8d be df 58 9c 3c
       -0.06327434 -0.061938435 -0.2757113 0.019085346
000250 ad 77 81 3e 59 22 77 3d 4f 2a dc bd f0 68 ca 3c
       0.25286618 0.06033549 -0.10750257 0.024708241
000260 53 18 8a bd eb 45 b7 3d 52 b3 d7 3d 85 7f 12 be
       -0.06742921 0.08948883 0.105322495 -0.14306457
000270 12 43 63 bc fc b3 21 be c6 a4 50 3e a0 a4 58 3d
       -0.013870971 -0.15791315 0.20375356 0.052891374
000280 fc 44 82 bd 3e 15 b8 3d c2 90 97 bd 41 18 6e be
       -0.06360814 0.089884266 -0.07400657 -0.2325144
000290 06 ee 97 bd 70 ec 11 3d d3 c1 c5 3c 45 70 72 be
       -0.07418446 0.035625875 0.024140274 -0.2367564
0002a0 21 62 54 3d ce 50 da 3c 64 88 92 be fa b8 b0 3d
       0.051851396 0.026649859 -0.28619683 0.086290315
0002b0 e9 bf 83 3c a1 84 32 3d 81 03 67 3d cb ca 98 3d
       0.01608272 0.043583516 0.056399826 0.07460555
0002c0 20 bf 55 bd 25 37 06 3d 8c ab f0 bc 64 fa 05 3e
       -0.052184224 0.032767434 -0.029378675 0.13083798
0002d0 98 f9 49 bd 12 87 51 3c 60 7c 28 be ae 0b 9a bd
       -0.049310297 0.012788551 -0.16453695 -0.07521759
0002e0 53 32 f1 ba 11 2f 8b bc 48 17 8f 3d 1c bc b0 bd
       -0.0018401839 -0.016990216 0.069868624 -0.08629629
0002f0 9f 89 05 be 18 3a ac bc 7b 72 a5 3e d6 a3 93 be
       -0.1304078 -0.021023795 0.32313904 -0.28835934
000300 c0 33 c3 3a 23 f5 1a 3e d4 b4 9f bc f2 46 a0 bd
       0.0014892742 0.15132575 -0.019495405 -0.07826032
000310 27 32 e5 bd 05 6f fb bd 51 b2 9c bc 06 57 81 bd
       -0.111912064 -0.12277035 -0.019127997 -0.063154265
000320 5c 77 24 3d 8f 71 50 3d 98 40 51 3c cd ca 94 3e
       0.040152892 0.050889548 0.012771748 0.29060975
000330 e2 96 46 bc ee 3a fa bd 16 7c 69 bd 65 d1 29 3e
       -0.012120934 -0.12218271 -0.057003103 0.16583784
000340 c3 a9 f7 bd 7c 2b 39 3a 26 53 f3 bd cc ab 52 3d
       -0.12092926 0.00070636696 -0.11881094 0.05143337
000350 73 eb 45 3d 3e 79 b1 3c 9f e3 e6 3d b9 3d db 3d
       0.048320245 0.021664258 0.11273884 0.10705132
000360 d1 19 f3 bb 39 04 90 bd 5d 3b de 3d ac 47 8f 3d
       -0.007418849 -0.070320554 0.108511664 0.06996092
000370 88 10 3a bd 26 92 0d 3d b6 27 5b bc a3 74 13 bd
       -0.04542592 0.034563206 -0.013376167 -0.035999905
000380 5d 1d ee bc 39 2c 7f be 97 a3 3c 3c 85 0f 8b bd
       -0.029066736 -0.24919213 0.011513612 -0.067900695
000390 5f cd 64 bd e6 2b 1d bd bc eb cb 3b 36 53 08 be
       -0.05585992 -0.038371943 0.00622317 -0.13312992
0003a0 27 97 07 3e c8 84 bf 3b e1 83 eb bc ba fe 9b 3d
       0.13241254 0.005844686 -0.028749408 0.076169446
0003b0 e3 50 67 3e 42 f0 29 bc 50 40 9c bc 72 5b 4a bd
       0.2258945 -0.010372223 -0.019073635 -0.049403615
0003c0 2b e3 7f 3d a2 52 15 3e 53 3d 4f 3d c1 fd 85 bc
       0.062472504 0.14582303 0.050595593 -0.01635635
0003d0 fd 94 a9 3c 47 89 79 bb 84 22 36 3e c6 4c bf bd
       0.020700926 -0.0038076208 0.17786604 -0.09340815
0003e0 1e c0 71 be d1 5a 97 3d 32 77 e7 bd 0c b4 3d bb
       -0.23608443 0.07390369 -0.113020316 -0.0028946428
0003f0 0b ea ce 3c ef fa 20 3d b5 54 ff 3d 91 ec a0 bd
       0.025258085 0.03930181 0.124673285 -0.078576215

to_q.0.weight f4 [64]
000000 32 70 47 3f 6d 53 4d 3f 5d 1f 9c 3f 33 1d 87 3f
       0.7790557 0.8020542 1.2197071 1.0555786
000010 43 42 7b 3f 0f a1 94 3f 2f 85 44 3f df 6f 72 3f
       0.9814798 1.1611651 0.7676572 0.9470195
000020 9e 66 90 3f 72 6e 73 3f f6 05 69 3f b2 fc 6e 3f
       1.1281316 0.950904 0.9102472 0.9335433
000030 9c 76 6d 3f 03 fd 85 3f d3 3e a0 3f d2 55 8c 3f
       0.9275911 1.0467838 1.2519172 1.096369
000040 88 dd 98 3f a3 fa 74 3f e9 36 66 3f 31 67 85 3f
       1.1942606 0.9569494 0.89927536 1.0422117
000050 b4 d0 88 3f d7 77 a7 3f ad 52 73 3f cf 13 89 3f
       1.0688691 1.3083447 0.9504803 1.070917
000060 c8 c1 87 3f e9 29 8b 3f 0b da 89 3f b7 a8 88 3f
       1.0606012 1.0872165 1.0769666 1.0676488
000070 1c f3 76 3f 35 35 89 3f a2 5f 85 3f 85 09 78 3f
       0.96464705 1.0719362 1.041981 0.96889526
000080 2f 0a 8e 3f 52 74 88 3f 99 68 8c 3f b0 4b 5e 3f
       1.1096858 1.0660498 1.0969421 0.8683424
000090 a9 0a 3f 3f 96 87 63 3f e9 87 82 3f 5e 41 97 3f
       0.7462564 0.8887876 1.0197726 1.1816823
0000a0 51 11 98 3f fa a2 6e 3f 5f df 83 3f a8 3f 43 3f
       1.1880285 0.9321743 1.0302542 0.76269007
0000b0 45 a4 91 3f ad 4b 84 3f d9 71 54 3f cb a6 9e 3f
       1.1378256 1.0335594 0.8298622 1.2394651
0000c0 1a ec 7b 3f 4a ec 5f 3f c0 03 6e 3f 9b 36 6f 3f
       0.9840714 0.87469923 0.9297447 0.93442696
0000d0 e6 08 81 3f ba b0 7b 3f 2d 91 69 3f 0e ae 9d 3f
       1.008084 0.9831654 0.91237146 1.2318742
0000e0 ad 72 91 3f 47 7e 81 3f 1a 3e 6e 3f c2 b4 85 3f
       1.1363121 1.0116662 0.9306351 1.0445788
0000f0 13 81 94 3f 2a af 8e 3f bd cf 80 3f 50 d8 6b 3f
       1.160189 1.1147206 1.0063397 0.9212694

to_q.0.bias f4 [64]
000000 01 07 e8 3d 37 c5 aa bd cd b6 2f be 6f 55 45 3d
       0.11329461 -0.08338397 -0.17159577 0.04817718
000010 15 e0 28 bd 28 a4 e5 bd e0 09 fd bd 8a 24 8e bd
       -0.041229326 -0.11212951 -0.12355399 -0.06940563
000020 f4 0b b0 3d 9e 5d 09 3d 5f 0b 25 3d 63 96 0d bd
       0.0859603 0.033536546 0.040294047 -0.034567248
000030 19 86 82 bc 81 7c 0a 3d b1 d0 ad 3c 2c 4f 51 bd
       -0.015933083 0.033810142 0.021217676 -0.051100895
000040 7c 12 a8 3d 83 5f 36 bc 85 9c b2 3d f2 56 10 3d
       0.082066506 -0.01113117 0.0872126 0.035239168
000050 d8 56 da 3d 8c cf 17 3d 63 d9 03 be 7a ce bf 3d
       0.106610954 0.037063166 -0.12875895 0.09365554
000060 9e cf 87 3d c0 5a 7c be 70 c9 89 3d d0 74 a4 bd
       0.06631397 -0.24643993 0.06727874 -0.08030093
000070 bb 4d 33 be 96 65 ce 3c cb e3 e0 3c 90 f4 89 3e
       -0.1751012 0.025194924 0.02745237 0.269444
000080 db c2 8a 3d 0e 92 34 bd f3 59 87 be 99 e5 60 3d
       0.06775447 -0.0440846 -0.26435813 0.05490646
000090 d9 4a ab 3d e9 96 51 3d 64 bf 34 be 28 29 d0 bd
       0.083638854 0.05116931 -0.17651135 -0.101641
0000a0 bd 6f 03 bd 09 59 ce 3c 10 0a af 3d 8b fb 14 3e
       -0.032088984 0.02518894 0.08546841 0.14549081
0000b0 4d 4b cd 3d e7 fa 29 3d 62 bf 95 bd 73 1d 6a 3d
       0.10024128 0.041499045 -0.07311894 0.05715699
0000c0 5b c3 c2 3d 3b 20 ff bd 5d a4 85 bd 04 bf 48 be
       0.09509917 -0.12457319 -0.065254904 -0.19604117
0000d0 8c b3 2c 3e 05 02 92 bd 2a c7 13 be 6d 23 11 3d
       0.16865367 -0.071292914 -0.14431444 0.035434175
0000e0 41 89 3e be fc c5 17 3e 70 a6 9e bd 51 b6 46 3e
       -0.18607046 0.14821619 -0.07746589 0.19405486
0000f0 dd b3 61 bd 79 62 02 3e cd 09 a8 3d bf 37 13 3d
       -0.05510317 0.12732877 0.08204994 0.035941835

to_q.1.weight f4 [64, 64]
000000 a5 b1 6a 3d a8 b0 db bc 0b 98 8c 3e 03 91 d0 bc
       0.05729832 -0.026817635 0.2745975 -0.025459772
000010 f5 c3 3c 3d 05 8f 17 3d 1e 23 7b bd cb 7c 03 3d
       0.046085317 0.03700163 -0.061312787 0.032101434
000020 2a de a9 3d b5 9f 77 3e a2 9a 08 3e 69 c7 b7 bc
       0.082943276 0.24182017 0.13340238 -0.022433953
000030 6e 4e ac 3d e4 f8 41 be 56 3b 28 3e 82 6e 0f bc
       0.08413397 -0.189426 0.16428885 -0.008754374
000040 98 28 91 be b5 c1 19 bd 6b 82 a6 3c a6 c2 ed bc
       -0.28351283 -0.03753825 0.02032586 -0.02902348
000050 1b 51 9f be c1 d0 b4 3d fd 8a 8b 3d f9 10 6c be
       -0.31116566 0.08828879 0.06813619 -0.2305335
000060 91 a2 51 be 07 8d 10 3e 48 21 5e be 20 b7 bc 3c
       -0.2047217 0.14116298 -0.21692383 0.02303654
000070 00 ac 2e 3e 78 82 55 be f3 76 93 bd d3 d3 33 3e
       0.170578 -0.20850551 -0.07200422 0.17561273
000080 cc 6d 67 3c b2 df e7 3d bf e1 30 be b2 d8 a9 3d
       0.014125299 0.11321963 -0.17273615 0.082932845
000090 0c 5a 5c 3c 17 ee f6 bc c8 0e a9 bd 79 2b 9b 3c
       0.013449203 -0.030142827 -0.082547724 0.018941628
0000a0 4f 6b ee 3d 3d 5c 20 3e d8 40 5d be 62 ad 6e bd
       0.11641561 0.15660186 -0.21606767 -0.05827082
0000b0 be b4 1c be 76 11 63 bd ac 65 2b 3e ea 37 e1 bd
       -0.15303323 -0.055436574 0.16738003 -0.10996993
0000c0 ff 3c 0d 3e 31 26 a6 3b 0f 0c a7 3d 66 05 16 3d
       0.137928 0.0050704707 0.08156597 0.036626242
0000d0 ca da ee bd 8d c6 70 3d 75 7e 7e bb 60 e2 38 be
       -0.116628245 0.058783103 -0.0038832698 -0.18055105
0000e0 6d 57 6c 3e ab 0f c3 3c 23 1d 0f be 0a da bd bd
       0.23080225 0.023811182 -0.13975959 -0.09270103
0000f0 c4 f7 08 3e 51 a6 e0 bb 80 18 ba 3c a7 f5 be bd
       0.13375765 -0.006855764 0.02271676 -0.09324198
000100 41 7f 01 3d 92 8c c2 3d 76 72 0d 3e 1d e0 c2 3d
       0.0316155 0.09499468 0.13813195 0.095154025
000110 86 7c 8a 3d 64 c8 89 3d 28 59 ae bd d8 ca d6 3d
       0.06762032 0.067276746 -0.08513099 0.10487908
000120 f4 b8 52 3e 2d 05 87 3d 8a fd cb 3d 22 ce 2d 3e
       0.20578367 0.06592784 0.09960468 0.16973165
000130 f4 36 d8 3d b8 59 6b bd 62 c8 36 be a4 79 ca 3d
       0.105573565 -0.05745861 -0.17849877 0.09886482
000140 f1 29 b0 3d 4e 69 cc bc d4 47 6a 3a b0 3f df 3b
       0.0860175 -0.024952557 0.0008937095 0.006813012
000150 72 a1 33 be 0a 4c 83 3e 6e 11 ad bb 99 87 d2 bd
       -0.17542055 0.2564395 -0.005281619 -0.102797695
000160 29 cc df bc 61 00 82 bd 93 54 9f bd 56 e0 60 3c
       -0.02731903 -0.063477285 -0.07779803 0.013725361
000170 48 05 98 bd c6 d6 dd 3d 14 4f 38 be 1d 5a 91 3d
       -0.07422882 0.108319804 -0.17998916 0.07097266
000180 ad 95 aa bd 33 76 ce 3d 85 f8 2f be cb 5e 8e bd
       -0.0832933 0.100811385 -0.17184646 -0.06951674
000190 6c 98 3c 3c e9 5d fb 3b 81 3e e8 3d 82 57 85 3e
       0.01151095 0.007671107 0.11340047 0.26043326
0001a0 17 db a7 3d 4d 7a 92 bb 40 f8 5b be 0b 55 0c be
       0.08196085 -0.004470146 -0.21481419 -0.13704316
0001b0 d8 aa cb bd 8c 23 27 be 66 59 c0 3c a1 5f 79 3e
       -0.09944695 -0.16322154 0.023480128 0.24352886
0001c0 c1 3e 1d 3e 4c 73 fc bd e1 01 b1 bc e9 bb f8 bd
       0.1535597 -0.12326679 -0.021607341 -0.12145216
0001d0 63 59 f8 3b 24 9b e3 bd d8 c5 ed 3c 2a 74 b1 be
       0.007579015 -0.11113575 0.029025003 -0.3465894
0001e0 43 31 13 3e 67 57 bd 3d 2a 5b 2a be 0b 04 f0 3c
       0.1437426 0.09245186 -0.16636339 0.029298803
0001f0 cb f0 44 bd 2d 66 32 3e d6 38 13 be d6 99 30 bd
       -0.0480812 0.1742179 -0.1437715 -0.04311546
000200 9e dd 18 3d d3 a8 e3 bd 9d f5 40 be e0 5f a5 bd
       0.037320726 -0.11116185 -0.18843694 -0.08074927
000210 50 f3 73 bc a3 ec 06 3e 9a 2f c8 3d 3e b3 1a bc
       -0.014889553 0.13176207 0.09774704 -0.009442149
000220 5b 98 ba be c3 e3 73 bd 9f 8f a2 3c f0 54 00 be
       -0.36444363 -0.059543382 0.019843874 -0.12532401
000230 9b a8 ec bd c5 a6 91 bd c4 ea 18 3e ad 66 03 be
       -0.115555964 -0.07111887 0.14933306 -0.12832136
000240 ff c6 d8 bd 20 4c cb 3d a2 71 6b 3d 59 bc 3e be
       -0.105848305 0.09926629 0.057481416 -0.18626536
000250 51 b2 4c 3e e8 61 0f be 36 4d 97 3c f1 6b 20 3e
       0.19989897 -0.14002192 0.018469434 0.15666176
000260 ab 9f e8 3d 29 a4 04 3e d6 85 b4 3e 16 c0 d6 3d
       0.11358579 0.12953247 0.3525836 0.10485856
000270 d9 e2 83 bd 99 a2 0a bb 5c 98 9c 3d b8 b0 19 bd
       -0.06439752 -0.0021154045 0.07646248 -0.037522048
000280 cf 0e 24 3e 97 ae 17 3c 25 29 87 3e d4 d1 34 3c
       0.16021274 0.009257934 0.26398578 0.011036355
000290 e5 d5 4e bc ed c0 13 be 2e 7b fb bd 2c 84 40 be
       -0.012624239 -0.14429064 -0.12279354 -0.1880042
0002a0 6f 14 0a be 8f 99 a0 3d f8 77 d5 3d ab a4 d5 bc
       -0.13484357 0.07841789 0.10423273 -0.026079496
0002b0 d5 6c 39 3e 05 7b 65 bd a2 55 e7 3d fa fc 1f be
       0.18107922 -0.056025524 0.1129563 -0.15623847
0002c0 8c b9 49 be bd 8e 5d bd 80 09 2e 3e d3 38 2d 3e
       -0.19699687 -0.054091204 0.16995811 0.16916208
0002d0 6b 33 12 be d4 72 0c 3e 5b 92 08 be 57 58 cd 3e
       -0.14277427 0.13715678 -0.1333708 0.4010646
0002e0 6f fe 2d be f6 5b 1d be ac b5 e0 bc c4 ef 1b be
       -0.1699159 -0.15367112 -0.027430378 -0.15228182
0002f0 56 90 34 be 6d a6 11 be 27 f8 39 3e 80 16 02 be
       -0.17633185 -0.14223643 0.18161069 -0.12703896
000300 9e 3b fb 3c 68 c7 69 3c 4f 7b 31 3e ef e8 29 bd
       0.030668076 0.014268734 0.17332195 -0.04148191
000310 91 9c 9e 3c eb 15 13 be 22 e7 5d bc f2 77 ae 3d
       0.019361766 -0.1436383 -0.013543876 0.085189715
000320 5f e5 47 3e 78 0a 76 3e 0b 11 1b 3d 48 41 a7 3d
       0.19521092 0.24027431 0.03785805 0.08166748
000330 5e 03 d1 3d 0b 24 1a be 50 00 a8 3c 55 e9 0d 3e
       0.1020572 -0.15052812 0.020507962 0.1385854
000340 fe be 9c bd 88 cb aa bd ed af 0d 3c 19 47 20 3e
       -0.07653616 -0.08339602 0.008647901 0.15652122
000350 77 66 7a be 5a 00 50 3e 7a 07 52 bd 77 d1 65 be
       -0.2445315 0.20312634 -0.05127666 -0.22443186
000360 7c d4 34 be 8b 5b 9b 3d 6a 0c 7c be e9 15 12 3d
       -0.17659181 0.0758582 -0.2461411 0.035665426
000370 fd b5 ba 3d fa 27 0a be a8 05 c5 bc 03 34 2a 3e
       0.09116743 -0.13491812 -0.024050549 0.16621403
000380 1d 35 3a bd 47 e0 4f 3d 88 75 67 be af 61 94 3d
       -0.04546081 0.050750997 -0.22603428 0.07245194
000390 18 c9 03 bd 56 60 99 bd 79 ee 10 bd a8 84 0d 3e
       -0.0321742 -0.07489078 -0.035383675 0.13820136
0003a0 33 5b 50 3e db 73 83 3d 7d 37 5d be 7a 9c 90 bd
       0.2034729 0.06418582 -0.21603198 -0.070610955
0003b0 89 eb 8f be 4f bf eb bd e5 55 8d 3d 43 07 9a bd
       -0.28109387 -0.115110986 0.06901149 -0.07520916
0003c0 ff d1 35 3e 62 05 ac 3c bb e1 d0 bc 2c 6b 8b bd
       0.17755888 0.02099866 -0.025498262 -0.06807551
0003d0 69 92 3e bd 15 ff 10 bb 3f 21 d8 3d 90 57 8d be
       -0.046526346 -0.0022124697 0.10553216 -0.27605867
0003e0 f6 82 47 3e 47 76 de 3d 4a 22 f3 bd d1 a8 12 bd
       0.19483551 0.10862403 -0.118717745 -0.035805527
0003f0 07 3a 45 3e ed 80 35 3d a2 47 e1 3b de 54 f1 3c
       0.19260417 0.044312406 0.0068749944 0.029459413

to_q_bg.0.weight f4 [64]
000000 1d d9 8c 3f 3c 4c 8a 3f 02 8d b4 3f a1 e9 8d 3f
       1.1003758 1.0804515 1.4105532 1.1086923
000010 28 ca 82 3f 2f bc 86 3f 07 9c c8 3f 18 b3 74 3f
       1.0217943 1.0526179 1.5672616 0.95585775
000020 36 9f 57 3f ba 44 a2 3f 03 ca bb 3f 4e 8b 9b 3f
       0.8422731 1.2677224 1.4671024 1.2151887
000030 1f b6 a6 3f e3 14 8d 3f 65 e5 5c 3f 5c a3 80 3f
       1.3024329 1.1021999 0.8628753 1.0049853
000040 d5 89 88 3f 82 37 6c 3f 60 b6 93 3f 48 f0 82 3f
       1.0667063 0.922722 1.1540031 1.0229578
000050 16 a4 7d 3f 83 30 92 3f d1 88 95 3f 6b 4d 89 3f
       0.990785 1.1421055 1.1682378 1.0726751
000060 12 7a a4 3f a0 d2 8a 3f b6 c3 8a 3f f6 4a 7d 3f
       1.2849753 1.0845528 1.0840976 0.98942506
000070 e9 20 8b 3f 8a d3 79 3f a2 5c 60 3f d3 56 97 3f
       1.0869418 0.9758841 0.87641346 1.1823372
000080 14 46 95 3f 85 9b 8c 3f f3 35 8f 3f 33 ac 8e 3f
       1.1662011 1.0984961 1.1188339 1.1146301
000090 44 60 92 3f a6 cd 7d 3f d3 ed 8d 3f df 11 8b 3f
       1.1435628 0.9914192 1.1088203 1.0864829
0000a0 e8 6f af 3f 60 59 94 3f 1b 80 64 3f 49 36 8a 3f
       1.3706026 1.1589775 0.89257973 1.0797817
0000b0 ca 73 85 3f f9 da 92 3f f8 67 a2 3f 1d b3 c5 3f
       1.0425961 1.1473075 1.2687979 1.5445286
0000c0 18 aa b4 3f 89 4f 85 3f aa 06 55 3f bd aa 8b 3f
       1.4114408 1.0414897 0.83213294 1.091148
0000d0 07 8d 94 3f 8b c6 db 3f f8 2d 84 3f a1 eb 93 3f
       1.1605538 1.7169966 1.0326529 1.1556283
0000e0 79 0b 81 3f 17 7f 96 3f 61 fc 8d 3f 92 3c b0 3f
       1.0081626 1.1757535 1.1092645 1.3768485
0000f0 80 c9 a9 3f ab 9a b5 3f 7d ec ab 3f 80 b0 8d 3f
       1.3264618 1.4187826 1.3431545 1.1069489

to_q_bg.0.bias f4 [64]
000000 d0 22 5e be 8a 2f 79 be 9e ad bb 3e d7 65 b9 3c
       -0.21692967 -0.24334541 0.36655897 0.022631569
000010 3e f8 66 be 6e 49 71 be f7 8e 98 3e 15 d2 c1 be
       -0.22555634 -0.23563167 0.29796574 -0.37855592
000020 24 2c 0a 3e b3 a8 d6 be 52 47 93 be ee fb a5 be
       0.13493401 -0.41925582 -0.2876535 -0.3241877
000030 fa 80 cb be ea 3e 9b be 21 9b 23 3e a1 19 5b 3e
       -0.3974684 -0.30321437 0.15977146 0.21396495
000040 b0 79 18 be a9 8f 3c be 47 6a 86 bd 8d 02 c5 be
       -0.1489017 -0.18414177 -0.065632395 -0.3847851
000050 75 91 5d be de 3d 6a 3e 93 7f 5d 3e 98 f2 c5 3e
       -0.21637519 0.22875163 0.21630697 0.38661647
000060 a8 5a c6 3e f3 86 fa 3d cf 15 a4 be cd cb 45 bc
       0.3874104 0.12232771 -0.3204789 -0.012072516
000070 83 46 8c be 3f af 4b 3e f5 ab 60 3d 98 da a5 3e
       -0.27397546 0.1989107 0.05485149 0.32393336
000080 3f 75 d7 be df 81 0a be 06 36 8c be 72 a1 28 3c
       -0.4208164 -0.13526104 -0.27384967 0.010292398
000090 28 89 21 be 2c 18 32 3e 05 ce 4b 3e 98 79 5f 3e
       -0.15774977 0.17392033 0.19902809 0.21823728
0000a0 63 17 d8 be 20 51 d1 bd 6a e2 10 be 7b ae 81 be
       -0.42205343 -0.102205515 -0.1414887 -0.2532843
0000b0 26 57 86 be 6e aa 9b 3e f6 f1 8b be ca fd b2 3e
       -0.26238364 0.30403465 -0.2733304 0.3495925
0000c0 3b 8a f7 3e 33 1f 40 3e 24 bf 2b 3d b0 af 74 be
       0.4834765 0.18761902 0.041930333 -0.23895144
0000d0 ba 3e c9 3e b0 26 bc 3e d2 6f 68 3e 74 4f 12 3e
       0.3930567 0.36748266 0.22698906 0.14288121
0000e0 43 c7 22 3e 96 d8 5d be cc 88 8b 3e 06 c7 23 3e
       0.15896325 -0.21664652 0.27252805 0.1599389
0000f0 a4 fc ce 3e 38 08 6b 3e 20 c3 c8 be f2 92 25 3e
       0.40427125 0.22952354 -0.3921137 0.16169336

to_q_bg.1.weight f4 [64, 64]
000000 6e 94 71 3e 55 6f 03 be d5 5b 83 be c7 e5 6b be
       0.23591778 -0.12835439 -0.25656 -0.23036872
000010 88 34 a4 3e 84 87 6d 3d 08 38 a8 be 6f 66 80 3e
       0.32071328 0.057990566 -0.32855248 0.2507815
000020 86 63 c1 3c 21 53 e7 bd 19 ea 0e 3e a3 69 83 3d
       0.023607027 -0.112951525 0.13956489 0.06416633
000030 c9 a2 4e 3e c7 7d ef bb b5 40 18 3d 65 3f c5 bc
       0.20179285 -0.007308695 0.037171084 -0.02407808
000040 65 4a 31 be dd d4 ca 3d 28 7a 62 3e 1d 73 20 3e
       -0.17313536 0.09903882 0.22116911 0.15668912
000050 14 62 3c 3e 0a 5f 55 be 83 5f 26 bc b1 a8 f2 3d
       0.18396789 -0.20837036 -0.010154608 0.118485816
000060 81 4e db bd ce f2 8d be f8 32 89 ba c9 bc d6 3d
       -0.10708333 -0.27724308 -0.001046746 0.10485227
000070 ae 68 41 3d 1d ba bf bd 74 f9 35 3c dd 9f 94 bc
       0.04721897 -0.0936167 0.011106838 -0.018142635
000080 c5 85 a4 3d 4e 6e ea 3d e7 b6 a4 3c d5 6a d6 3d
       0.08033327 0.1144682 0.020106746 0.10469595
000090 6b 7d b1 3a b0 5a ae 3b a3 19 c3 bd a4 7c f7 3d
       0.0013541406 0.0053208694 -0.09526374 0.1208432
0000a0 09 46 5f 3e c5 be 13 3e ad a3 56 3e 49 3e ac 3c
       0.2180406 0.14428242 0.20960875 0.021025794
0000b0 49 e5 d3 3c fa 28 4c be a2 84 25 be f2 42 bc bd
       0.025866168 -0.19937506 -0.16163877 -0.09192456
0000c0 bd 11 05 be 4f 58 aa 3d be aa d6 bd 70 ca 49 3e
       -0.12995048 0.08317625 -0.10481785 0.1970613
0000d0 a9 92 8c be a5 d2 c5 bd b4 c7 df 3d 06 3a cf bc
       -0.27455643 -0.09659318 0.10926762 -0.025296222
0000e0 e4 47 c9 3d 67 1e fc bd 4d d7 55 be a3 7f b6 be
       0.09828165 -0.12310486 -0.20882912 -0.35644254
0000f0 da 76 a3 3d 10 2a eb bd fa 71 c6 3c 1c bb b0 3d
       0.079816535 -0.11482632 0.02422427 0.08629438
000100 66 19 c7 bd 37 f4 0f bd 99 17 b1 3a 79 0c 97 bd
       -0.09721641 -0.03514501 0.0013511061 -0.07375426
000110 b7 ce 29 3e 57 63 e8 bc 3f 54 03 bd 70 ad 9e 3c
       0.16582762 -0.028367681 -0.032062765 0.01936981
000120 1e 43 73 3d 0e f9 f1 bd 11 29 49 be 3a 9a ac bd
       0.05939018 -0.118150815 -0.19644572 -0.08427854
000130 c5 41 ad 3d 09 e2 37 bc 62 14 c9 bd a4 df 75 3c
       0.0845981 -0.011223325 -0.09818341 0.015006933
000140 88 1a 38 bd 84 b7 bc bc 13 22 7e 3d 74 01 d3 3b
       -0.044947177 -0.023036726 0.062044214 0.006439382
000150 e5 28 11 be 55 f6 9d bd 69 07 46 3d 92 52 35 3e
       -0.14175756 -0.07713 0.04834691 0.1770728
000160 48 63 94 bd 7a bc 51 3e 51 0c e5 3c 9d 25 ae bb
       -0.07245499 0.20482054 0.027959974 -0.0053145424
000170 92 e2 c1 bd 6a dd a3 3c ef 3f 92 3d 8b b7 6f 3d
       -0.09467043 0.02000304 0.071411006 0.05852465
000180 a0 04 c9 3c 85 58 e1 bd 40 70 bd bc a3 db b3 bd
       0.024538338 -0.11003212 -0.023124814 -0.08782127
000190 34 9d 4e be c5 63 14 bd 0e d8 45 3c f9 79 b6 3a
       -0.20177156 -0.03622796 0.012075437 0.0013921849
0001a0 7c 4f 90 3d 76 ec 5a bc 59 3e a1 bc f7 67 2d bd
       0.070464104 -0.013362041 -0.01968305 -0.042335477
0001b0 0e d7 cb bc 88 c0 bc bd bc 84 06 be cf 06 1f 3e
       -0.02488282 -0.0921641 -0.13136572 0.15529941
0001c0 88 76 8f 3c 57 cb fb 3d 51 c7 c5 3b dc 3a 6b bd
       0.017512575 0.12294643 0.0060357233 -0.05742918
0001d0 42 8d 0e 3d 8a d4 a3 3e 0b 56 32 3e 50 ac 27 3e
       0.034802683 0.31998092 0.17415635 0.16374326
0001e0 d9 2e cd 3d 32 ef d7 bc 6c 89 3b 3e db 4f ba bd
       0.10018701 -0.026359174 0.18314141 -0.090972625
0001f0 16 57 ed bc 79 23 89 3e 2e c2 a9 3c b8 75 6d 3e
       -0.02897219 0.26784876 0.020722475 0.23189437
000200 cc 2e 9f 3d c4 db c5 bd 77 ad 2e 3e 51 ec 41 be
       0.07772598 -0.096610576 0.17058359 -0.18937804
000210 62 a0 b4 ba f0 2d 7f 3e 57 f0 a8 bd 86 35 91 3c
       -0.0013780708 0.24919868 -0.08248966 0.017725717
000220 01 a2 30 3e 18 80 0a be 60 7c a6 bd a0 ba 42 3c
       0.172493 -0.13525426 -0.081291914 0.011885315
000230 6b f7 17 3e 91 f3 ff 3c 75 7c 17 3e 13 54 fe 3d
       0.14840476 0.031244071 0.1479357 0.1241838
000240 26 be 37 be 32 b7 1a 3e f9 51 45 bc 59 ad 6f bd
       -0.1794363 0.15108946 -0.01204347 -0.058514927
000250 b1 84 32 3e 3d b6 c7 bd 51 71 67 bd b2 32 49 3d
       0.1743343 -0.09751556 -0.05650455 0.049120612
000260 6e 6c e2 3c c0 55 28 bd e0 66 b9 bd ca 6f d5 3d
       0.027639594 -0.041097403 -0.09052825 0.10421713
000270 de 15 ec bb ed 29 6a 3d 7b fa ed 3c 8a 5d 85 3d
       -0.007204755 0.05716889 0.029050102 0.06511982
000280 22 e6 dd bd 5d 01 2b 3e e2 29 28 be 5f ef 8b 3d
       -0.1083491 0.16699739 -0.16422227 0.06832766
000290 71 72 22 3d 58 d4 2b 3e 42 65 0d be b7 49 53 3e
       0.03965992 0.16780221 -0.13808158 0.20633589
0002a0 15 76 db 3c f6 dd cc 3d 19 9f 01 3e 06 4e 81 bd
       0.026789704 0.10003273 0.12658347 -0.0631371
0002b0 c7 82 93 bd 4b 8c da bd 5d 53 3f be 69 f3 57 be
       -0.07202678 -0.1067129 -0.18684144 -0.21088947
0002c0 03 35 54 3e dc cc ee bc 30 e4 8e bd 58 3a 5c 3e
       0.20723347 -0.029150419 -0.06977117 0.21506631
0002d0 65 08 08 3e 84 24 ab be a5 36 51 be 42 a5 5f be
       0.13284452 -0.33426297 -0.20431001 -0.21840385
0002e0 e3 89 c4 3d 66 5a 84 be 59 a1 31 be 39 d7 02 be
       0.09596612 -0.2585022 -0.17346705 -0.12777413
0002f0 84 fc 4e 3e 42 35 13 be 6d ca e9 bd 15 71 e2 bc
       0.20213515 -0.14375785 -0.11415563 -0.027641812
000300 68 fc 93 3e a5 a9 b2 bd 5c 47 72 be 2a 50 ba bd
       0.28903508 -0.087237634 -0.23660034 -0.09097321
000310 ba 4e 06 3e 77 85 c4 3d 67 1b 89 be 1c d3 22 3e
       0.1311597 0.09595769 -0.2677872 0.15900844
000320 7f 40 a8 3c 52 7e 10 bd bf 01 f1 3d 4d 5b b1 3d
       0.020538567 -0.03527672 0.11767911 0.08659992
000330 5a 06 1d 3e c4 74 c8 bd a4 4b 22 ba 59 b8 94 bd
       0.15334454 -0.09787896 -0.0006191081 -0.07261724
000340 b2 16 37 bd b1 b0 42 bd 73 b5 0c 3e cf d6 b2 3d
       -0.04469938 -0.047531787 0.13741092 0.08732378
000350 30 5b 44 3e 15 93 eb bc 1b 8b e7 bd b4 2e 5b 3d
       0.1917541 -0.028756658 -0.11305829 0.053511336
000360 11 fd 28 bd 22 c4 3f be b6 50 e8 bc 1f 5e a6 3d
       -0.041256968 -0.18727162 -0.028358798 0.08123421
000370 7b 63 2c bd 9c ad 35 bd 35 c3 76 3d 22 86 35 3d
       -0.04208706 -0.04435502 0.060244758 0.044317372
000380 d1 9e 86 3c f7 35 c1 3d b1 f7 55 3d 33 35 24 3e
       0.016433151 0.09434121 0.05223817 0.16035919
000390 2f 72 b3 3d 76 20 af bb 1a ee 6a bc 34 5c 3d 3d
       0.08762013 -0.005344446 -0.014338994 0.04623051
0003a0 87 ea de 3b a9 e6 c8 3c 2e 04 0d 3e dc c7 eb bd
       0.00680286 0.02452405 0.13771126 -0.115127295
0003b0 3d c1 15 bb 08 0f 22 bd 51 af b6 bc 41 a6 2c be
       -0.0022850775 -0.039565116 -0.022300394 -0.16860296
0003c0 93 15 66 be 14 62 98 3d 73 2a 86 bd c2 2d 04 3e
       -0.22469167 0.07440582 -0.06551065 0.1290808
0003d0 ff 67 6b be e3 ef 8a 3b bd 36 30 3b 19 6d 35 3c
       -0.2298889 0.0042400225 0.0026888095 0.011073374
0003e0 e1 fd b2 3d 99 ef 07 bc c9 3f dd bd 3c 81 2e be
       0.0873983 -0.008296871 -0.10803182 -0.17041487
0003f0 88 17 64 3d 14 be 1b be f2 4a d7 3d be 6d 07 3d
       0.055686504 -0.15209228 0.105123416 0.033063643

gru.weight_ih f4 [192, 64]
000000 4e 4a a1 be 66 f2 26 be b3 f8 8c 3e af e4 1c 3e
       -0.31502002 -0.16303405 0.27533492 0.15321611
000010 b7 f0 9f 3c 40 e5 47 be 5f 59 f8 3d b2 26 ed 3d
       0.019523961 -0.19521046 0.12126421 0.11579646
000020 54 e6 06 3f 9b 3e 91 3d 99 39 03 be ce 61 40 3d
       0.526952 0.07092019 -0.1281494 0.046968274
000030 7b ca da bd 5b aa 86 3e c7 b9 6f 3c a5 73 32 be
       -0.10683151 0.26301846 0.014631695 -0.17426927
000040 4e 4b 12 be a2 f9 f7 3d 15 d9 cc be 16 35 bb bd
       -0.14286539 0.121081606 -0.4000937 -0.09140985
000050 47 06 e1 bd 70 e8 5a be 2e c7 af 3d 4f b7 27 3e
       -0.109875254 -0.2137773 0.085829124 0.1637852
000060 b9 5f 6c 3d be 71 c6 3d 80 28 d4 3d 39 23 5b be
       0.057708476 0.09689663 0.10359287 -0.21400155
000070 ab c2 91 be d4 a9 35 bc 85 2a 12 bd 4d 35 f6 3c
       -0.28468832 -0.011087853 -0.03568508 0.030054713
000080 0c da f9 be 32 c6 56 be 68 74 8d 3d 28 b3 01 3e
       -0.4879917 -0.20974043 0.06906968 0.12665999
000090 a0 a6 8c 3e c5 b5 8c bc c3 2e 0f bd 76 74 5f be
       0.27470875 -0.017176518 -0.034956705 -0.2182177
0000a0 25 9e d4 bd 5a c9 99 3e 85 d4 9b 3e d3 02 b3 bd
       -0.10381726 0.30036432 0.30435577 -0.08740773
0000b0 45 ba 45 be 97 f1 a2 bd 1a 10 2f 3e 8a 50 c5 3d
       -0.19309337 -0.07956236 0.17095986 0.09634502
0000c0 e9 21 8a 3d 6d 95 42 bd 9d d4 cc 3e 5f ee cc bb
       0.06744749 -0.047505785 0.4000596 -0.006254002
0000d0 d7 55 6c bd 59 59 25 be c3 f4 ac 3e 41 15 f1 3e
       -0.05769905 -0.16147365 0.33780488 0.47086528
0000e0 29 7f 54 3e 32 37 f7 3d c0 f0 0d be d2 c5 88 3e
       0.20751633 0.120710745 -0.1386137 0.26713425
0000f0 81 d2 ae bd c0 83 55 be ed a0 15 bd 29 50 8e 3d
       -0.08536244 -0.2085104 -0.036530424 0.06948883
000100 31 73 fb bc 24 56 9f 3d b2 63 3f 3d d5 7a c2 be
       -0.030694576 0.07780102 0.046725936 -0.37984338
000110 78 1d 49 3e 95 4d 2f 3d 12 0b 75 bd a7 2b a0 3b
       0.19640148 0.042798597 -0.05982501 0.0048880163
000120 bc ee ac 3d da 45 92 bd ab 50 2e 3e db 25 3e bb
       0.084439725 -0.071422294 0.1702296 -0.0029014263
000130 57 13 9c be e2 fc a4 bc bc 30 64 3c d8 e4 cc 3d
       -0.30483505 -0.020140115 0.013927635 0.10004586
000140 f9 96 13 3e a2 4b 03 3e 87 d6 be bd f9 81 a9 bd
       0.1441306 0.1282182 -0.093182616 -0.082767434
000150 0f 6b 82 bc 39 7f 52 be bc 56 23 be e6 44 a1 3c
       -0.01592019 -0.20556344 -0.15951055 0.019686174
000160 74 90 e8 bb 29 58 89 bc 59 6a a6 3d 65 90 04 3e
       -0.0070972983 -0.01676567 0.08125753 0.12945707
000170 08 36 57 bd b4 ec 08 bc 13 05 40 3e e8 4c c8 3d
       -0.052541763 -0.008357216 0.18751936 0.09780294
000180 8a 7e 7e be 14 44 52 bd 15 0c 12 be 91 13 8f bd
       -0.24852958 -0.051334456 -0.14262421 -0.06986154
000190 8d 08 23 bd 93 bf a2 be 39 63 a1 3d a7 00 d8 bd
       -0.039803077 -0.31786785 0.07880253 -0.105469994
0001a0 92 82 26 be 4c 97 64 3e ad f5 18 be 80 ac 23 3e
       -0.16260746 0.2232334 -0.14937468 0.15983772
0001b0 da db 12 3d 5f a9 57 3d 0f d5 01 3e 3c 54 cc 3d
       0.035854198 0.05265176 0.12678932 0.09977004
0001c0 28 d5 03 bd a2 ea c0 3e 59 cc 2e bd cd 1e db 3c
       -0.032185704 0.3767901 -0.04267535 0.026748085
0001d0 18 ed 4f 3e e6 bd a6 3d d8 0f a7 3d 6c cb 1e bd
       0.20305288 0.08141689 0.08157319 -0.038768217
0001e0 e3 8e 96 bd 42 71 9a be 09 8b b9 3d 31 ea d1 bd
       -0.07351472 -0.30164534 0.09059722 -0.102497466
0001f0 67 48 79 bd a2 55 4f bd 22 5d 8a bd 13 df 4e 3d
       -0.060860064 -0.050618775 -0.06756045 0.05050571
000200 b8 af 4f bd 2d 2b 3d 3e 0f 35 e8 bd 6f 81 98 bc
       -0.050704688 0.18473502 -0.11338245 -0.018616406
000210 1e dc 2d be 40 d7 cf bc 82 f2 78 bd 6c 5d 0a 3e
       -0.169785 -0.025371194 -0.06077815 0.135122
000220 00 14 e3 3d bb 0d 97 3a 50 fe fd 3d 0a 84 27 3d
       0.11087799 0.0011524478 0.12402022 0.040897407
000230 f4 08 26 bd b5 19 cf 3d 6d 06 8f 3e 72 1c 92 3d
       -0.040535882 0.10112325 0.2793459 0.07134332
000240 27 c1 17 bd 73 90 59 bd 96 d3 e6 bd 20 76 35 3e
       -0.03704944 -0.053116273 -0.112708256 0.17720842
000250 69 41 ed 3d 69 d3 70 3d 08 fc c7 3d 58 4a 49 be
       0.115847416 0.058795366 0.09764868 -0.19657266
000260 40 dc 6f 3e 83 52 33 3e 34 66 54 3d 26 77 0c be
       0.23423862 0.17511944 0.05185528 -0.13717327
000270 99 39 df bd 60 76 0b be d0 5e 5c 3e ca 52 e3 bd
       -0.10899658 -0.13619375 0.21520543 -0.11099775
000280 c9 a0 44 be 1a e7 ce be d9 fb 25 be e5 11 51 3e
       -0.1920196 -0.40410691 -0.16209354 0.20416982
000290 49 b5 d0 bc 14 ab 0b be 7e f1 b5 3e e5 71 ed 3c
       -0.025477068 -0.1363948 0.35535806 0.028984973
0002a0 92 26 6e be 29 07 cd 3e ac e7 77 be 3a 87 86 be
       -0.23256901 0.40044525 -0.2420947 -0.26275045
0002b0 f1 f4 13 bb 53 bd 32 3c 42 34 c7 bc 9b 9f 7c bd
       -0.0022576416 0.010909396 -0.02431691 -0.06167565
0002c0 bf 55 9b be 78 c3 3e bc d1 47 76 3d 6f 2a cd 3c
       -0.30338857 -0.011643283 0.060127083 0.025044648
0002d0 64 f3 11 3e dc 2c 28 be 1d ff 6d be b0 13 90 3e
       0.14253002 -0.16423362 -0.23241849 0.2814002
0002e0 98 97 96 bd 5b 4f 3f 3b f6 b7 ce 3d e1 31 2f 3e
       -0.07353133 0.0029191587 0.100936815 0.17108871
0002f0 57 f4 7d bd 2c 80 fb bd 39 74 43 bd d2 eb 94 bd
       -0.0620006 -0.12280306 -0.04771826 -0.07271542
000300 2b c3 16 3e 1b 8f ce 3d 78 e5 01 3e fb d5 c6 be
       0.14722888 0.10085889 0.12685192 -0.3883513
000310 a5 c6 79 3e 33 0f b4 bd b6 2d 8d be 00 34 7b bd
       0.24392183 -0.087919615 -0.27573937 -0.061328888
000320 82 72 63 bd 4e 0b 58 be 25 66 95 3d da 0d b6 bd
       -0.055529125 -0.21098062 0.07294873 -0.08889361
000330 75 0b 85 bc 4a d0 6d be 9c 9a fe be b2 9a 73 3e
       -0.016240815 -0.23223987 -0.49727333 0.2378948
000340 40 de ca bc 7f 2b 33 bd ca fc ff 3c 84 63 41 be
       -0.02476418 -0.043742653 0.031248469 -0.18885618
000350 b1 65 a5 3d b2 c4 f0 bc a6 1a 83 be 21 24 1c 3e
       0.08076037 -0.029390667 -0.2560627 0.15248157
000360 0d d9 78 bd 3b 99 36 bc c2 a9 2e be b0 70 bd 3e
       -0.06075387 -0.011144931 -0.17056945 0.37000036
000370 c5 60 2c bc 1a d4 1c be b3 2c 5d be b1 f4 fe bd
       -0.0105211185 -0.15315285 -0.21599083 -0.12449015
000380 eb e9 d9 3d d6 71 ac 3d 95 e0 e6 bd 31 cb 4e be
       0.106403194 0.0842015 -0.112733044 -0.20194699
000390 8f 90 d2 bd a6 28 09 be be 18 86 bd e9 50 8e 3d
       -0.102814786 -0.13394412 -0.06547688 0.06949026
0003a0 4a d1 c4 3d d5 09 21 3e 19 13 10 3d 15 cb a5 3c
       0.09610231 0.15726407 0.035174463 0.020238439
0003b0 6d 64 84 bd c0 78 b4 39 19 44 9e 3e c2 d6 71 3d
       -0.06464467 0.0003442224 0.3091133 0.0590427
0003c0 1e de 51 3e 39 0d ca bd 9a 66 a2 bd 84 50 b4 be
       0.20494887 -0.09865803 -0.07929726 -0.3521768
0003d0 f7 1b 47 3c 7d 2a 49 3d 12 08 8c 3c b0 e4 8d 3d
       0.012152663 0.049112786 0.017093692 0.06928384
0003e0 c5 23 65 3e 8a bd a3 be 6d 73 62 bb 75 32 91 be
       0.22376926 -0.31980544 -0.0034553662 -0.28358808
0003f0 d6 91 94 3d 06 3e 52 3e ef ac 3b 3e ff 6b 5d 3e
       0.072543785 0.20531473 0.18327688 0.21623228
