model_checkpoints/room_diverse_models/latest/latest_net_Decoder.pth (torch, 300129 bytes, 33 tensors)

f_before.0.weight f4 [64, 97]
000000 78 69 13 be ef 65 4f bd b6 a5 c7 bf dd d5 e1 bd
       -0.14395702 -0.05063432 -1.5597446 -0.11027119
000010 b9 ea b1 3c 53 85 d3 bf 0e 7a 72 3e 19 41 4d 3e
       0.02171837 -1.6525062 0.23679373 0.20044364
000020 3b d8 63 3e 33 bd 86 be a0 9c 08 bc 1f aa e6 bf
       0.22250454 -0.26316223 -0.008338124 -1.8020667
000030 5f 91 32 3e 19 a6 52 3e 96 cf 25 3e 66 de 12 be
       0.17438267 0.20571174 0.16192469 -0.14342651
000040 f6 44 ee 3d 79 41 c7 bf 19 aa 5e be 5f 28 51 3e
       0.11634247 -1.5566856 -0.21744575 0.20425557
000050 0c 55 6f 3d 42 7f 62 3c 44 37 b1 bc b2 a3 a8 bf
       0.058430716 0.013824286 -0.021632798 -1.3174956
000060 89 93 93 3d fb 0d d6 bd ae 6b 11 3e 02 42 86 3c
       0.072058745 -0.10451885 0.14201233 0.016388897
000070 99 a1 86 3c 22 76 65 bf f0 37 aa bc 92 0a a0 3c
       0.016434478 -0.8963338 -0.020778626 0.01953629
000080 70 a1 42 bf fe 29 19 3e c5 2a bf bd 4b 9e 63 3c
       -0.76027584 0.14957425 -0.093343295 0.01389272
000090 56 83 ed 3c b6 da 7d 3d 0d 75 82 bb ea fe 54 3e
       0.02899329 0.061976157 -0.0039812387 0.20800367
0000a0 d1 6c af 3d 1c 2a ff bd 0e d7 83 3d 80 3b 6e 3d
       0.08565677 -0.124592036 0.06437503 0.058162212
0000b0 36 17 d4 3d 8b 36 18 bd 5d d4 02 3e 2a 0a ae bc
       0.1035599 -0.03716139 0.12776323 -0.021245081
0000c0 9c b2 0a be a3 70 d1 bd 5b 78 60 3d ec 76 74 3d
       -0.13544697 -0.10226562 0.05480228 0.059683725
0000d0 33 72 f6 3d 7b 8c 20 bd a5 2e bd bd 4b bc e3 3d
       0.120335005 -0.039196473 -0.09237412 0.111198984
0000e0 1c c3 b2 3c a4 da 20 3c 8b 55 89 3c 78 c4 0c bd
       0.021821551 0.009817753 0.016764423 -0.034367055
0000f0 d3 c6 28 bd cb 0b 00 bd 0c c6 88 3d 6c cf 4e bd
       -0.04120524 -0.031261247 0.066783994 -0.05049078
000100 da 56 11 bc e9 a2 02 bd 28 7f 1e bd 0a 98 d8 bd
       -0.008870805 -0.031893644 -0.038695484 -0.10575874
000110 14 72 09 3e cc 26 71 3d 0c d1 67 bd 99 e8 22 be
       0.13422424 0.05887489 -0.056595847 -0.15909041
000120 6e 95 9a 3d 06 83 a6 bb b2 0e f5 bc 59 dd 39 bd
       0.07548033 -0.005081537 -0.029914234 -0.04537711
000130 20 7e 63 3d 0d 0d 92 3d 2d 94 eb bc 52 97 b1 bd
       0.055540204 0.071313955 -0.02875718 -0.0867144
000140 93 f8 de bb 16 43 cd 3c 71 6f aa bc 7d b3 18 be
       -0.0068045347 0.025056403 -0.020805093 -0.1491222
000150 6e 5e 8a bd f3 4e 2d bd cd 2a fe bc d8 8e 08 be
       -0.06756292 -0.04231162 -0.031026268 -0.1333574
000160 ad 1b 38 be 98 c1 d6 bc d8 bb d6 bd 3c 4c 35 3d
       -0.17979307 -0.02621536 -0.10485047 0.044262156
000170 6e a5 df bd d7 d0 e9 3c 26 e4 c3 3c 52 7c 95 3d
       -0.10920225 0.028541965 0.0239125 0.07299103
000180 b2 ae 6c bd 7f 95 55 be d8 57 98 be 58 1b 06 be
       -0.05778379 -0.2085781 -0.2975452 -0.13096368
000190 ff 6a 68 be e0 fa c6 bc 80 93 cb bd 8f 0a ff bd
       -0.22697066 -0.024289548 -0.09940243 -0.12453186
0001a0 d1 34 50 bb a0 41 07 3e 0c cb 8b bb ba 74 64 be
       -0.0031769762 0.13208628 -0.0042661484 -0.22310153
0001b0 27 0d 09 be 31 0f 28 be 71 0e 40 3e bc 0f 5f be
       -0.13383923 -0.16412045 0.18755509 -0.21783346
0001c0 3d e4 a3 bd 63 aa bb bb aa cd bc 3d 3d 2b 34 bf
       -0.08002517 -0.005727099 0.09218915 -0.70378476
0001d0 ab 29 49 be e8 ae 1c 3e 8f 26 05 3d 65 0d 19 bd
       -0.19644801 0.15301096 0.032507475 -0.03736629
0001e0 49 c6 44 bd 7a 23 38 bd ab 06 d2 3d f9 ff 9a be
       -0.048040662 -0.044955708 0.10255178 -0.30273417
0001f0 48 13 b1 3c a7 82 8f 3d bd f8 b9 3c 30 d0 e3 3b
       0.02161564 0.07007342 0.022701615 0.006952308
000200 9f 87 72 3c 45 dd d3 ba ea 47 6e be 3f 0a 83 3e
       0.014802842 -0.0016163966 -0.2326962 0.25593755
000210 dc a5 89 be 51 54 9c bc 07 aa b3 be 92 03 88 3d
       -0.26884353 -0.019083174 -0.35090658 0.06641306
000220 c8 0e 0e bf d7 bf fa bd 83 2b e0 3d c0 4c 96 bd
       -0.55491304 -0.12243622 0.10945799 -0.07338858
000230 58 c9 73 3d 19 8d 05 3e 2e 1f 9e bd 47 8d 14 3e
       0.05951819 0.13042106 -0.07720791 0.14507018
000240 b0 16 bf ba a1 e6 18 be b4 a4 30 3e 7c 6b 0c bd
       -0.0014578905 -0.14931728 0.1725033 -0.034282193
000250 58 1f f0 3c 31 b8 65 bd c7 2c 24 3e 5e e5 a8 3d
       0.02931182 -0.05608386 0.16032706 0.08246873
000260 fd 8b fa be 6b 73 12 bd 53 0b 4a 3a 70 e9 e8 bd
       -0.48934928 -0.035754602 0.0007707376 -0.1137265
000270 2e 1b f3 3d 73 f2 1e 3e b1 65 c0 bd 16 7f 32 3e
       0.118704185 0.15522175 -0.09394396 0.17431292
000280 a8 b4 8e 3d 45 ec 9b 3d b4 bd 46 3e 6d 3f 29 3e
       0.06968051 0.07613424 0.19408303 0.16528101
000290 78 7d 3c be 23 eb cc 3a 3c 08 79 be df fa 37 3d
       -0.18407238 0.0015634041 -0.24319547 0.044916984
0002a0 98 35 be 3d 9d 26 8f bb bc 59 b2 3d 05 e4 42 3e
       0.09287566 -0.0043686167 0.08708522 0.19032295
0002b0 0c e9 84 3d 97 0b 70 bc ee 78 50 3e 94 6d 6d bd
       0.06489763 -0.014651201 0.20358631 -0.05796583
0002c0 2e 2b 98 3c 01 8a 25 bd 86 af d2 bc 6c 6a 9d 3e
       0.018575277 -0.040414814 -0.025718462 0.30745256
0002d0 8f 5b b7 bb 8e de 08 be 67 1c 04 3d 19 1b d5 3e
       -0.0055956314 -0.13366148 0.03225365 0.41622236
0002e0 50 b0 44 be 5a 66 91 3d bf f7 09 be c1 1c db bd
       -0.19207883 0.070996 -0.13473414 -0.10698844
0002f0 7f ef 10 3e d2 8b d5 bc 47 b5 5a 3e 16 1d 54 3a
       0.1415386 -0.026067648 0.21358214 0.00080914923
000300 9c 58 3d 3e ae 47 9e 3b cf 2a 03 3d ea 22 13 3e
       0.18490833 0.004830322 0.032023247 0.14368787
000310 25 c8 4f 3e 94 3f 01 3e d5 04 87 3e e7 f8 cd 3e
       0.20291193 0.1262191 0.26370874 0.4022896
000320 d6 3c b9 3b 95 44 b6 bc 07 38 e4 bc f7 fe 55 3d
       0.005653004 -0.0222495 -0.027858747 0.052245107
000330 e4 b1 81 3e 39 a7 3d 3e 3a 83 d4 3c bd c3 8e bc
       0.25331032 0.18520822 0.02594148 -0.01742732
000340 b5 5c c5 bb 68 ff 00 3e a6 c3 09 3e c2 89 c5 3d
       -0.0060230144 0.1259743 0.1345354 0.09645416
000350 41 e0 9c 3e ba bc bf 3e c9 41 13 3e ac 70 a5 bd
       0.30639842 0.37448674 0.14380564 -0.08078131
000360 4d 75 78 3d 34 9b 94 3e f0 d3 e5 3c c4 8d 97 3e
       0.06065874 0.2902466 0.028055161 0.29600346
000370 de 23 c0 3c 74 b0 e0 bb dd f1 8b 3d bb d1 4b be
       0.023454603 -0.0068569724 0.06833241 -0.19904225
000380 b4 15 60 bc f5 fd 21 3e 53 10 18 3e a0 e5 f2 bd
       -0.013677049 0.15819533 0.14849977 -0.11860204
000390 c0 b6 92 be 55 99 7c bd 22 ba 23 3e 41 c3 b6 3c
       -0.28655052 -0.061669666 0.15988973 0.022309901
0003a0 1f 15 89 3e 6e 04 05 3e 07 f3 c4 bd 81 29 2a bc
       0.26773927 0.12989971 -0.09616666 -0.010385872
0003b0 59 17 14 3c b7 24 ed bc bd 68 7e bd 28 40 8b be
       0.00903877 -0.028948171 -0.062111605 -0.27197385
0003c0 17 60 c2 bb f7 40 19 be 05 48 2a 3e eb 55 99 bd
       -0.005931865 -0.14966188 0.16629036 -0.07487091
0003d0 c8 1c 42 3e 99 01 2a bd 59 61 07 be 9f 52 3e be
       0.18956292 -0.04150543 -0.13220729 -0.18586205
0003e0 13 b2 ba 3c b9 0a f8 3e a6 5c 34 3e 3d af ea 3c
       0.02278999 0.4844568 0.17613468 0.028648013
0003f0 9b d7 bb 3d c9 69 b8 3d c0 10 b4 3e d6 01 2a 3e
       0.09171983 0.09004552 0.3516903 0.16602263

f_before.0.bias f4 [64]
000000 67 29 5f 3e 26 86 06 bd 77 24 b5 3b 8d 5a b8 3d
       0.21793137 -0.032842778 0.0055280286 0.09001646
000010 6a 15 0f 3d 34 48 1e 3d 5a d1 f4 3c b5 eb 4b bc
       0.03493253 0.038643077 0.029884983 -0.012446334
000020 c5 9a a0 3d cc 57 fc 3d 53 9e 36 3d 3a 72 9c bd
       0.0784202 0.123214334 0.044584583 -0.076389745
000030 cb 52 95 bb 04 7f 85 3d 64 8c a4 3d 6b 78 b6 3d
       -0.004556989 0.06518367 0.0803459 0.08909687
000040 c3 62 67 3d dd fa 70 3d 3f 75 a8 3c f1 cb 23 bd
       0.05649067 0.058832992 0.02056372 -0.039989416
000050 91 f3 1f 3e 6b a9 7c 3d e3 b9 f0 bd e5 37 85 3d
       0.15620257 0.061685007 -0.11754205 0.06504802
000060 88 b2 71 3c 12 c6 23 3c 76 f0 50 bd 56 91 46 3c
       0.014752038 0.009995954 -0.05101057 0.012119612
000070 9a 4b 1b bc fb aa c8 bd 56 63 bd 3b 22 12 a8 bc
       -0.009478474 -0.09798237 0.005779664 -0.020516459
000080 f3 01 89 3d fc 92 de bc da f9 39 bd 3d e8 0d 3c
       0.06689825 -0.027169697 -0.045404293 0.008661327
000090 d4 6d 05 3c 03 1f a7 bd ac 3c ef 3d 38 55 4b 3d
       0.008143861 -0.08160212 0.11681494 0.049641818
0000a0 73 89 87 3d 81 f8 dd 3c 87 04 89 3c 02 91 8e bd
       0.06618013 0.027096035 0.016725792 -0.06961252
0000b0 87 85 45 bd ea 67 c2 bd b0 c9 5c 3d 55 bd 44 bd
       -0.048223045 -0.09492476 0.05390328 -0.048032124
0000c0 35 a8 e1 3c 04 ef 48 3e 8d ce b5 3d ea d0 95 3c
       0.027546028 0.19622427 0.08877287 0.018288095
0000d0 bd 91 87 bd 7f 73 75 3d dc 7d d4 3c 62 93 8e 3d
       -0.06619594 0.0599246 0.02593892 0.06961705
0000e0 aa 31 bf 3d fe c3 86 bd 07 eb 69 3d 6a 31 0e 3d
       0.093356445 -0.06580351 0.057108905 0.034715094
0000f0 b3 a7 8b bd 1b d5 8e 3d 0a 33 c8 3d 5c d8 f2 3b
       -0.068190955 0.069742404 0.0977536 0.007411046

f_before.2.weight f4 [64, 64]
000000 6d 87 c4 3d fc 87 de 3d d6 ca 58 3d 5e 9b 5f 3d
       0.09596143 0.10865781 0.052927814 0.05459153
000010 30 7b 07 be 1a c8 1b 3e 2d 5a 23 3e e4 07 cc 3d
       -0.13230586 0.15213051 0.15952368 0.099624425
000020 33 1f 01 be 6c f0 ca 3e 8d 70 d7 be ae 41 92 be
       -0.12609558 0.39636552 -0.42078057 -0.28565735
000030 42 22 24 3b a4 ce 01 3e 38 8c 61 bd 1d 7d 69 3e
       0.0025044833 0.12676483 -0.055065364 0.22801633
000040 e1 20 0d be 8a b9 62 3d 5d d6 88 bd 1b 03 d6 bd
       -0.13782074 0.055352725 -0.066815116 -0.10449811
000050 5f f2 a2 3e a0 0d 82 bd 04 65 c3 be e5 c8 25 3e
       0.3182554 -0.06350255 -0.38163006 0.16189916
000060 63 64 2a bd c4 18 84 3e 69 03 f4 be fc eb 81 3e
       -0.041599642 0.25800145 -0.47658852 0.25375354
000070 94 e0 6c bc 87 4c 14 3e f9 5b ea bd 02 0b 9a bd
       -0.0144578405 0.14482318 -0.11443324 -0.07521631
000080 16 01 8f 3d 73 b9 7e be c6 2d 63 3e 91 3c 34 3b
       0.06982629 -0.24875431 0.2218543 0.002750192
000090 66 a8 e1 be 9a 63 a7 3d 6a d1 78 be c0 3d 8a 3d
       -0.4407379 0.08173294 -0.24298635 0.06750059
0000a0 93 c8 47 3e 3e e9 97 bd 36 be 39 3d 5b 18 a2 bc
       0.19510107 -0.07417534 0.045347415 -0.019787004
0000b0 b0 31 00 bf 55 6c 79 be 75 39 0c be 8b 42 f1 3e
       -0.5007582 -0.24357732 -0.13693793 0.4712108
0000c0 68 ba cd bd 0c f3 95 3d 36 8e b6 bd c0 06 55 3e
       -0.1004532 0.07321748 -0.08913843 0.20803356
0000d0 de e8 55 3e de 4f 05 3f 38 bb f4 3c ad 81 3c 3e
       0.20889613 0.5207499 0.02987443 0.18408842
0000e0 ed 82 57 be 01 ff 48 be 0c e4 32 3e be 19 11 3d
       -0.21046038 -0.19628526 0.17469805 0.03542494
0000f0 f9 7f 24 3e 0e 3a 3b bd 39 63 16 bd 54 ee 74 be
       0.16064443 -0.045709662 -0.03671572 -0.2391904
000100 a8 74 2d be 5e f5 1b 3e 72 81 af bb 23 2c c2 3d
       -0.16939032 0.15230319 -0.0053560073 0.09481075
000110 be 52 e7 3e ea 31 bd be c5 06 dc be b5 d2 f0 3d
       0.45180315 -0.36952144 -0.42973915 0.11758939
000120 13 fe 0b be 4e a8 0f 3d 99 bf 33 be 18 91 fb 3c
       -0.1367114 0.035072617 -0.17553557 0.030708835
000130 67 d3 9a 3e 70 b4 53 be 20 50 33 3e b6 f3 d2 3e
       0.30239412 -0.206743 0.17511034 0.41201562
000140 31 3d 1b 3f 97 b2 98 bd a2 13 be be 24 11 9e 3d
       0.60640246 -0.07455938 -0.37124354 0.07718113
000150 31 5a a4 ba 7a 46 2f bf 73 db 07 bd c4 7c 84 3d
       -0.0012539086 -0.68466914 -0.033168267 0.0646911
000160 d6 6e fd 3b 25 1b c9 3d 06 80 17 3e 88 cd cf bd
       0.00773416 0.098196305 0.14794931 -0.10146624
000170 0a ca db bd 3e 86 b0 3e 9f b8 46 bd 35 bc 5d 3d
       -0.10731895 0.3447742 -0.048515912 0.054134566
000180 e1 8b 2d 3e 18 ef 95 be 0f 41 4b bc ef 34 2c be
       0.16947891 -0.29283977 -0.012405648 -0.16817068
000190 a9 94 6b be 86 8a 75 be 40 3c 1c bf e8 57 1b bf
       -0.23005928 -0.23978624 -0.61029434 -0.6068101
0001a0 94 c2 35 be 1a fe 3c 3e e5 66 c2 3e b9 c7 7d 3e
       -0.17750007 0.18456307 0.37969127 0.2478322
0001b0 1f 5d 32 3d e5 53 32 bc 0f 0f 91 3e da 60 90 be
       0.04354584 -0.01088426 0.283318 -0.28198892
0001c0 a9 46 5d be 9f 36 c9 3e c5 e9 44 be 20 cb f3 3e
       -0.21608986 0.39299485 -0.19229801 0.4761591
0001d0 48 1e 79 3e ff 54 e5 3d cf 57 33 be 4f 12 b2 3e
       0.24327958 0.11197852 -0.17513965 0.34779593
0001e0 2a cc 3b bd 02 1a ea 3d 48 7c d6 be 2a c8 63 be
       -0.045849003 0.11430742 -0.41891694 -0.22244325
0001f0 c6 b7 93 3d 26 bb 4b 3d 2f 5e 44 3e 83 5a d6 be
       0.072127864 0.049739026 0.19176553 -0.4186593
000200 e2 a3 a8 bd ce f6 e3 3d 5f a7 20 3e 49 7d ac 3c
       -0.08234383 0.11131059 0.15688847 0.021055834
000210 85 bd 36 bd 3b bc f5 3d b6 51 83 3c bd bc 84 3e
       -0.044614334 0.11998793 0.016030174 0.25925246
000220 fb dc 0f be d2 e6 01 ba 10 3d eb 3d e5 e4 e3 3e
       -0.14049141 -0.00049553544 0.11486256 0.4451057
000230 52 50 3f be 31 3f 0b 3c fc a6 da 3c fc 11 a7 bc
       -0.18682984 0.008498953 0.026690952 -0.020394318
000240 62 bf 2a be 3a 28 76 3d 50 75 2e 3e 43 ec 98 bd
       -0.16674569 0.060096957 0.17036939 -0.07466938
000250 13 08 fe 3d 7d 6f de bd 28 86 92 bd 6e 41 79 bd
       0.12403884 -0.108611085 -0.071544945 -0.060853414
000260 d0 bb 9e 3c 44 47 e6 bd 31 76 71 3e 36 0d ab bd
       0.019376665 -0.112440616 0.23580243 -0.08352129
000270 30 48 50 3e b5 1f 9c bc 1a f4 8c 3d f2 71 80 be
       0.20340037 -0.019058088 0.06882496 -0.25086933
000280 be e4 ad bc 9c f6 4c bd 78 f1 90 3e be ee 3a 3e
       -0.021227237 -0.050039873 0.28309226 0.18255135
000290 2f be 0d 3e 0a 5d 1c bd 73 da a7 3e 3a 6f 97 3e
       0.1384208 -0.038174666 0.3278385 0.29577047
0002a0 43 07 af be 1f 6e 16 3d 26 06 f1 bd ff c6 2e 3e
       -0.34185228 0.036726113 -0.11768751 0.17068098
0002b0 74 e6 49 3e 39 d4 9d bd 8d a8 cc be 8e a5 df bd
       0.19716817 -0.07706494 -0.39972344 -0.10920249
0002c0 ff b3 99 bd 61 bd 75 be 65 e7 60 bd 9c ea f6 bd
       -0.07505035 -0.23998024 -0.054908175 -0.12056467
0002d0 e0 c0 81 3d 30 c5 25 bc 58 02 8a 3d a8 e1 83 3d
       0.06335616 -0.010117814 0.06738728 0.06439525
0002e0 d2 f5 19 be 74 09 8f bd 73 aa 1d 3e f1 63 00 bf
       -0.1503518 -0.06984225 0.15397052 -0.501525
0002f0 39 94 41 3e 53 f6 ca 3d 25 fb 1e 3e 24 af b3 3d
       0.18904199 0.09910264 0.15525492 0.0877364
000300 9e 3a bf 3e 2f 0f 72 3d ac 42 40 be 9c eb 30 3d
       0.3734941 0.05909651 -0.18775433 0.043193445
000310 b2 ec 15 be 3a a2 b7 bd fd 3a 20 be f0 09 29 bd
       -0.14641073 -0.08966489 -0.15647502 -0.041269243
000320 62 ab 47 3d 5b 99 3e be 39 28 43 3b 3e e1 a0 3d
       0.048747428 -0.18613188 0.0029778613 0.078554615
000330 4f d4 3b bd 1b 24 98 3e bd 4a 49 bd 96 8a eb be
       -0.04585677 0.29715046 -0.04914354 -0.4600417
000340 54 18 8e be 2c 37 c4 3e 00 10 e0 bd 31 89 0e be
       -0.27752936 0.38323343 -0.10940552 -0.13919522
000350 03 18 23 3c d4 9e 3d 3e a6 9e 27 3e ac 14 be 3e
       0.009954455 0.1851762 0.16369113 0.37125146
000360 24 5f bd bd 91 a2 43 be f4 9c 48 3d 29 9b 3a 3b
       -0.09246662 -0.19104983 0.048977807 0.002847383
000370 21 72 7d 3e 43 20 8d be 32 07 12 3d 17 84 04 be
       0.24750568 -0.27563676 0.035651393 -0.12941013
000380 5c aa be bd 72 e6 6c 3e e4 14 c2 be da 82 6b be
       -0.09309837 0.23134783 -0.37906563 -0.22999135
000390 60 0b 80 3e 03 b6 5f be 86 47 97 3e b2 04 63 3e
       0.25008678 -0.21846776 0.29546756 0.2216976
0003a0 02 13 b1 3e c4 d8 aa 3d 8f a0 e9 3e 0a cc 18 3d
       0.34584814 0.08342126 0.4563031 0.03730396
0003b0 d5 d5 b0 bd c4 26 4c 3e b8 03 ce bd 8e 43 82 ba
       -0.08634535 0.19936663 -0.10059303 -0.0009938346
0003c0 c0 31 91 3d 17 87 2e be eb 24 1d 3e f6 ce 2c 3f
       0.07089567 -0.1704372 0.15346114 0.675033
0003d0 96 e5 ef bd c2 d8 21 3e 8d 22 f0 bc 80 ab 49 3d
       -0.11713712 0.15805343 -0.02931335 0.04923582
0003e0 15 8c 7b 3d 38 f7 05 3e 73 e0 1c 3e c2 c9 3b bd
       0.06141289 0.13082588 0.15319996 -0.045846708
0003f0 60 5e 4e 3e 4e 0a a6 be 3f ef 05 3e 67 b5 2a 3e
       0.20153189 -0.32429737 0.13079546 0.16670762

f_before.2.bias f4 [64]
000000 27 22 fe bd 56 c5 4b bd 38 e7 3b bd 29 39 76 bd
       -0.12408858 -0.04974874 -0.045874804 -0.060113106
000010 76 c9 8f 3d 21 d3 e3 3d 66 2f 41 bd d8 fe 9a bd
       0.070208475 0.11124254 -0.047164343 -0.07568139
000020 c0 0c 09 bd 16 fa 5d 3a f1 45 c1 bd 39 bb 78 3d
       -0.033459425 0.00084677467 -0.094371684 0.060725424
000030 47 e5 7a 3c 7b 0c a2 bd c4 c9 82 3d 96 10 85 3d
       0.015313453 -0.07912537 0.0638614 0.06497304
000040 1a a1 8f 3c 79 5c a0 bc e2 db 98 3c b2 b6 06 3e
       0.017532874 -0.019575344 0.018659536 0.1315563
000050 62 2c 32 bd 16 21 23 3c 63 db f7 3d 0b f0 84 3d
       -0.043499358 0.009956619 0.121023916 0.06491097
000060 b6 e9 10 3d 0f b7 b5 bd 64 03 29 be b6 b2 e7 bc
       0.035379134 -0.08872806 -0.165052 -0.028283458
000070 dc 92 15 3e 84 6a e2 bc 66 1a 12 bd 25 4a 8d bd
       0.14606804 -0.027638681 -0.035669707 -0.068989076
000080 0b 1e 54 be f3 66 b5 3c 7e 15 8f bd 94 97 0c be
       -0.20714585 0.022143817 -0.06986521 -0.13729697
000090 ad 0f 07 bd e1 e6 3e bd 6a 86 b0 bd 8c 50 9b bd
       -0.032973934 -0.046606902 -0.086193874 -0.075837225
0000a0 2f 1c 2b be a3 7b 85 3b 1c 74 9b 3d 87 cc f0 3c
       -0.1670997 0.0040735765 0.075905055 0.029394401
0000b0 a6 53 76 3c 89 db a6 bd fe 55 1d 3e 48 8a 8b bd
       0.015034592 -0.08147342 0.15364835 -0.068134844
0000c0 fb 10 05 bd 56 c0 85 3d f5 20 32 be 96 95 c1 bc
       -0.032486897 0.06530826 -0.17395385 -0.023630898
0000d0 c5 cd f3 bd 60 00 0a bd a3 5b 4c 3d 28 c2 29 bd
       -0.11904482 -0.033691764 0.04989208 -0.041444927
0000e0 ed 14 0a be 0c ff 84 bd 24 79 cd 3d 9b 02 84 3d
       -0.13484545 -0.06493959 0.10032871 0.064458095
0000f0 ee 30 f3 3a 70 1c a5 3d cd a6 df bd 38 36 25 3e
       0.0018554011 0.08062065 -0.109204866 0.16133964

f_before.4.weight f4 [64, 64]
000000 47 e2 fb 3d ca 1d 0f bf 72 81 d6 bd 8f 8b cd 3c
       0.12299018 -0.5590483 -0.104739085 0.02509096
000010 ff e6 b4 be 17 b7 3e 3d 16 64 60 3d 75 c8 20 be
       -0.35332486 0.046561327 0.05478295 -0.15701468
000020 83 8b 38 3e b9 d3 38 3f a4 32 47 be dd b4 18 be
       0.1802197 0.72198063 -0.19452912 -0.14912744
000030 73 5d 3c 3e 9c 33 37 3e c5 13 cc 3d 9f df 44 be
       0.18395023 0.17890781 0.09964708 -0.1922593
000040 63 15 eb bc 0e 97 50 3e b1 8c 1a 3e 7b dc a3 3c
       -0.028696721 0.20370123 0.15092732 0.020002594
000050 86 eb a5 3e 78 4e 61 be 7a fd 37 3e e7 3d b4 bd
       0.32406253 -0.2200259 0.17967787 -0.088008694
000060 26 1e e1 be a0 16 d9 bd 6d 33 7d be 5f 8a 48 3e
       -0.43968314 -0.106000185 -0.24726649 0.19584034
000070 e3 85 a8 3d 15 b4 ac 3d 3b 32 23 be 35 54 8e be
       0.08228662 0.084327854 -0.1593713 -0.2779862
000080 61 5c ca bd dd fe 3d 3d ad 21 05 3e cf fa 0c be
       -0.09880901 0.046385635 0.13001128 -0.13767551
000090 36 46 90 3e 40 aa 7d 3d 12 e2 82 bd a9 b4 8f bc
       0.28178567 0.06192994 -0.06390776 -0.0175422
0000a0 f9 3e b8 bc 01 fc be 3e d9 83 16 3e 06 4d c8 bc
       -0.022490965 0.3730164 0.14698733 -0.02445079
0000b0 da 02 5f 3b f5 0b e1 3d 32 ba 79 3c 82 e5 b1 3e
       0.00340288 0.10988609 0.015242146 0.34745413
0000c0 78 11 27 bd 83 ee a3 3e f6 e0 c7 bd 7a 0c 0d bf
       -0.040788144 0.32017908 -0.09759705 -0.5509716
0000d0 11 e2 0c be 11 be af 3e 14 e7 82 be 89 be 44 3e
       -0.13758112 0.34324697 -0.25566924 0.19213308
0000e0 88 49 ba 3e 98 e8 88 be 84 08 91 be 92 4d a4 b9
       0.36384225 -0.26739955 -0.2832681 -0.00031338312
0000f0 aa a6 9b 3e 80 16 86 be f5 d6 b1 3e 65 fd 2c bd
       0.30400592 -0.2618904 0.34734312 -0.042233843
000100 a6 12 a5 bd d1 b2 16 3e 7d 83 28 bd ed 84 13 3e
       -0.080601975 0.1471665 -0.041141022 0.14406176
000110 0e 14 ba 3d 2c 0e 4a 3d 5f f1 fd be f9 5c ab be
       0.090858564 0.04932992 -0.49598214 -0.3346937
000120 5f 54 32 3e 98 5d ad 3d a0 8c fb bd 4c 0e bd 3c
       0.17414998 0.08465117 -0.122826815 0.023078106
000130 e4 18 4e 3d 5e 22 81 bd 7a d7 e9 3d ac 29 e7 bd
       0.050316706 -0.06305383 0.11418052 -0.11287245
000140 da 54 bf 3e 7d eb c7 bc e7 c4 af bb fe b0 c3 bd
       0.37369424 -0.024404282 -0.0053640488 -0.09555243
000150 15 92 83 bd 09 52 a5 be 02 f1 7f be 90 8c ce bd
       -0.06424347 -0.3228915 -0.24994281 -0.10085404
000160 78 1c f4 bb 62 9c 8d 3e 90 b7 3c 3e 65 08 73 bd
       -0.007449683 0.27658373 0.18429399 -0.059334178
000170 16 12 3e bd 9f 8e 1e bc 8f 7c 6d be f2 5b 80 bd
       -0.046403967 -0.009677558 -0.23192047 -0.06267537
000180 36 1e 5a be 6c ad 32 be 42 44 5b b9 b9 84 21 3e
       -0.21300587 -0.17448968 -0.00020910896 0.15773286
000190 b5 b3 64 be a2 25 5d 3d 01 a4 02 be fd 31 1e 3d
       -0.22334178 0.053990968 -0.12757875 0.03862189
0001a0 46 ed 83 3e b5 44 7f be 8d d1 31 3e 28 ba 06 3e
       0.25766963 -0.24928553 0.17365094 0.1315695
0001b0 92 97 1b bf eb 78 cb bd 9e 21 78 be c1 45 50 3e
       -0.6077815 -0.09935173 -0.24231574 0.20339109
0001c0 72 0f 42 3e 43 b0 bd be cd e1 fe 3d 83 72 78 bd
       0.18951204 -0.3704854 0.12445412 -0.060656082
0001d0 75 f8 35 3e f4 d9 ed bd d4 a4 5b be 4d f4 b4 3d
       0.1777056 -0.11613837 -0.21449596 0.08835659
0001e0 e3 5e c3 3e f4 bb b3 3e bd ac 50 3c fa 5a 0f be
       0.3815833 0.35104334 0.0127364965 -0.13999549
0001f0 86 68 f3 3e cc db 63 3d 6c 32 44 be bf 55 44 be
       0.47540683 0.055629537 -0.1915986 -0.19173335
000200 0a 14 93 3e 7a d0 78 be d2 ed 02 3e 84 78 da be
       0.28726226 -0.24298277 0.12786034 -0.4267007
000210 f3 d6 da bd a9 e6 52 3d 1d 6e 27 be 50 2e cb 3d
       -0.106855296 0.051489506 -0.16350599 0.09920943
000220 f4 dc b4 3e 65 40 03 be da 24 9a 3c 44 fb 19 3e
       0.35324824 -0.12817533 0.0188164 0.15037256
000230 d2 14 31 3e 80 9e 42 3e 65 ee 68 3e fc e5 9e bd
       0.17293099 0.19005775 0.2274719 -0.0775871
000240 c7 bc 45 bd a6 cf ee bd e6 d5 73 3d c2 d6 88 be
       -0.048275735 -0.116606995 0.05953016 -0.26726347
000250 ef 4c a4 3c 9a 3a 52 3e e8 49 2a bf b9 09 55 be
       0.020056216 0.20530167 -0.6651902 -0.2080449
000260 e2 01 a5 bd 6a 00 27 be 2d 4b 94 3c 91 02 8a be
       -0.08057 -0.16308752 0.018102253 -0.26955083
000270 59 0f a7 be 87 4b be be 73 e3 6f bd a8 ee bf 3d
       -0.32628897 -0.37166998 -0.05856652 0.09371692
000280 2d ab 29 be ad 27 3b 3d dd 72 9a 3e e2 25 5b 3e
       -0.16569205 0.045692135 0.3016576 0.2140117
000290 e2 9f b7 3d 65 bf 1f 3e d3 6b 74 3d 21 7b c3 bc
       0.08966042 0.15600355 0.05967314 -0.023862423
0002a0 e3 6d 29 3e af 70 b4 3e 0a d7 e6 3e 57 c4 ae bd
       0.16545825 0.3524222 0.45085937 -0.085335426
0002b0 0c 53 dd be 2b 75 cc 3e 44 a2 93 be 61 60 e7 bd
       -0.43227422 0.39933142 -0.28834736 -0.1129768
0002c0 e6 fd 31 bd 21 15 90 3e 3a b7 b5 3d d9 ab 34 3d
       -0.043455027 0.2814112 0.08872838 0.0441092
0002d0 50 e4 c4 bd 97 40 51 3e 14 77 f4 bd 19 27 52 3e
       -0.0961386 0.20434795 -0.11936775 0.20522727
0002e0 d5 4e 78 3e 24 63 55 3e 4d 1c d5 be 8e bd 48 be
       0.24248822 0.208386 -0.41623154 -0.1960356
0002f0 f9 e4 ca 3e f0 48 a3 bd e4 5e 89 3e 53 75 42 bd
       0.39627817 -0.07972896 0.26830208 -0.04747517
000300 e2 87 e1 be ca 40 fc 3d ef 4d 88 3e d5 be d2 bd
       -0.44048983 0.12317045 0.2662196 -0.102903046
000310 dc 28 48 3e 3e 88 9b 3e 5e be 25 3e b3 50 9e be
       0.19546837 0.30377382 0.161859 -0.30920944
000320 44 f9 05 bd c7 a6 87 3e 56 9c 4c be 80 4d 4c 3d
       -0.03270842 0.2649443 -0.19981512 0.049878597
000330 f8 9a cd 3d 70 b8 83 3d 42 cb 03 be 4b 33 5a 3e
       0.100393236 0.06431663 -0.12870505 0.21308629
000340 39 8f 74 3e 5c 63 31 3e 20 3c 01 be ef 0b 77 3c
       0.2388276 0.17323059 -0.12620592 0.015078529
000350 6d 8d 74 3e e5 39 29 be 5c 27 83 3e 75 1c d9 bd
       0.23882075 -0.16525991 0.25615966 -0.10601131
000360 6e b5 a3 bd c6 fe 33 3d 26 e3 15 be 3e c5 35 3e
       -0.07993589 0.043944143 -0.14637432 0.17751023
000370 af 1b 87 be 94 ac 5a 3e e1 75 db 3d b7 1e a1 bd
       -0.26388308 0.21354896 0.10715843 -0.078671865
000380 b4 a5 5e 3e da 00 e5 3d 45 fe de 3d 90 cf f7 bd
       0.21742898 0.11181803 0.10888342 -0.12100136
000390 17 05 06 bd 98 04 98 be c7 7f ef bd ec c4 ef bc
       -0.032719698 -0.29691005 -0.116942935 -0.029268704
0003a0 df 21 b4 be 22 53 d9 3d 05 83 d2 bd c3 8a 00 bb
       -0.35182092 0.106115595 -0.10278896 -0.0019613958
0003b0 b9 b7 50 bd 7e b0 80 3e 5d 9d a6 3d e8 08 84 be
       -0.05095646 0.25134653 0.081354834 -0.25788045
0003c0 00 44 8f bd a9 1f 5d bc 74 7e 2f bd 03 12 24 be
       -0.06995392 -0.013496318 -0.042845204 -0.16022496
0003d0 fc 13 00 3c 03 b9 7e 3c ff ac 92 3e 7c a4 0e be
       0.007817265 0.01554704 0.2864761 -0.13929933
0003e0 1e 41 84 be 36 2a 4c 3e 5f 9b dc bc 02 51 80 be
       -0.2583093 0.19937977 -0.026929555 -0.25061804
0003f0 b8 ac 69 be 63 f0 88 3e 3e 2c a7 be 93 39 12 3e
       -0.22819793 0.267459 -0.32650942 0.14279775

f_before.4.bias f4 [64]
000000 c7 b1 36 bd e4 09 36 be ed 73 38 3d e5 e3 1c bc
       -0.044603135 -0.1777721 0.04503243 -0.009575819
000010 ff 90 de bd 48 fd 39 bd 41 fc 66 be d4 36 5c 3e
       -0.108674996 -0.045407563 -0.22557165 0.2150529
000020 0c ac 75 be bb 86 9a be 90 b6 8d 3c b0 6f 99 bd
       -0.23991412 -0.30180916 0.017298967 -0.07492006
000030 f4 83 67 3e b8 8f 42 be bf 1c 11 be 2a d8 7c bc
       0.2260893 -0.19000137 -0.14171122 -0.015432397
000040 2b 2e 4b be f1 e8 79 3e 49 b3 88 bd 68 20 79 3e
       -0.1984183 0.24405266 -0.06674821 0.24328768
000050 8e 98 72 3e 89 9a 87 bd c4 5f 31 3e 52 b4 ac bd
       0.23691007 -0.06621272 0.17321688 -0.08432831
000060 28 23 d1 bc 47 6e 1c 3e 8b 42 a1 be 30 48 e0 3c
       -0.02552946 0.15276442 -0.3149608 0.027378172
000070 98 ee 4b be f3 49 99 bd 8d f8 53 3e 1a 5f 89 bc
       -0.19915235 -0.07484808 0.20700283 -0.01676898
000080 be 90 7e be 13 ea 81 3d 98 c6 10 3d 3c 3c ae bd
       -0.24859902 0.06343474 0.035345644 -0.085075825
000090 51 bc 87 bc 0a f5 16 bd e4 0c 58 be 25 44 39 bd
       -0.016569288 -0.03685478 -0.21098667 -0.045231003
0000a0 ed 57 bc bd 82 18 6c be 29 23 d3 bd ec 1f 81 be
       -0.09196458 -0.23056224 -0.10309441 -0.25219667
0000b0 54 17 03 be 36 aa ae bd 2c 27 8e bd 85 49 21 3e
       -0.12801868 -0.08528559 -0.06941065 0.15750702
0000c0 a2 3e 21 3e fb 36 a6 bd 93 f5 c9 3c 7e 63 b3 bd
       0.15746549 -0.081159554 0.024653232 -0.08759211
0000d0 b2 e5 50 bd 52 af 49 3d 17 b2 25 3d e3 99 f3 bd
       -0.051000305 0.049239464 0.040453043 -0.11894586
0000e0 5d 0f 9f bd 87 77 57 be f6 f9 fc 3d 4f 0a 46 3d
       -0.07766602 -0.2104169 0.12352364 0.048349675
0000f0 22 ae 8c 3d 1a a4 b4 3d c7 e0 30 be 66 27 8d 3d
       0.06869151 0.088203624 -0.17273246 0.0689228

f_after.0.weight f4 [64, 161]
000000 a6 f4 ce 3e 19 f4 91 be ac 55 d7 be 1b ed a6 3e
       0.40421027 -0.28506544 -0.4205755 0.32602772
000010 43 9d 4f bd 68 ad c5 be f6 25 08 be 4d 07 22 bd
       -0.050687086 -0.3860886 -0.13295731 -0.039557744
000020 e2 38 d8 3d 85 2a ea 3d f8 36 56 bb bc 08 60 be
       0.105577245 0.11433891 -0.0032686573 -0.21878332
000030 81 2e d6 3d d8 7c 2e bd 11 58 b3 3d f5 64 0a 3e
       0.10458089 -0.04259953 0.08757032 0.13515075
000040 dc e7 4a bd eb 3c 09 bf e3 31 96 3e 33 93 13 3e
       -0.049537525 -0.5360858 0.29334936 0.14411621
000050 ef 0e 4c 3d 6a 52 2e bc b4 15 dd bc 82 76 6f bd
       0.04981893 -0.010639766 -0.026987888 -0.058462627
000060 ba 1a e2 bc 49 e7 26 be 59 04 02 3f bd de 11 bc
       -0.027600635 -0.16299166 0.50787884 -0.008903203
000070 29 83 37 bd f8 52 19 3f e4 f6 36 3d 1f ba 14 bc
       -0.04480282 0.59892225 0.044669047 -0.009077578
000080 0b 4c dd be a3 ac 73 3e 58 ea 3e 3e 2a 7f 5f bd
       -0.4322208 0.23796324 0.18644083 -0.054564632
000090 42 37 f0 bd bd e6 03 3e 84 d1 1e bd 69 99 4d 3f
       -0.117292896 0.12880988 -0.03877403 0.8031221
0000a0 0e 78 89 bd 23 c9 3d 3e 9e 72 8f bc df 8e 03 be
       -0.06712352 0.18533759 -0.017510708 -0.1284747
0000b0 cf 96 05 be aa 39 4a 3e ee d5 70 be de cc d1 3c
       -0.1304581 0.1974856 -0.23519108 0.025610384
0000c0 56 ab 9f bc fa b1 35 bd e4 db 0f 3d 12 8b 12 bd
       -0.019490879 -0.044359185 0.035121813 -0.03577716
0000d0 b0 20 d2 bc c1 68 08 3e 4e b4 04 3d e7 6e fa be
       -0.025650352 0.1332121 0.032398514 -0.48912737
0000e0 bb c4 84 bd 31 46 26 3e d9 1d c8 bd 87 34 81 3d
       -0.06482836 0.16237713 -0.09771318 0.06308847
0000f0 58 39 51 3e da bf 52 3e 4e 77 87 bd f8 57 08 3e
       0.20432031 0.20580998 -0.066145524 0.13314807
000100 07 f2 03 be 4b 78 1f be 9b 45 bc 3d c4 b7 d3 3d
       -0.12885295 -0.15573232 0.09192964 0.10337785
000110 3d 5e e6 3d 26 99 ad be 33 6c 72 be d4 01 2b 3e
       0.11248443 -0.33905905 -0.23674087 0.16699916
000120 d6 6f 7f 3d 34 9a b3 3c 2b 61 4a 3b 73 3f 75 3d
       0.062362514 0.021924116 0.003088067 0.059874963
000130 07 39 f5 3d f4 96 d7 be 6e 09 5e bb 57 fb 98 3c
       0.11973768 -0.42107356 -0.0033880132 0.018674536
000140 dd ef 7d 3d 70 16 9c 3d cf eb 1c bd d5 04 05 3c
       0.06199633 0.07621467 -0.038310822 0.008118828
000150 22 8e 3b 3d 37 bc 12 3c ac 18 85 bc 10 9f 36 3e
       0.045789845 0.008956007 -0.016247116 0.17834115
000160 69 49 06 3e 96 d9 be 3c 53 47 0a bd 0d 3b 79 be
       0.13113941 0.023297112 -0.033759426 -0.24338932
000170 12 34 d7 3c 18 f8 be bc 9e 18 74 3d 35 61 06 3e
       0.026269946 -0.02331166 0.05959379 0.13123019
000180 fc 40 10 3c dd 5b 9e 3d 41 45 23 3d d7 a6 80 bd
       0.008804556 0.07732365 0.039860968 -0.06281822
000190 7a 3a 3a 3e cf 74 26 bd c6 75 52 3e 50 60 06 3e
       0.1818637 -0.04063874 0.2055274 0.13122678
0001a0 2e d1 ba 3d 1c a7 92 be 33 ee b4 bd 7a 24 c1 3d
       0.09121929 -0.2864312 -0.088344954 0.094307855
0001b0 03 ae 7a bd 7d 17 be bc 4d 42 ae bd 6a eb a5 3b
       -0.061201107 -0.02320456 -0.085087396 0.005063464
0001c0 14 bf 0e 3e 05 63 d7 3a 3b d1 85 bc bb bf 14 3e
       0.13940078 0.0016432708 -0.01633512 0.14526264
0001d0 d5 fb 65 3e e1 3d fd bc b4 81 66 3d 9e 67 23 3e
       0.22459348 -0.030913295 0.05627604 0.15957496
0001e0 c4 f0 6c be 85 6a 5d bd 5a ab b8 3b 5a 4e 0c 3c
       -0.2313872 -0.054056663 0.005635661 0.008563602
0001f0 72 d3 a1 3d e2 2b b2 3c ef ce e6 3d 0f 3e 20 3e
       0.07901658 0.02174944 0.11269938 0.15648673
000200 67 a6 06 3d 60 8f 50 be 52 b1 2b 3d da 2f 48 3e
       0.032873537 -0.20367193 0.041917153 0.19549504
000210 f5 25 04 bf 39 c4 8b 3e 19 60 69 bd fd 36 a2 bd
       -0.5162042 0.27298144 -0.05697641 -0.079206444
000220 bf 1f ea bd 6e 15 a8 bd fa ce af 3d 0d 6b 82 3d
       -0.11431836 -0.082072124 0.085843995 0.063680746
000230 9b 04 5e be 66 ca 7b 3d 90 5b da bd 3e c8 71 3e
       -0.21681444 0.06147232 -0.106619954 0.23611543
000240 fe ea 2b bd 98 7a c3 3d bb 87 8c bd 3d 12 be bd
       -0.041972153 0.09544867 -0.06861826 -0.092808224
000250 2f c4 3b 3d 22 a4 2f be 85 78 fc be e4 56 dc 3d
       0.045841392 -0.17152455 -0.493107 0.107587606
000260 28 18 94 3d 4d ee 52 bb 8b ec cc bd 1b ae 82 3e
       0.0723117 -0.0032185495 -0.100060545 0.25523457
000270 e7 e4 7b 3e 40 0f ed be 70 2a 87 3d 8a 95 7f be
       0.24599038 -0.46300697 0.06599891 -0.24959388
000280 a0 a6 78 be 81 08 ba be 78 43 54 bd b5 23 96 bf
       -0.24282312 -0.36334613 -0.051822156 -1.1729647
000290 9b 2b 90 be 60 f2 b7 3d 53 8d 99 bf c4 6c 27 bc
       -0.28158268 0.08981776 -1.1996254 -0.010218803
0002a0 83 fb 3d 3e 64 6e 08 3e ac 94 20 be 18 26 2f 3d
       0.18552975 0.1332336 -0.15681714 0.04276094
0002b0 4f 6f 88 bf 22 cd 9d 3d 9d 25 08 3e 3b b8 61 3e
       -1.0658969 0.077051416 0.13295598 0.22042935
0002c0 a5 3b 66 be 77 d3 0b bc 24 df 90 bf 0b da 6d be
       -0.2248369 -0.008534304 -1.1318097 -0.23227708
0002d0 01 2e 56 bd f5 6b 4e 3e 92 62 3a bd ed 03 e5 3d
       -0.052289966 0.2015837 -0.04550416 0.111823894
0002e0 14 1e 2b bf a9 97 03 3e ca ed d8 3c b7 d1 50 3f
       -0.6684277 0.12850823 0.026480574 0.8157
0002f0 70 7d 54 3c e7 72 98 3c 0e 18 2e bf e3 31 b9 3b
       0.01296936 0.018609477 -0.68005455 0.005651699
000300 30 1d 57 bc 90 fe 7c 3f 0d 95 83 bd a4 88 eb 3d
       -0.013129517 0.9882593 -0.064249136 0.115006715
000310 e4 e1 2d 3d 27 54 ba bc a8 bc fd 3b 59 3e b5 3c
       0.042451754 -0.022745205 0.007743437 0.022124456
000320 77 99 14 3f 6c 98 81 3e bd 85 d0 3d 6b da 30 be
       0.5804667 0.253116 0.101817586 -0.1727082
000330 af ec 31 3d 5c d9 3d be 1b 4f be bd 5a af c5 bd
       0.04343861 -0.18539947 -0.09292432 -0.09652586
000340 e0 96 af bb 8a 0d ae 3d 9e f8 10 3d 7b c9 35 3d
       -0.005358562 0.08498676 0.03539335 0.0443816
000350 8f 97 cc bd a4 f7 2a 3e bb 49 0e 3c c0 8d f8 3c
       -0.09989845 0.1669603 0.008684571 0.03034103
000360 21 0b d5 be 3b e4 e0 bc df b7 56 3d 1f 9a 2f be
       -0.41610053 -0.027452579 0.052421447 -0.17148636
000370 3c 5c eb bc 03 3b 19 3e 9c 4d 36 bd 3c 25 97 bd
       -0.028730504 0.14963917 -0.044507608 -0.07380149
000380 b5 b4 98 3d b0 73 fd bc fd a3 8d 3c 31 53 86 3d
       0.07456342 -0.030938953 0.01729011 0.06558836
000390 e9 48 7f 3d 50 78 3b 3e 25 44 98 3d 1d 6b ca be
       0.062325392 0.18307614 0.074348725 -0.39534846
0003a0 6e 95 4d 3c cb 8b 1f be 2e 44 26 bc c0 e8 2e 3d
       0.012547834 -0.1558067 -0.010148091 0.042702436
0003b0 e2 e8 a5 3c 10 11 45 3e 67 09 f9 3d 8c fa 60 be
       0.020252649 0.1924479 0.121599965 -0.21970576
0003c0 ab 86 b1 3d 0b e0 15 bc 7e 58 2a 3e 80 7f 40 bc
       0.08668264 -0.009147654 0.1663532 -0.011749148
0003d0 5a ef 15 be 3d 3e 17 be 0b ac a9 bd ce 46 e0 3c
       -0.14642087 -0.14769836 -0.08284768 0.027377512
0003e0 b9 54 a2 bc fc b8 4d 3d bf b0 83 bc 3e 0f 3e be
       -0.01981579 0.050225243 -0.01607549 -0.18560502
0003f0 cc e0 d4 bd 77 fe 3a 3d 77 b2 11 3c c0 65 51 3d
       -0.10394439 0.045652833 0.008892647 0.051122427

f_after.0.bias f4 [64]
000000 18 35 82 3b 47 c8 9e 3d 95 c7 ad 3d af 10 63 3d
       0.0039736144 0.077530436 0.08485333 0.055435833
000010 ef 0f 43 bd 76 b4 8a bd d8 dd fb 3c 0f ea 48 3d
       -0.047622617 -0.067727014 0.030745432 0.04905134
000020 34 14 a3 bd 73 bf e5 3d d1 c3 42 bd 37 7a de bd
       -0.07962838 0.11218157 -0.047550026 -0.108631544
000030 58 9b 62 3d e8 c4 6b bc 93 6d 8f bd 9c 72 36 bd
       0.05532393 -0.014390208 -0.070033215 -0.044542894
000040 2c 22 a3 3d 32 1a a6 3d 87 6b 32 bd 7a 5b a0 3d
       0.07965502 0.08110465 -0.043559577 0.07829948
000050 f8 0d 0e bc 54 e6 58 3d 41 b1 8a bc 42 ca ac bd
       -0.008670323 0.052954033 -0.016930224 -0.08437015
000060 f4 73 a9 bc 72 bb da bb 90 74 ee 3c ce 65 7b 3d
       -0.020685174 -0.0066751773 0.029108316 0.061376385
000070 3b de 52 3d 05 a3 b1 3d 3c 2e 13 3e 70 56 c5 bc
       0.051481467 0.08673672 0.14373106 -0.024089068
000080 05 87 eb 3d 98 4b 9f 3d 7c 84 c3 bd 06 23 2b bd
       0.11500362 0.0777809 -0.09546754 -0.041781448
000090 0d d2 32 be aa 57 bd bc 1d e7 f3 bd 57 d3 2c 3e
       -0.1746294 -0.02311309 -0.11909316 0.16877495
0000a0 61 81 91 3d 3a d3 08 3e b1 b0 f5 bd 59 65 09 bd
       0.07104755 0.13361827 -0.11996592 -0.03354392
0000b0 c4 e1 9f 3d 42 f0 1d 3e 03 77 d1 3d 62 ca 15 be
       0.07806733 0.15423682 0.10227778 -0.14627984
0000c0 ee 92 6d bd 1a 99 0a 3e 76 51 8f bc 59 e2 be bb
       -0.05800145 0.13534966 -0.017494898 -0.0058253226
0000d0 79 21 a8 3b cc c4 ac 3d 91 49 6b 3c a1 89 dd 3d
       0.0051309434 0.084359735 0.014360801 0.10817266
0000e0 cd 34 16 3d 9a 7e f6 3d 74 41 b4 bb 2f 72 10 be
       0.03667145 0.12035866 -0.0055009667 -0.14106058
0000f0 fd 6b dc 3b 5d 69 24 3c 71 62 b4 3c e8 bf 3c bd
       0.0067267404 0.010034886 0.022019597 -0.046081454

f_after.2.weight f4 [64, 64]
000000 4a 3c f7 3d f0 84 09 be 4e ad c1 be 48 c7 9b bc
       0.12072046 -0.13429618 -0.37827533 -0.019015923
000010 f0 c0 50 be af ad 80 be a4 cc b2 3e 70 03 66 3e
       -0.203861 -0.2513251 0.34921753 0.22462249
000020 3c ba bb bd b0 cf 16 3d d9 68 e6 bb 57 98 c9 be
       -0.09166381 0.03681916 -0.007031542 -0.3937404
000030 bd 4f db bd 1b ab 4a be 5f 5d 3c bf 59 cc 1b 3f
       -0.10708568 -0.19791834 -0.73579973 0.60858685
000040 cc 6b 01 3e 12 8b 85 3e 52 92 8f be 30 cf 85 3d
       0.12638777 0.26082665 -0.2804132 0.065336585
000050 c8 0e 08 be fd 63 27 bd 4f 9c 02 3d 2f 18 43 3d
       -0.13286889 -0.04086684 0.03188735 0.047630485
000060 80 d4 14 bd 60 fb 43 be 45 c7 d7 3d 15 11 0c 3f
       -0.03633547 -0.1913886 0.105360545 0.54713565
000070 f6 89 bb be 48 dd 39 3c c6 8d 2a be 20 a3 b8 bd
       -0.36628693 0.0113442615 -0.16655645 -0.090154886
000080 65 25 3f bd 2c be 34 3d 5c c6 64 bc d1 6c 97 3d
       -0.04666652 0.044126675 -0.013963308 0.07393802
000090 b8 2e 61 bd 70 75 65 3d 85 9e 43 be 49 0f 7f be
       -0.054976195 0.0560202 -0.19103439 -0.24908175
0000a0 c2 96 87 bc 34 68 68 3e 10 42 8e 3e b9 59 6a 3d
       -0.01655138 0.22696 0.27784777 0.057214472
0000b0 81 78 84 3e 77 9a 4c be d0 a7 2e be 9c 2c ac be
       0.25873187 -0.19980799 -0.17056203 -0.33627784
0000c0 64 47 54 3c 23 6c f4 bc 1f 72 ba be be fe 0e ba
       0.012956474 -0.02983672 -0.36415192 -0.00054548297
0000d0 1f 4d 29 be b1 50 9a be 9e 32 5f 3e b9 ec 71 be
       -0.16533326 -0.30139688 0.21796653 -0.23625459
0000e0 3c db e4 3d b4 5e 02 bd 19 78 6d 3c a3 aa 47 be
       0.11174628 -0.031828597 0.014493966 -0.19498686
0000f0 55 29 a3 3d de 0d e0 3d 2b 75 d8 bd 91 bd c2 3e
       0.07966868 0.10940145 -0.10569223 0.38035253
000100 2d ae 29 bd bf 56 20 be 32 52 a1 3e 0e a7 8b ba
       -0.041425873 -0.15658091 0.31508023 -0.0010654645
000110 1d 09 de 3b 97 0f 24 be 1c 3b fa bd 90 ac aa bd
       0.0067759887 -0.16021572 -0.122183055 -0.08333695
000120 b2 b6 46 bd 31 78 ac bd 85 45 9a 3c 07 af 35 be
       -0.048514076 -0.08421362 0.018831978 -0.17742549
000130 92 12 2f bf d1 03 20 3d b2 9e cd bd 98 e2 44 3d
       -0.6838771 0.03906614 -0.10040034 0.04806766
000140 45 c0 41 bf 81 ea 1c bc f8 e7 72 bd a3 b9 10 bc
       -0.75684005 -0.009577394 -0.059303254 -0.008833322
000150 48 8e d4 3d 61 ab 02 3d 03 41 00 3d 0f 9b ad bd
       0.103787005 0.03190172 0.031312 -0.08476841
000160 05 24 08 3c c2 f7 e3 3d 92 48 4f be 9b 8d 6f bd
       0.008309369 0.111312404 -0.20242527 -0.058484655
000170 54 15 17 3c 30 80 3e be 6e 5b 2a bd f0 9e 8b 3d
       0.009221394 -0.18603587 -0.0415911 0.06817424
000180 1d 5d 51 bd b3 77 ec 3d 21 f1 0b be 9f 66 48 3c
       -0.05111419 0.11546268 -0.13666202 0.012231498
000190 a3 40 97 bd ef 70 30 3c cd 4e 07 3e 23 b1 84 3e
       -0.07385375 0.010769113 0.13213654 0.25916395
0001a0 05 97 59 bd 13 3b f0 bc 83 7d 26 3e 62 9f ab 3c
       -0.05312254 -0.029325044 0.16258816 0.020950023
0001b0 cd a3 83 bd 9b ee 63 bd 79 2d 6d 3e bd 2a 2f be
       -0.06427727 -0.055647474 0.23161878 -0.17106147
0001c0 9f 31 28 be b6 73 80 3e 62 2e 58 3d e3 10 bd 3c
       -0.16425179 0.2508828 0.05277861 0.023079341
0001d0 11 e0 27 bd f8 e1 ac 3c de 68 29 3d 4f 39 3d 3d
       -0.04098517 0.021103844 0.041359775 0.04619723
0001e0 ff 3e 09 bd 6e 7b 48 3e 1d 4b 2a 3d 5b e5 1a be
       -0.033507343 0.19578335 0.04157554 -0.15126555
0001f0 fc eb 0e 3d 3d 66 68 3d 8b 3a 80 3c e0 30 91 3d
       0.03489302 0.056738127 0.015652915 0.070894
000200 14 e2 3a be 89 30 89 bd c6 13 1e 3e a1 f9 09 3e
       -0.18250304 -0.066987105 0.1543723 0.13474132
000210 78 b0 cc bc e6 8a 93 bd 79 0b 9a 3e a1 8a 6f 3d
       -0.02498649 -0.07204227 0.30086878 0.058481816
000220 86 53 92 be 17 cb fd be dc ad be 3e 23 5e 37 bd
       -0.28579348 -0.49569008 0.3724202 -0.04476751
000230 97 5b 14 3e 4a 5c 3a bd 2b 8d cc bb b1 3b 2e 3c
       0.14488064 -0.04549817 -0.0062424145 0.010634349
000240 87 1a d9 3d 97 10 cd be 10 04 88 be c5 9d 00 3e
       0.10600763 -0.4005172 -0.265656 0.12560184
000250 81 16 cc 3d 03 13 fc bd ff fd 85 3d 51 57 ab be
       0.0996523 -0.12308314 0.065425865 -0.33465055
000260 af 45 69 bd 53 24 83 be dc cb bd bc f3 05 0d 3e
       -0.05695122 -0.2561365 -0.023168497 0.137718
000270 b5 fd cc 3d af f9 24 3e 89 1d a1 bd 22 f5 68 bc
       0.10009328 0.16110872 -0.078669615 -0.0142186005
000280 33 92 cd 3c e1 f9 3f bc cd f3 89 be 92 b1 3c 3d
       0.025094127 -0.011717291 -0.26943818 0.04606778
000290 f9 ba ad be 8f a8 16 bd c5 6f b3 3e 5c f4 63 3e
       -0.3393171 -0.036781844 0.3504621 0.22261184
0002a0 c0 fb 18 be 82 b4 22 3e c8 f0 9c 3d d6 6a 8d bd
       -0.14939785 0.15889171 0.07663113 -0.06905143
0002b0 b9 e8 13 bc 00 db d1 bd 9f a3 85 3e 5c b8 82 be
       -0.009027653 -0.10246849 0.26101395 -0.2553128
0002c0 2d 95 ab be e4 6c 59 3e 8d 92 ae 3d 1f 10 0a 3d
       -0.3351225 0.21232945 0.08524046 0.03370678
0002d0 ab d3 21 3e f0 ae 0a 3c e9 8e 57 bd 4d 30 ec 3d
       0.15803401 0.00846456 -0.052626524 0.1153265
0002e0 5e 92 f7 3d 40 98 78 bd 0b 99 06 3e 20 48 87 be
       0.12088464 -0.060692072 0.13144319 -0.26422215
0002f0 98 1e b4 bd 46 77 2a 3e 8f 59 26 be a6 6c 5e bd
       -0.08794898 0.16647062 -0.16245101 -0.054302834
000300 79 66 12 3e 55 96 b9 bd 9b 07 26 bc 84 2e 1e bc
       0.14296903 -0.09061877 -0.010133649 -0.009654645
000310 91 2e 04 be 6f 45 a1 be c3 c6 5e 3e a5 05 63 be
       -0.12908389 -0.31498286 0.21755509 -0.22170122
000320 1b d0 59 be 4d ed 98 bd b5 8d a7 3d dc 97 8e 3e
       -0.21270792 -0.074671365 0.08181325 0.27850235
000330 4d 76 2a be c3 e6 0c 3e 3d 26 04 be e3 32 71 bd
       -0.1664669 0.13759904 -0.12905212 -0.05888642
000340 24 dc b6 3e 03 fd ae bb b1 63 53 be 8b 06 38 3d
       0.3571483 -0.00534022 -0.20643498 0.044928115
000350 a8 1c f3 bd 43 89 90 3d 25 8e d0 3d 6c 56 5f 3d
       -0.118707 0.070574306 0.10183362 0.054525778
000360 32 fe bd be f9 df 3c 3e 50 7e 4b bd 95 99 0b be
       -0.37107998 0.18444814 -0.049681008 -0.13632806
000370 a0 68 60 be 7e 51 b0 3e 94 4f 59 3d e3 d4 a2 bb
       -0.21914911 0.34437174 0.053054407 -0.0049692257
000380 99 ab 46 3e f7 2b 36 be df d7 a8 be ec 1f 06 3e
       0.19401397 -0.17790209 -0.32977197 0.13098115
000390 9e 70 54 be 55 6b a6 3d f3 ae ef 3e 03 2d 29 be
       -0.20746085 0.08125941 0.46813163 -0.16521077
0003a0 11 b1 4d be f8 92 b0 bd 18 5a f7 3c 54 cf eb be
       -0.20087077 -0.08621782 0.030194327 -0.46056616
0003b0 9e c6 86 bd 18 15 e0 bd 5e 12 0c 3e 89 ad 70 be
       -0.06580852 -0.10941523 0.13678882 -0.23503698
0003c0 8e 3e 25 bf da ff 35 be 07 45 68 3e e3 b4 20 be
       -0.64548576 -0.17773381 0.22682582 -0.15694003
0003d0 0e 71 8b 3d f8 97 c1 bd e0 7e 15 3e ad 14 17 3e
       0.06808673 -0.09452814 0.1459918 0.14753981
0003e0 77 26 3f 3d 30 ca 95 bd bf cb c2 bc f5 9d ba bd
       0.046667542 -0.07313955 -0.023778794 -0.09112159
0003f0 e7 d4 4c 3e fd 72 97 ba 29 c0 5d be e0 8b 9c 3d
       0.20003091 -0.0011554655 -0.21655335 0.076438665

f_after.2.bias f4 [64]
000000 6e 48 70 3d 3a 86 60 3e 43 d8 9b 3d 3b 68 b5 bd
       0.058662824 0.21926203 0.07609608 -0.08857771
000010 2c 09 0e 3e 19 ab 1b be 83 c0 8e bd 38 8c 98 3d
       0.13870686 -0.15201987 -0.069703124 0.074486196
000020 fc 2d 2f 3e a9 52 06 be 9b ac 3c be 6b c0 2e 3c
       0.17107385 -0.1311747 -0.18425219 0.010665993
000030 24 dc 81 3d f4 0e 2b bc 69 e3 16 3e 7d ca 9b bd
       0.063408166 -0.010440577 0.14735188 -0.07606981
000040 00 96 35 3d d8 a9 94 bd 89 60 6c be a3 9e e4 3d
       0.044332504 -0.072589576 -0.230837 0.1116307
000050 75 b6 3d be 30 99 57 3c 0c a6 39 3e 09 56 11 3c
       -0.18526633 0.013159081 0.18129748 0.00887061
000060 5a 36 50 3d e8 bb 00 3e fd 59 06 3e 45 2e 9c 3c
       0.050833084 0.1257168 0.13120265 0.019065032
000070 5f a0 85 3d e9 40 91 3e df 2b 37 bd 61 f6 e1 3d
       0.06524729 0.28369835 -0.044719573 0.11033321
000080 86 3f 1f 3d 3c df aa 3d ea 10 fc 3d 8e 4b 1f 3c
       0.03887894 0.0834336 0.123079136 0.0097226035
000090 70 73 f4 3d 03 dd 61 bc 9b 70 e5 3c 0a 2a 97 3b
       0.119360805 -0.013785603 0.028007796 0.0046131657
0000a0 23 33 ec bd 9c a2 42 3d 9d 90 4f bd 7b bc 2c 3d
       -0.11533191 0.047518358 -0.050675023 0.042171936
0000b0 c1 e4 a2 3c 2b f8 9b 3d 46 17 27 be b1 2e b1 3d
       0.019884469 0.07615694 -0.16317472 0.08651484
0000c0 4b 50 1f 3e 6e 53 a1 3d 6e f6 e6 3d 8a a6 01 bd
       0.15557973 0.07877241 0.112774715 -0.031652965
0000d0 ef db 42 3d a4 9a 9f bc 51 34 59 3e da 0c d1 bc
       0.047573026 -0.019482918 0.21211363 -0.025518823
0000e0 53 7c eb bd ac 92 63 3b 10 7d a2 3d 71 ef 10 3e
       -0.11498322 0.0034724874 0.0793401 0.1415384
0000f0 16 f6 26 bd 33 4a ef 3c d7 9f 22 be e9 1b 64 3e
       -0.04076203 0.029210186 -0.15881287 0.22276272
