model_checkpoints/clevr_567_models/latest/latest_net_Decoder.pth (torch, 132769 bytes, 33 tensors)

f_before.0.weight f4 [40, 73]
0	0xbe6c4bee	-0.2307584
1	0x3e782b1e	0.24235198
2	0xbe2666f7	-0.16250215
3	0xbe0c762c	-0.13716954
4	0x3ce72dd6	0.028220098
5	0xbe070e5e	-0.13189074
6	0x3d63fa5b	0.05565868
7	0xbe7fdfa2	-0.24987653
8	0x3ea0af9b	0.31383976
9	0xbebc9249	-0.36830357
10	0x3d07adef	0.03312486
11	0x3dfae1db	0.1225011
12	0xbb37c270	-0.0028039478
13	0xbeb718ce	-0.35761112
14	0xbc0ff9bd	-0.00878757
15	0xbd24db32	-0.040248103
16	0x3d29904d	0.04139738
17	0x3d319f3f	0.04336476
18	0xbe8012be	-0.250143
19	0xbf828a30	-1.0198421
20	0x3e89e4bf	0.26932332
21	0x3a754179	0.00093557645
22	0xbdcfc53a	-0.1014504
23	0xbe47f272	-0.1952608
24	0x3b2a2240	0.0025960356
25	0x3e52bacd	0.20579071
26	0xbc9b0c9b	-0.01892691
27	0x3c4f3cc6	0.012648767
28	0xba6abeed	-0.0008954842
29	0xbcec3026	-0.028831553
30	0xbba30c23	-0.004975812
31	0xbcdefede	-0.02722114
32	0xbd944672	-0.07239999
33	0xbdcf7ff1	-0.10131825
34	0xbd9218c3	-0.07133629
35	0xbd7309d4	-0.059335545
36	0xbe4e77a0	-0.20162821
37	0xbe1699aa	-0.14707056
38	0xbd9cb5bb	-0.0765185
39	0xbdc3a1e9	-0.09552366
40	0x3d61e893	0.05515344
41	0x3e31eee1	0.17376281
42	0xbe49ef68	-0.19720232
43	0x3dca178d	0.09867773
44	0xbc8d73fd	-0.017267222
45	0x3c046392	0.00808038
46	0x3dae2ee5	0.08505038
47	0x3d9638b3	0.07335033
48	0xbe43bc40	-0.1911478
49	0x3d904522	0.07044436
50	0x3c845d5b	0.016157797
51	0x3d7d0365	0.061770815
52	0x3e29ac0a	0.16569534
53	0xbdd2b37a	-0.10288139
54	0xbe6a1b96	-0.22862086
55	0x3da8aca5	0.08236054
56	0xbe2a8f37	-0.16656195
57	0x3ed2c9da	0.41169626
58	0x3c9f8b1b	0.01947551
59	0xbbee751e	-0.007277145
60	0x3d067c64	0.032833472
61	0x3e66fc74	0.2255724
62	0xbc1bdc4f	-0.009512975
63	0x3ccd6c80	0.02507615
64	0x3d0e0fe5	0.034683127
65	0x3d2efd68	0.042722136
66	0x3e4e0079	0.20117368
67	0xbdb97daf	-0.09057175
68	0x3d3c531d	0.0459777
69	0x3e821605	0.25407425
70	0x3ca47013	0.020072972
71	0xbd9abb15	-0.07555214
72	0xbe0b327c	-0.13593477
73	0xbf279d3e	-0.6547431
74	0x3b899e5e	0.004199787
75	0x3db1e139	0.08685536
76	0xbee8811d	-0.45411006
77	0x3e1ae431	0.1512611
78	0x3dc6be13	0.097042225
79	0xbe5bcaf0	-0.21464133
80	0xbd907001	-0.07052613
81	0x3cb31f6b	0.021865567
82	0xbed5ccb2	-0.41757733
83	0x3eb0c58e	0.34525722
84	0xbda7f32e	-0.0820068
85	0xbd5c524c	-0.053789422
86	0x3e965747	0.29363462
87	0x3d648485	0.055790443
88	0xbe89c3e0	-0.26907253
89	0x3e57f3c9	0.2108909
90	0xbdedf1ae	-0.11618362
91	0xbef8d81a	-0.48602372
92	0x3d838bf1	0.06423176
93	0xbde6807a	-0.11254974
94	0x3e6ac7af	0.22927736
95	0xbc09ecde	-0.00841829
96	0x3bbf5b33	0.005839729
97	0x3ef416b5	0.47673574
98	0xbce23d43	-0.027617102
99	0x3de20b75	0.110373415
100	0x3d848120	0.06469941
101	0xbc31ca33	-0.010851431
102	0xbc1d43c7	-0.009598679
103	0xbe11638e	-0.14198133
104	0x3d181e31	0.037138168
105	0xbcbbfb89	-0.02294709
106	0xbdb5d6fa	-0.08878894
107	0xbcfcf530	-0.030878633
108	0xbb4568c3	-0.0030122257
109	0x3e075551	0.1321614
110	0xbe662bcb	-0.22477643
111	0x3d91a53e	0.071115956
112	0x3dbceaf5	0.09224502
113	0x3cab87c0	0.020938754
114	0xbd9a950f	-0.07547962
115	0x3df47835	0.1193699
116	0xbccf997f	-0.025341747
117	0x3b6b2f10	0.0035886206
118	0x3dc0b2d8	0.09409112
119	0xbdde9950	-0.10869086
120	0x3d801ed0	0.06255877
121	0x3e397b77	0.18113504
122	0xbdf67a82	-0.12035085
123	0xbd877193	-0.066134594
124	0x3d875982	0.06608869
125	0x3cf31f30	0.029677957
126	0xbc3a6237	-0.011375955
127	0xbd87c9d3	-0.06630292
128	0x3e26c28f	0.16285156
129	0x3d3e0009	0.046386752
130	0x3e3d029e	0.1845803
131	0x3a9f2110	0.0012140591
132	0x3da061de	0.07831167
133	0x3dd9a7f9	0.10627741
134	0x3d222c3a	0.03959296
135	0x3dbba5cd	0.09162483
136	0xbb9f5c16	-0.0048632724
137	0x3e0d4408	0.13795483
138	0x3d9fa593	0.07795253
139	0x3e4ef486	0.20210466
140	0x3e4f84a8	0.20265448
141	0xbe632db2	-0.221854
142	0xbed935ef	-0.4242396
143	0x3e0dea52	0.13858917
144	0x3e655c55	0.22398503
145	0x3b8171cd	0.0039503337
146	0x3ebba663	0.3665038
147	0xbe989572	-0.29801518
148	0xbd81c7aa	-0.06336911
149	0x3eda2267	0.42604372
150	0xbd847825	-0.06468228
151	0xbe09ae6a	-0.1344544
152	0x3decee87	0.11568933
153	0xbd4d0788	-0.05005601
154	0xbe2e59c6	-0.17026433
155	0x3ed1025e	0.4082212
156	0xbeab850d	-0.33499947
157	0xbd0f75a5	-0.035024304
158	0x3d9462f5	0.07245437
159	0x3e0b9bfd	0.13633724
160	0x3e379ea5	0.17931612
161	0x3e042ced	0.12907763
162	0xbe460211	-0.19336726
163	0x3e14d41c	0.14534038
164	0x3e98b06c	0.298221
165	0x3d87cd4f	0.066309564
166	0xbe3a91a8	-0.18219626
167	0xbdb174f5	-0.08664886
168	0x3da0231d	0.07819197
169	0xbeb51d2a	-0.35373813
170	0xbd9abd0c	-0.07555589
171	0xbd9b3bb8	-0.0757975
172	0x3d3aa008	0.045562774
173	0x3d1335ea	0.03594009
174	0x3c943dbc	0.018095843
175	0x3d8f1b3e	0.06987618
176	0x3d149d73	0.036282968
177	0x3da0ebfa	0.07857509
178	0xbe151609	-0.14559187
179	0xbca24cb0	-0.019811958
180	0x3bf0494c	0.0073329564
181	0x3e19e380	0.1502819
182	0x3db1bc78	0.08678526
183	0x3ceebaa9	0.02914174
184	0x3d5c4824	0.053779736
185	0x3e02abad	0.12760802
186	0xbc812fb2	-0.015769813
187	0x3e495c7d	0.19664188
188	0x3e114412	0.14186123
189	0xbe2dea44	-0.16983896
190	0x3e0583c3	0.13038544
191	0xbd38baf0	-0.045100152
192	0xbdcbf653	-0.09959092
193	0x3d9d5698	0.07682532
194	0xbd66bf46	-0.056334756
195	0xbdcafff5	-0.09912101
196	0x3d23f3d1	0.040027443
197	0x3ea012dc	0.3126439
198	0xbca65c22	-0.020307604
199	0xbd66ca2a	-0.056345142
200	0xbd9d2542	-0.07673122
201	0xbec0d1d6	-0.37660092
202	0xbc99aebe	-0.018760081
203	0xbe868c9a	-0.26279145
204	0xbde7378c	-0.112898916
205	0xbd3319a3	-0.04372562
206	0xbd8a50b6	-0.06753676
207	0xbd2a37f4	-0.041557267
208	0x3dc4fd6e	0.096186504
209	0xbe1786e7	-0.14797555
210	0x3e12556d	0.142904
211	0xbe06ebe1	-0.13175918
212	0xbe8baa68	-0.27278447
213	0xbe04ea2b	-0.12979953
214	0xbe734fa6	-0.23760852
215	0x3d086a5f	0.03330457
216	0xbdd35b24	-0.10320118
217	0xbebd1d25	-0.36936298
218	0x3ea22746	0.31670588
219	0x3e73d35e	0.23811099
220	0xbefbf66a	-0.49211437
221	0xbd7f07ce	-0.062263303
222	0x3ea5fe31	0.32420495
223	0xbf2a0bc8	-0.66424227
224	0x3e80b3ba	0.2513712
225	0xbd8c22ec	-0.06842598
226	0x3ad6e533	0.0016395211
227	0x3d80b5a6	0.06284647
228	0x3d95cc06	0.07314305
229	0xbef222a2	-0.47292048
230	0xbd0c56bb	-0.0342624
231	0xbe41ac04	-0.18913275
232	0x3dfaec26	0.12252073
233	0x3c1a0ac6	0.009401983
234	0x3e45a622	0.19301656
235	0xbe55eb3a	-0.20890513
236	0x3e99e62f	0.3005843
237	0x3e8326c5	0.25615516
238	0xbef389fa	-0.47566205
239	0x3e17ef98	0.14837492
240	0xbd814930	-0.063127875
241	0x3dea9a3f	0.11455201
242	0xbd141435	-0.036152083
243	0xbd428b34	-0.047496036
244	0x3e1e9057	0.15484749
245	0x3db85b3f	0.09001779
246	0xbcec88d4	-0.028873838
247	0xbbf53885	-0.0074835443
248	0xbc7d6ad7	-0.015467367
249	0xbb8a5683	-0.004221739
250	0xbcbec23d	-0.02328598
251	0x3ce4950f	0.027903108
252	0x3e032913	0.12808637
253	0x3dc76df6	0.0973777
254	0xbd9ff856	-0.07811038
255	0x3e38babf	0.18039988

f_before.0.bias f4 [40]
0	0x3d958313	0.07300391
1	0xbbb9ad6e	-0.0056664264
2	0xbd8cc41d	-0.06873343
3	0x3cb5b3e2	0.022180501
4	0x3dc049ae	0.09389053
5	0xbd184bf2	-0.037181802
6	0xbdc8b1e3	-0.09799554
7	0x3cc7ae5e	0.024375137
8	0x3d80acbf	0.06282949
9	0x3d8f576f	0.069990985
10	0x3b612c5f	0.0034358723
11	0xbdbf3041	-0.093353756
12	0xbd26cd54	-0.04072316
13	0x3ca06d98	0.019583508
14	0xbd103ab2	-0.035212226
15	0x3bdffa2b	0.0068352423
16	0x3d0afbc7	0.03393152
17	0x3d3c87ab	0.04602782
18	0x3c263f17	0.010146878
19	0x3e0895d2	0.13338402
20	0x3ca3b976	0.019985896
21	0x3d067efa	0.032835938
22	0x3dba76ed	0.091047145
23	0xbb0a7b2d	-0.0021130547
24	0xbd784e9b	-0.06062184
25	0x3c8da50d	0.017290616
26	0x3ba5b26b	0.0050566695
27	0xbce45eac	-0.027877174
28	0x3dc07cc0	0.09398794
29	0x3e183115	0.14862473
30	0x3da622f3	0.08112135
31	0xbd6a5cfd	-0.057217587
32	0x3dc9985c	0.09843513
33	0x3db0f4f6	0.086404726
34	0xbd6de964	-0.058083907
35	0x3d40a20d	0.047029544
36	0x3d7de0cf	0.061981972
37	0x3a89f9d7	0.0010526729
38	0xbd0cf1a4	-0.034410134
39	0x3d5ccb17	0.05390462

f_before.2.weight f4 [40, 40]
0	0x3df2f104	0.11862376
1	0x3d1e4e9b	0.038649183
2	0x3d95a555	0.07306925
3	0xbdf3b681	-0.11900044
4	0xbeb06aa6	-0.34456366
5	0xbdce3be4	-0.10070017
6	0x3c3c3758	0.011487804
7	0xbdc124f9	-0.0943088
8	0xbe68ab7a	-0.22721663
9	0xbe002565	-0.12514265
10	0x3dcbf142	0.09958126
11	0xbd2b1e97	-0.04177722
12	0xbe2780d7	-0.16357742
13	0x3e8395cf	0.25700232
14	0xbe4f8bf7	-0.20268236
15	0x3d933b4a	0.07189043
16	0xbdd0cc05	-0.10195164
17	0xbf160f78	-0.58617353
18	0x3e067de6	0.13133964
19	0xbd0415d0	-0.032247365
20	0x3bc7606b	0.006084492
21	0xbe40ed11	-0.18840434
22	0xbd9d3017	-0.07675188
23	0x3ec61635	0.38688818
24	0x3e2bdd03	0.16783528
25	0x3d0f706b	0.03501932
26	0x3dc260cd	0.094911195
27	0x3ced0fcf	0.028938202
28	0x3e25a0b5	0.16174586
29	0x3e882ea6	0.2659809
30	0xbc25d7fc	-0.0101222955
31	0xbcfb2c39	-0.030660735
32	0xbc36b1e0	-0.011150807
33	0x3e6539c4	0.22385317
34	0x3a7fd6f5	0.0009759509
35	0x3e5a1e48	0.21300614
36	0xbe6992b8	-0.22809875
37	0xbc3dc78c	-0.01158322
38	0xbd9a5e2a	-0.075374916
39	0x3ea7c71e	0.32769102
40	0x3e287a80	0.1645298
41	0x3e3254f9	0.17415227
42	0xbd9df41a	-0.07712574
43	0x3df62fc7	0.120208316
44	0xbec5d76b	-0.38640913
45	0x3d78ac90	0.060711443
46	0x3d956721	0.07295061
47	0xbed733dc	-0.42031753
48	0xbeed0f64	-0.46300805
49	0xbd467306	-0.04844954
50	0xbe6dd0f1	-0.23224236
51	0xbd18babe	-0.037287466
52	0x3e8742df	0.26418206
53	0x3c4158e8	0.011800982
54	0xbe33f9a7	-0.17575704
55	0x3da5dad9	0.080983825
56	0xbea88ef9	-0.3292158
57	0x3ef4e2a4	0.47829163
58	0x3e867b48	0.2626593
59	0x3d30fd0c	0.043210074
60	0xbcd052c1	-0.025430085
61	0xbbc4a819	-0.006001484
62	0xbe86101f	-0.26184174
63	0xbeaee53c	-0.34159267
64	0x3aea258a	0.0017863971
65	0x3cc11486	0.023569357
66	0x3e94303d	0.28943053
67	0x3ccf1e22	0.025282923
68	0x3d740b0e	0.059580855
69	0x3e7c381b	0.24630778
70	0xbe02f717	-0.1278957
71	0x3e3ba5a4	0.18324906
72	0x3bf73108	0.007543687
73	0xbe30f5a4	-0.17281204
74	0x3e50fc02	0.20408633
75	0xbdff1d15	-0.12456719
76	0xbd989492	-0.074502125
77	0x3dd2b302	0.10288049
78	0x3e18ace1	0.14909698
79	0x3d147da1	0.03625262
80	0x3d19a4e0	0.037510753
81	0x3d745122	0.059647687
82	0x3d41541d	0.047199357
83	0xbd76ba91	-0.060236517
84	0x3e34e9cd	0.17667313
85	0x3df5c56c	0.12000546
86	0x3ddd7bfa	0.10814662
87	0x3e59029e	0.21192405
88	0x3df8327e	0.121190056
89	0x3e79d161	0.24396278
90	0x3ca4e636	0.020129304
91	0x3da3f414	0.080055386
92	0xbe1a5301	-0.15070726
93	0xbe801ebe	-0.25023454
94	0x3e3307e4	0.17483479
95	0xbe9e2984	-0.3089105
96	0x3e7e99de	0.24863383
97	0x3eaa87e9	0.33306816
98	0x3cf885bf	0.030337213
99	0x3d723b77	0.05913874
100	0xbe153e4c	-0.14574546
101	0x3e05c95a	0.13065091
102	0x3ea2d1e3	0.31800756
103	0x3f0f75ed	0.56039315
104	0x3da335de	0.07969259
105	0x3d3827d1	0.044959847
106	0xbe9240c1	-0.28565028
107	0xbe3ec027	-0.18627988
108	0x3e16dd49	0.14732851
109	0x3eaf526c	0.3424257
110	0x3d55465c	0.052069053
111	0xbe3c3182	-0.1837826
112	0x3e1e1a8f	0.15439819
113	0x3e6b921c	0.23004955
114	0xbe0d6b3a	-0.13810435
115	0x3d6ba514	0.057530478
116	0x3c7b39c9	0.015333601
117	0x3f1040c1	0.56348807
118	0xbe31566f	-0.17318128
119	0x3c771667	0.015081025
120	0x3e8b6618	0.2722633
121	0xbc6066d5	-0.013696392
122	0x3df5be50	0.1199919
123	0xbd183439	-0.03715918
124	0xbb176c59	-0.0023105352
125	0x3e698657	0.22805153
126	0x3db7a2a5	0.08966569
127	0xbe89fc7f	-0.26950452
128	0xbe8f6e82	-0.28013998
129	0x3e07e815	0.13272126
130	0x3e0d4653	0.13796358
131	0x3d821109	0.063509054
132	0x3e062710	0.13100839
133	0xbedf9b8b	-0.43673357
134	0x3e5009d3	0.20316248
135	0xbe07b999	-0.13254394
136	0x3cc39bce	0.023878004
137	0x3d26257e	0.0405631
138	0xbd26184f	-0.040550526
139	0x3e8d4917	0.27594826
140	0xbd43d3b2	-0.04780931
141	0x3e8d10f7	0.27552006
142	0x3f0a161d	0.5393999
143	0xbf03f012	-0.51538193
144	0xbe107c59	-0.14109935
145	0xbc5fbe97	-0.01365628
146	0xbd825672	-0.063641444
147	0x3eac68ff	0.33673856
148	0xbd0d01b6	-0.03442546
149	0xbc60de9c	-0.013724949
150	0x3e91ecef	0.28501078
151	0x3e8cb478	0.27481437
152	0x3e9423a2	0.28933436
153	0xbe89551a	-0.2682274
154	0xbd4460e0	-0.04794395
155	0xbec915cc	-0.39274442
156	0x3d808edc	0.06277248
157	0x3dcc57c9	0.09977681
158	0xbde9df22	-0.11419512
159	0xbd8651aa	-0.06558545
160	0x3d72f6a6	0.059317254
161	0x3e0578ee	0.13034412
162	0xbb40d1b9	-0.002942188
163	0x3ab0fcdc	0.0013503092
164	0xbeb836da	-0.35979348
165	0xbd849515	-0.06473748
166	0x3d76969f	0.060202237
167	0xbdc65cc5	-0.09685663
168	0xbf0327e4	-0.51232743
169	0xbd86a332	-0.06574096
170	0xbf1602f0	-0.5859823
171	0xbcf76a2d	-0.030201996
172	0x3c80c3cf	0.015718369
173	0xbe38bf50	-0.1804173
174	0x3ceb521c	0.028725676
175	0xbf939d92	-1.1532462
176	0xbe3b9fcb	-0.18322675
177	0x3edbe993	0.4295164
178	0x3eb095cd	0.3448929
179	0xbeac43da	-0.33645517
180	0x3c3c1888	0.011480458
181	0x3be63a0d	0.007025963
182	0xbdf95080	-0.12173557
183	0xbc9d5e5b	-0.019210031
184	0x3e00ed84	0.12590605
185	0xbccda454	-0.025102772
186	0x3e3ad0c2	0.18243697
187	0x3cb74425	0.022371361
188	0xbf2334f1	-0.6375266
189	0xbde7145b	-0.112831794
190	0xbdb66607	-0.08906179
191	0xbf3be349	-0.73393685
192	0x3e945e9b	0.28978428
193	0xbd822e01	-0.06356431
194	0x3e06a409	0.13148512
195	0x3d96e8cc	0.07368621
196	0xbdb54012	-0.08850111
197	0x3e66d8a6	0.22543582
198	0x3e27d883	0.16391186
199	0x3aae214d	0.0013285071
200	0xbe7686f0	-0.24074912
201	0x3e4b9df1	0.19884469
202	0xbe7548ee	-0.23953602
203	0xbd9c5b40	-0.07634592
204	0xbe803112	-0.25037438
205	0x3e1fda7e	0.15610692
206	0x3dfc02bb	0.12305208
207	0xbeef0b6a	-0.46688396
208	0x3f39111c	0.7229173
209	0x3d993d12	0.07482351
210	0x3a167a44	0.0005740265
211	0x3d326407	0.043552425
212	0xbdf5911f	-0.1199057
213	0x3c0f37e7	0.0087413555
214	0x3e239b9e	0.15977332
215	0x3e80dd38	0.25168777
216	0xbec32366	-0.38112944
217	0xbd86b941	-0.06578303
218	0x3e9ce40e	0.30642742
219	0xbd833f8c	-0.06408605
220	0xbd8d14e6	-0.06888752
221	0xbc89db20	-0.01682812
222	0xbd873a10	-0.066028714
223	0xbe209545	-0.15681942
224	0xbeb091ed	-0.34486333
225	0xbe0e0cbe	-0.13872048
226	0x3e9bef78	0.30456138
227	0xbe1686b6	-0.14699826
228	0x3e205fd3	0.15661554
229	0x3e526863	0.20547633
230	0xbe213833	-0.15744095
231	0xbe94e584	-0.29081357
232	0x3d30dca2	0.04317916
233	0xbee36721	-0.4441462
234	0xbe4fd164	-0.2029472
235	0x3e646895	0.2230552
236	0xbe83e315	-0.25759187
237	0xbd3203e7	-0.043460753
238	0xbe5c7d93	-0.21532278
239	0xbc61198e	-0.013739003
240	0x3d37bb7f	0.044856545
241	0x3e0208b6	0.12698635
242	0xbe4308cd	-0.19046326
243	0xbdc974f2	-0.09836759
244	0xbe1f4807	-0.1555482
245	0xbd206b02	-0.03916455
246	0xbdc79223	-0.0974467
247	0x3e456d75	0.19280036
248	0xbd5b5868	-0.053551108
249	0x3db4a402	0.088203445
250	0x3e32553c	0.17415327
251	0x3dab6ec2	0.08370735
252	0xbe81bba8	-0.25338483
253	0xbdc0b93e	-0.09410332
254	0x3d8af081	0.06784154
255	0xbe080b57	-0.13285576

f_before.2.bias f4 [40]
0	0x3e160594	0.14650565
1	0x3e830991	0.25593236
2	0xbb807636	-0.003920342
3	0xbd73f051	-0.059555355
4	0xbda022d3	-0.07819142
5	0x3d92b4d1	0.07163394
6	0xbdaec72d	-0.085340835
7	0xbddc6f7e	-0.10763453
8	0xbdce1212	-0.100620404
9	0x3db95f3e	0.09051369
10	0xbda923d9	-0.082587905
11	0xbda01294	-0.078160435
12	0xbdc5629c	-0.09637949
13	0xbe3432b5	-0.17597468
14	0xbe215491	-0.15754916
15	0xbd0104a6	-0.031498574
16	0xbde396ab	-0.11112722
17	0x3c22e487	0.0099421805
18	0x3d1515b1	0.03639764
19	0xbc9c6d32	-0.019095037
20	0x3e69fb25	0.2284971
21	0xbd62a501	-0.05533314
22	0x3e36a9ec	0.17838258
23	0xbd9b22dd	-0.07575009
24	0xbd8e23f6	-0.06940453
25	0x3d26557e	0.040608875
26	0xbd09a5a8	-0.033605248
27	0x3df29081	0.11843968
28	0xbc96320a	-0.018334407
29	0x3e7a545e	0.24446246
30	0xbe07aafa	-0.13248816
31	0x3d16053f	0.036626097
32	0xbd84f1a6	-0.06491403
33	0x3e22ccd8	0.15898454
34	0x3c379bb8	0.01120656
35	0x3ddd1a8d	0.1079608
36	0x3b203932	0.0024448154
37	0xbd4fcc29	-0.05073181
38	0xbe48cf6a	-0.19610372
39	0xbd304435	-0.043033797

f_before.4.weight f4 [40, 40]
0	0xbe486ebf	-0.19573496
1	0x3e96e8e1	0.29474548
2	0xbed29fca	-0.41137534
3	0x3e9934c5	0.29923072
4	0x3e201e90	0.15636659
5	0xbdc6584c	-0.0968481
6	0xbe85b804	-0.26116955
7	0xbe3c7119	-0.18402518
8	0xbbb68a94	-0.005570719
9	0x3ef91cae	0.48654693
10	0xbf7b6c50	-0.98212147
11	0xbe4cc40c	-0.19996661
12	0xbf16b2f4	-0.5886681
13	0xbd111935	-0.03542443
14	0x3e5edaa3	0.21763091
15	0xbea18312	-0.3154531
16	0x3e86c591	0.26322606
17	0xbe28d727	-0.16488324
18	0xbf8d5d5e	-1.1044118
19	0xbdead593	-0.11466517
20	0xbe3b2b5b	-0.18278258
21	0xbe7f0b87	-0.24906741
22	0x3f20b810	0.6278086
23	0x3c3dee61	0.0115924785
24	0x3ddd2378	0.10797781
25	0x3d8add7d	0.06780527
26	0xbec57ba1	-0.38570884
27	0xbd02a01e	-0.03189098
28	0x3d516c91	0.051128928
29	0x3e13a48c	0.14418238
30	0xbe252d8f	-0.1613066
31	0x3da2f684	0.079571754
32	0x3e1efd5e	0.1552634
33	0xbe8d3d6c	-0.27585924
34	0xbe1a6c70	-0.15080428
35	0xbe6bc3cb	-0.23023908
36	0x3ea89f0c	0.32933843
37	0xbf15bd90	-0.58492374
38	0x3e6d0ef8	0.23150241
39	0xbf130718	-0.574327
40	0x3d4ebef2	0.05047507
41	0xbdf0fc23	-0.11766841
42	0xbded1abc	-0.11577365
43	0xbe28ea46	-0.16495618
44	0x3c478d42	0.012179675
45	0xbe08ec49	-0.13371386
46	0x3e308780	0.17239189
47	0xbc9318a4	-0.017956086
48	0xbdeb36f4	-0.11485091
49	0x3f1e185f	0.6175594
50	0xbf35d4d2	-0.71027863
51	0x3c8e52a7	0.017373396
52	0xbe8bacf9	-0.27280405
53	0x3e857638	0.26066756
54	0xbdc8f69d	-0.09812663
55	0xbe014657	-0.12624489
56	0x3e33c486	0.17555436
57	0xbd8aefed	-0.067840435
58	0xbdb2bf02	-0.08727838
59	0x3d838bc8	0.064231455
60	0xbc359cb7	-0.011084727
61	0xbe22e825	-0.15908869
62	0x3e6d8ae3	0.23197512
63	0x3e362e8a	0.1779119
64	0xbda6fbf9	-0.08153529
65	0x3e256fe7	0.16155969
66	0xbd2766b4	-0.04086943
67	0x3e0fd095	0.14044411
68	0xbef4b1ad	-0.47791806
69	0x3e61f1a7	0.2206484
70	0x3d93bb87	0.072135024
71	0x3e0b8140	0.13623524
72	0x3e281bb4	0.16416818
73	0xbe47976f	-0.19491361
74	0xbdce9f68	-0.10088998
75	0xbe120c53	-0.14262514
76	0x3ebd40d5	0.36963525
77	0xbe719e49	-0.23595537
78	0xbe2824c6	-0.16420278
79	0xbde09662	-0.10966183
80	0xbdd8946c	-0.10575184
81	0xbe6295b8	-0.22127426
82	0x3ded948b	0.11600598
83	0xbdb4c742	-0.08827068
84	0xbe8cfcb0	-0.27536535
85	0x3d7da569	0.061925326
86	0x3e42ed41	0.19035818
87	0x3e3d8677	0.18508326
88	0x3e98167d	0.29704657
89	0xbe96ecd0	-0.2947755
90	0x3e9bf993	0.30463848
91	0xbe5d0d84	-0.21587187
92	0x3dd8414d	0.1055933
93	0x3e272438	0.1632241
94	0x3ea7cd58	0.32773852
95	0x3e87915c	0.26478088
96	0x3d654cc8	0.055981427
97	0x3d040600	0.032232285
98	0x3e0dfeae	0.13866684
99	0x3c11f41b	0.008908297
100	0xbe37b1ed	-0.17938967
101	0x3d4c1d9b	0.04983292
102	0xbd579306	-0.052630447
103	0x3ee1ea21	0.4412394
104	0x3e452df4	0.19255811
105	0x3e4fef8a	0.2030622
106	0xbb1dac15	-0.0024058868
107	0xbdf3ec22	-0.11910273
108	0x3e2a3202	0.16620639
109	0xbee97462	-0.45596606
110	0x3e568613	0.20949583
111	0x3e6b50e6	0.22980079
112	0x3dfbe381	0.12299252
113	0xbe9066ae	-0.28203338
114	0x3dcdefd9	0.10055513
115	0x3df4db1d	0.11955855
116	0xbe2c38c1	-0.16818525
117	0x3e605600	0.21907806
118	0x3edfe95d	0.4373273
119	0xbf025da3	-0.5092413
120	0x3ca79f7d	0.020461792
121	0x3e1519fd	0.14560695
122	0x3e507a14	0.20359069
123	0xbef07ccb	-0.4697021
124	0xbebbf694	-0.36711562
125	0xbe55b262	-0.20868829
126	0x3b235d7c	0.0024927547
127	0xbed9e1a2	-0.42554957
128	0x3e13aac0	0.14420605
129	0x3e3233db	0.17402594
130	0x3e668985	0.22513397
131	0xbec5cfa9	-0.38634995
132	0x3d7414fd	0.05959033
133	0xbb9ad9dc	-0.004725678
134	0xbc933bab	-0.017972788
135	0xbb6022b9	-0.0034200384
136	0x3ef5018e	0.4785275
137	0x3e0004cb	0.12501828
138	0xbd82368a	-0.06358059
139	0xbf0f5610	-0.55990696
140	0x3e513bf6	0.2043303
141	0xbd3c7d61	-0.04601801
142	0x3d340270	0.043947637
143	0xbeb2f4f8	-0.3495252
144	0x3cfb3c39	0.030668365
145	0xbdaf7de9	-0.08568937
146	0x3d17f758	0.03710112
147	0xbdcbaf36	-0.09945528
148	0x3d37b056	0.0448459
149	0xbe8ec369	-0.2788346
150	0xbf464b80	-0.77458954
151	0xbfc9b03b	-1.5756906
152	0xbcdec48f	-0.027193336
153	0x3efd8d40	0.49521828
154	0xbed49654	-0.4152094
155	0x3f2eceaa	0.68284094
156	0xbe2bc36c	-0.16773766
157	0xbe6dc436	-0.2321938
158	0x3d8b88e1	0.06813217
159	0x3eadb111	0.33924153
160	0xbe21035b	-0.15723936
161	0xbd6163fa	-0.055026986
162	0x3ea81781	0.32830432
163	0x3ea58be2	0.32333285
164	0x3ef9671a	0.48711473
165	0x3d34cc4d	0.04414015
166	0xbc520fad	-0.01282112
167	0x3e2b17af	0.16708253
168	0x3e5434d9	0.20723285
169	0x3dab772f	0.08372342
170	0x3e9f7b7b	0.31148896
171	0xbe22600c	-0.15856951
172	0xbe828dfd	-0.25498953
173	0x3b3267cd	0.0027222515
174	0xbd1479f8	-0.03624913
175	0xbc93f74a	-0.018062253
176	0x3ea35337	0.31899425
177	0xbeb3b274	-0.35097086
178	0x3df9dac9	0.12199933
179	0xbd75b3a2	-0.059985764
180	0xbd365647	-0.044515874
181	0xbe476fd9	-0.1947626
182	0x3de02867	0.10945206
183	0x3d1fc7f1	0.03900904
184	0xbe22cbbb	-0.1589803
185	0x3e36020c	0.17774218
186	0xbc3e1bab	-0.011603276
187	0xbde6745b	-0.11252662
188	0x3e5eda7f	0.21763037
189	0x3e60284c	0.21890372
190	0x3e23f099	0.1600975
191	0xbdd72c98	-0.105065525
192	0xbca522bc	-0.020158164
193	0xbdaf956d	-0.085734226
194	0x3e4fc1ca	0.20288768
195	0x3e60674e	0.21914408
196	0xbcc50073	-0.024048066
197	0x3ed9750e	0.42472118
198	0x3d68ebd1	0.056865517
199	0x3f06e7e2	0.52697575
200	0xbe012137	-0.12610327
201	0x3e79ac32	0.24382094
202	0x3e0cdaac	0.13755292
203	0xbecba194	-0.39771712
204	0xbfbf10ed	-1.492704
205	0x3d7a70d4	0.061142758
206	0xbc99e514	-0.01878599
207	0x3e11423d	0.14185424
208	0xbeaf3e7b	-0.34227356
209	0x3d60aaad	0.05485027
210	0xbd237409	-0.03990558
211	0x3d8fd03a	0.07022138
212	0x3a99ee92	0.0011744073
213	0x3caa0c20	0.020757735
214	0xbcd59077	-0.026069863
215	0xbdafe451	-0.0858847
216	0x3ddaa4d1	0.106759675
217	0xbe14ed74	-0.14543706
218	0xbef2a440	-0.47390938
219	0xbdf949df	-0.12172293
220	0x3e918c99	0.2842758
221	0x3e8580ba	0.26074773
222	0x3e8f3c5b	0.27975735
223	0xbe249a45	-0.16074474
224	0x3d1ad2f7	0.037798848
225	0xbe4209e4	-0.18949085
226	0xbd498ed8	-0.049208492
227	0xbe6f5486	-0.23372087
228	0xbf128e89	-0.5724874
229	0x3e1bb9dd	0.1520762
230	0x3d172e4a	0.03690938
231	0xc0062aa7	-2.0963533
232	0x3d3936b0	0.04521817
233	0x3e97c50d	0.29642525
234	0x3e281295	0.16413338
235	0x3eaaae2f	0.33336017
236	0x3dda2e24	0.10653332
237	0x3e0bfe51	0.13671233
238	0xbe71a614	-0.2359851
239	0xbf0ada49	-0.54239327
240	0x3cfeb5d4	0.031092562
241	0x3c6646f0	0.014054999
242	0xbdfd33d9	-0.12363405
243	0x3cc4bb6e	0.024015155
244	0xbdee5e98	-0.11639136
245	0x3ccd1022	0.025032107
246	0xbcf526a2	-0.029925648
247	0xbd9b3c69	-0.07579882
248	0x3eb08652	0.34477478
249	0xbe135be9	-0.1439053
250	0x3de21bc9	0.11040456
251	0xbd1d93bd	-0.038470972
252	0x3e7fee09	0.24993147
253	0x3e6b70f9	0.22992314
254	0x3df4b64b	0.11948832
255	0xbd2951f0	-0.041337907

f_before.4.bias f4 [40]
0	0x3dae7f25	0.08520345
1	0xbe010468	-0.12599337
2	0xbe4487d4	-0.1919244
3	0x3cb14d4c	0.021643303
4	0xbdd0dffc	-0.10198972
5	0x3db9305e	0.090424284
6	0xbdd4ca5a	-0.10390158
7	0xbdd3810d	-0.10327349
8	0x3c734a9c	0.014849331
9	0x3d42f53c	0.047597155
10	0xbdd1f974	-0.102526575
11	0xbc06d2d0	-0.008228973
12	0x3e11745f	0.14204548
13	0xbde98b3b	-0.11403509
14	0x3d4a0ae4	0.049326792
15	0x3ec0a4c1	0.37625697
16	0xbd7cbe60	-0.061704993
17	0x3b2a6b0d	0.0026003749
18	0xbde9c8e8	-0.11415273
19	0xbdfc8b39	-0.12331242
20	0x3da46007	0.08026128
21	0xbd9aac9c	-0.07552454
22	0xbe0b1d4e	-0.13585398
23	0xbcce49b1	-0.025181623
24	0x3ad8ab7a	0.0016530596
25	0x3df303e3	0.11865976
26	0xbc1d0dea	-0.009585837
27	0xbdd12b21	-0.10213304
28	0xbd608386	-0.05481293
29	0xbc515728	-0.012777127
30	0xbe4e0c34	-0.20121843
31	0xbc5a52f9	-0.013325446
32	0xbd1c4537	-0.038151946
33	0xbe1e2cf4	-0.15446836
34	0xbdab6d91	-0.083705075
35	0xbd16c51a	-0.036809064
36	0x3d8f9cdb	0.0701234
37	0xbe103cf5	-0.14085753
38	0xbdd96947	-0.10615783
39	0xbe4d30a9	-0.20038094

f_after.0.weight f4 [40, 113]
0	0x3e0b9819	0.1363224
1	0xbd16b45d	-0.0367931
2	0xbe6a2524	-0.2286573
3	0x3daa2886	0.083085105
4	0x3e1962d4	0.14979106
5	0xbe0e0881	-0.13870431
6	0x3e813738	0.2523744
7	0x3c9dcefc	0.019263737
8	0x3dac05fa	0.083995774
9	0x3ddd3ac9	0.10802228
10	0xbe2a0dec	-0.16606873
11	0xbeb784d3	-0.35843524
12	0x3e3f4f96	0.18682703
13	0xbbf4f53a	-0.0074755223
14	0x3b4eeba0	0.003157355
15	0x3dc00997	0.09376829
16	0x3dea6c3a	0.11446424
17	0xbdd74044	-0.105103046
18	0xbe5c50d1	-0.21515204
19	0xbe436333	-0.1908081
20	0x3cba5935	0.022747615
21	0xbd055f7e	-0.03256177
22	0x3cff3b95	0.03115634
23	0xbe34c687	-0.17653857
24	0xbd677754	-0.056510285
25	0xbd9a34ff	-0.075296395
26	0x3e7d91f1	0.24762703
27	0x3cfd7e55	0.030944029
28	0xbd46e3bb	-0.048557024
29	0xbe4d79c3	-0.2006598
30	0x3ccc81a6	0.024964165
31	0x3d1680d5	0.036743958
32	0xbdbb6ce1	-0.091516264
33	0x3ed75491	0.42056707
34	0xbdca8f22	-0.09890582
35	0xbde84a0e	-0.1134225
36	0xbe8eab12	-0.2786489
37	0x3e8b91e0	0.2725973
38	0x3e3f01f6	0.18653092
39	0xbd98281b	-0.074295245
40	0x3d0c8a8a	0.03431181
41	0x3dc1f0cf	0.09469759
42	0x3e137957	0.14401756
43	0xbcb263c6	-0.021776091
44	0xbe29a961	-0.16568519
45	0x3cf18721	0.02948338
46	0xbf1502c9	-0.58207375
47	0x3df550ad	0.11978278
48	0xbe1c6c0f	-0.15275596
49	0x3e1c734a	0.15278354
50	0x3e142fb5	0.14471324
51	0xbdbfb062	-0.09359814
52	0xbd643336	-0.0557129
53	0xbe026cbc	-0.12736791
54	0xbe650d84	-0.22368437
55	0xbbcc54c7	-0.006235692
56	0x3d91dbb1	0.07121981
57	0xbe3cd7fe	-0.1844177
58	0x3c1506d2	0.009095864
59	0xbe129694	-0.14315253
60	0xbe1969b6	-0.14981732
61	0x3d0ace0a	0.0338879
62	0xbd98376e	-0.074324474
63	0x3d4ff0c3	0.050766718
64	0xbd06ce04	-0.032911316
65	0x3e23bd75	0.15990241
66	0x3dba029b	0.09082528
67	0x3d5b31c9	0.053514276
68	0x3d0c162b	0.03420083
69	0xbe980e76	-0.29698533
70	0xbcb049c4	-0.02151955
71	0xbce9da4c	-0.028546475
72	0xbe2d758b	-0.1693937
73	0x3e2067a7	0.1566454
74	0xbea8b299	-0.3294876
75	0xbeb0ebb5	-0.3455483
76	0xbe975daa	-0.29563648
77	0xbe2fd9b7	-0.17172895
78	0xbccf6fc2	-0.025321845
79	0xbd19341b	-0.037403207
80	0xbe4eb9b1	-0.20188023
81	0xbe5ff3ce	-0.21870348
82	0xbe933666	-0.2875244
83	0x3d77bd71	0.0604834
84	0x3e27c93f	0.16385363
85	0x3e991182	0.2989617
86	0x3d5abe55	0.05340417
87	0xbed9b6b7	-0.42522213
88	0xbcf11958	-0.02943103
89	0x3bf70839	0.007538822
90	0xbe205b27	-0.15659772
91	0xbe2170db	-0.15765707
92	0x3d47b9c4	0.048761144
93	0x3eae0288	0.33986306
94	0xbd48a9b3	-0.048989963
95	0xbe881bd5	-0.26583734
96	0x3e0e1104	0.13873678
97	0x3d41a6f9	0.04727838
98	0x3d1b91cf	0.03798085
99	0x3c8c9c23	0.017164296
100	0x3d98546c	0.07437977
101	0xbcc77a52	-0.024350319
102	0x3eb47db4	0.35252154
103	0x3e7ce017	0.24694858
104	0xbc95dbed	-0.018293345
105	0xbe1b7be8	-0.15183985
106	0xbe4c2b52	-0.199384
107	0xbe6df436	-0.2323769
108	0x3da98071	0.082764514
109	0x3e5043c3	0.20338349
110	0x3d967349	0.07346208
111	0xbd6f3488	-0.058399707
112	0xbe02729d	-0.12739034
113	0xbd6ff8e9	-0.05858699
114	0xbd0406ff	-0.032233234
115	0xbd6d5606	-0.057943366
116	0x3d09a0b8	0.03360054
117	0x3b2c6b3f	0.002630904
118	0x3d59dacd	0.05318718
119	0xbe3f0583	-0.18654446
120	0xbe6d3013	-0.2316287
121	0x3bd553c7	0.006510231
122	0xbd8938cf	-0.067002885
123	0x3ecc9c06	0.39962786
124	0xbe2126fb	-0.15737526
125	0x3e374e26	0.17900905
126	0x3cb6e24c	0.022324704
127	0xbd5fec76	-0.054668866
128	0xbe9e66a7	-0.30937693
129	0xbc910ff1	-0.017707797
130	0x3ddb4acc	0.10707626
131	0x3e097ae3	0.13425784
132	0xbcf1971d	-0.029491002
133	0xbd2be972	-0.041970678
134	0x3e9d3ab1	0.3070884
135	0xbe5abc7b	-0.21360962
136	0x3d086094	0.03329523
137	0xbd99203b	-0.074768506
138	0x3e38528d	0.1800024
139	0x3d6e785f	0.058220264
140	0x3c96dd4b	0.018416068
141	0x3d4ec53e	0.050481074
142	0x3d8deb30	0.06929624
143	0xbd01aae5	-0.03165712
144	0xbdb1d547	-0.086832576
145	0x3d9a00c7	0.075196795
146	0xbd014f95	-0.031570036
147	0xbe406b77	-0.18790995
148	0x3dcdaf1e	0.100431666
149	0x3dd051ab	0.10171827
150	0x3e8e5d10	0.27805376
151	0xbe53ee2c	-0.20696324
152	0xbbfa5730	-0.007639788
153	0xbd2c8969	-0.042123232
154	0x3d83d9a6	0.064379975
155	0x3e976aaa	0.29573566
156	0x3e32368b	0.17403619
157	0x3e180ba4	0.1484819
158	0xbde2e57b	-0.11078926
159	0x3e4f03ad	0.20216246
160	0xbda4bc6b	-0.080437504
161	0xbd7cce3f	-0.06172013
162	0x3e939e4f	0.28831717
163	0x3ec24261	0.37941268
164	0x3e893c86	0.26803988
165	0x3d8d85b6	0.06910269
166	0x3d64a89c	0.05582486
167	0x3df3ccdd	0.11904309
168	0x3d823017	0.06356829
169	0xbdbd1a38	-0.092335165
170	0x3dcdae1a	0.10042973
171	0x3e2a54f1	0.16633965
172	0xbd944a60	-0.072407484
173	0xbdd4fb40	-0.10399485
174	0xbc958d58	-0.018255875
175	0xbc2ace28	-0.010425128
176	0x3c75dfa7	0.015006936
177	0xbe21c772	-0.15798739
178	0xbe7618db	-0.24032919
179	0x3e15ef0d	0.14641972
180	0x3cf939b2	0.03042302
181	0xbdc1eca1	-0.094689615
182	0xbe4f51e9	-0.2024609
183	0x3e0b0a91	0.1357825
184	0xbe630250	-0.22168851
185	0xbe82b706	-0.2553026
186	0xbe214374	-0.15748388
187	0x3c3a29f4	0.0113625415
188	0xbe8c1b1b	-0.2736443
189	0xbe9279b6	-0.28608483
190	0xbd861644	-0.065472156
191	0xbee4313e	-0.4456882
192	0xbdd95106	-0.10611157
193	0xbf08ebf5	-0.5348504
194	0x3cde3232	0.027123544
195	0xbdeefbb6	-0.11669104
196	0xbd8532b0	-0.065038085
197	0x3dc52243	0.096256755
198	0x3dd588b0	0.10426462
199	0x3d2e81af	0.042604145
200	0xbdb1af91	-0.08676065
201	0x3dcb80b1	0.09936655
202	0x3de2ce0d	0.11074457
203	0xbd9c2def	-0.07625949
204	0xbe880a62	-0.2657042
205	0x3ca243a1	0.019807639
206	0x3ed267d3	0.41094837
207	0xbf00a820	-0.5025654
208	0xbecfce52	-0.40587097
209	0xbee5ea56	-0.44905347
210	0xbe83b634	-0.25724947
211	0xbd6d7af8	-0.0579786
212	0xbe928ae1	-0.2862158
213	0xbe8088d0	-0.2510438
214	0xbd165aac	-0.036707565
215	0xbec30432	-0.38089138
216	0xbdc6732d	-0.09689937
217	0xbd13455a	-0.03595481
218	0xbda6bfc5	-0.08142046
219	0x3d70b74d	0.05876856
220	0x3e663851	0.2248242
221	0xbe697e10	-0.22801995
222	0x3d8b8002	0.06811525
223	0xbe875ef4	-0.2643963
224	0xbd236e8d	-0.03990035
225	0x3e4a326e	0.197458
226	0xbd5dca69	-0.05414811
227	0x3d8fcfa1	0.07022024
228	0xbe920af3	-0.2852398
229	0x3d84eb95	0.06490246
230	0x3d2e88bc	0.04261087
231	0xbda64def	-0.081203334
232	0x3dda7ec7	0.10668712
233	0x3d989c94	0.0745174
234	0x3e430ec5	0.19048603
235	0x3e5fdfbc	0.21862692
236	0xbdce5a4f	-0.10075819
237	0xbe748423	-0.23878531
238	0x3dca7531	0.09885634
239	0x3d8aef18	0.06783885
240	0x3d9c4a7e	0.07631396
241	0xbd85127a	-0.06497665
242	0x3d03b0c2	0.03215099
243	0xbea605ba	-0.32426244
244	0xbe4b6ab7	-0.19864927
245	0xbddc486b	-0.10756
246	0xbd52555d	-0.05135094
247	0x3ccdc6f6	0.025119286
248	0x3d364e68	0.044508368
249	0xbf070595	-0.5274289
250	0x3d81505a	0.06314154
251	0x3ce3d27b	0.027810326
252	0xbdb037e9	-0.08604414
253	0xbb5af05f	-0.0033407432
254	0x3c24f7ac	0.010068815
255	0xbf1f00ab	-0.62110394

f_after.0.bias f4 [40]
0	0x3d61e35b	0.055148464
1	0xbda4dbf7	-0.080497675
2	0x3d96175c	0.07328674
3	0xbd1b33be	-0.037891142
4	0xbbea97c9	-0.0071592075
5	0x3d74995b	0.059716564
6	0x3d41abff	0.04728317
7	0x3d9eac27	0.07747679
8	0x3d89555f	0.06705736
9	0xbd983e81	-0.07433797
10	0x3de6cc9d	0.11269496
11	0xbc627529	-0.0138218785
12	0x3ca4dbb7	0.0201243
13	0x3c5e0d3c	0.01355296
14	0x3d965b59	0.07341642
15	0x3d061b10	0.032740653
16	0x3b5571c8	0.003256904
17	0x3d1bc45d	0.038029063
18	0x3e04b416	0.12959322
19	0xbd556b1d	-0.052104104
20	0x3dcdfe6f	0.10058295
21	0x3d17f372	0.037097402
22	0x3c97dd69	0.018538194
23	0x3df3786f	0.11888205
24	0x3c4789a7	0.012178815
25	0x3db069d6	0.086139366
26	0x3e039cf4	0.12852842
27	0xbd3be59a	-0.045873262
28	0x3dc7428b	0.09729489
29	0x3d89a8ba	0.06721635
30	0x3d899ff2	0.0671996
31	0xbcc64d07	-0.024206651
32	0xbd1321a5	-0.035920758
33	0x3e053c61	0.13011314
34	0xbd8cf24b	-0.06882151
35	0x3c48fd0a	0.01226736
36	0x3b0617ad	0.002046089
37	0xbcd0ac5f	-0.025472818
38	0x3e21ef7f	0.15814017
39	0x3c61d5b2	0.013783859

f_after.2.weight f4 [40, 40]
0	0xbe4acaec	-0.19803971
1	0xbdf00d5b	-0.11721297
2	0xbde4c6d8	-0.11170739
3	0x3ca6dfb8	0.02037035
4	0xbca70318	-0.020387217
5	0xbea73a00	-0.32661438
6	0x3d5a93d6	0.053363644
7	0xbccfdace	-0.025372889
8	0xbd7c00a3	-0.061524045
9	0xbebfc24c	-0.37452924
10	0xbf2b02a0	-0.6680088
11	0xbf50d9fc	-0.8158262
12	0xbe665d6c	-0.22496575
13	0xbe02d221	-0.1277547
14	0x3e6980ff	0.22803114
15	0xbeaa4f69	-0.3326371
16	0x3eb71159	0.35755423
17	0x3e955780	0.2916832
18	0x3d5d42ce	0.054018788
19	0x3ec24102	0.37940222
20	0xbcf614ed	-0.030039275
21	0xbe6623bf	-0.22474574
22	0x3d6fcfd8	0.058547825
23	0x3db6b422	0.08921076
24	0x3e3ddd97	0.18541561
25	0x3d92eb1d	0.071737505
26	0xbd1a801d	-0.037719835
27	0xbeac034c	-0.33596265
28	0xbcb08bdc	-0.021551065
29	0xbb30d605	-0.0026983034
30	0xbf1dd459	-0.6165214
31	0x3e14fd2d	0.14549704
32	0x3e558514	0.20851547
33	0x3dca5ffd	0.098815896
34	0xbf1e5772	-0.6185218
35	0x3cf2372c	0.029567324
36	0x3db9bc03	0.090690635
37	0x3e1f9fd2	0.1558831
38	0x3e40caa8	0.18827307
39	0x3d6dd953	0.058068585
40	0xbe0ea6de	-0.13930842
41	0x3e1df19d	0.154242
42	0xbd9ba896	-0.076005146
43	0x3e21ccb5	0.15800746
44	0x3e2cdbf5	0.16880782
45	0x3de82b89	0.11336429
46	0x3eb10a6e	0.3457827
47	0xbca3b3bf	-0.01998317
48	0xbea12942	-0.3147679
49	0x3e25380f	0.16134666
50	0x3e1a2de0	0.15056562
51	0x3d8be899	0.06831474
52	0x3eef890c	0.46784246
53	0x3e1d8dc1	0.15386106
54	0x3e448027	0.19189511
55	0xbe832623	-0.25615034
56	0xbf190815	-0.5977796
57	0xbca36d0e	-0.019949462
58	0xbdbbf321	-0.091772325
59	0xbea66be6	-0.32504195
60	0xbd7e7052	-0.062118836
61	0xbe14a3fa	-0.14515677
62	0xbf0f3d34	-0.55952764
63	0xbe51c6ae	-0.20485947
64	0xbdc3e24a	-0.095646456
65	0x3bd891a6	0.0066091595
66	0x3d90efc6	0.07076983
67	0xbe25ceb8	-0.16192138
68	0x3eae7ce8	0.3407967
69	0xbb885f56	-0.0041617556
70	0x3d225e1a	0.039640523
71	0xbe77b34b	-0.24189489
72	0x3e1b6d01	0.151783
73	0xbdf64e86	-0.12026696
74	0x3e63d7d4	0.222503
75	0x3c98c4a9	0.018648462
76	0xbd8aa73f	-0.06770181
77	0x3db0e0e7	0.08636647
78	0xbe379150	-0.17926526
79	0xbe87d6c3	-0.26531038
80	0x3e0869d4	0.1332162
81	0xbdc5dc03	-0.096611045
82	0x3e3e37f9	0.1857604
83	0xbe55ed5c	-0.20891327
84	0xbdd963d2	-0.10614742
85	0xbe8529e5	-0.26008525
86	0x3e267562	0.16255715
87	0x3e313043	0.17303567
88	0xbb8162c5	-0.003948542
89	0x3eb89689	0.3605235
90	0x3db76b2f	0.089559905
91	0x3db3001e	0.08740257
92	0xbe12602a	-0.14294496
93	0xbe8181d9	-0.25294378
94	0x3e5c5687	0.21517383
95	0xbdb82fd7	-0.089935
96	0xbc46be1a	-0.012130285
97	0x3e1ca0f4	0.15295774
98	0xbdc38571	-0.09546936
99	0xba3d2079	-0.00072146166
100	0x3dd5b9e6	0.10435848
101	0x3ea69750	0.32537317
102	0x3e23c3de	0.15992686
103	0x3c2790be	0.01022738
104	0x3e97111f	0.2950525
105	0xbd8fbf6c	-0.07018933
106	0xbe8cf59f	-0.27531144
107	0x3d8ba28d	0.068181135
108	0x3dd3f4f7	0.10349458
109	0xbe7b51ec	-0.2454297
110	0xbe4e5d73	-0.20152836
111	0x3e37cde1	0.1794963
112	0xbe6ec0f7	-0.23315798
113	0xbd2064e1	-0.039158706
114	0xbf3cf5ab	-0.7381236
115	0xbd8f5e6e	-0.07000433
116	0x3e914800	0.28375244
117	0xbdbb2f84	-0.09139922
118	0x3cbd2f4a	0.023093838
119	0x3efe5b59	0.49679068
120	0xbe38257a	-0.17983046
121	0x3dd09385	0.10184387
122	0x3d83a087	0.064271025
123	0x3f071118	0.5276046
124	0x3e98c1f4	0.29835474
125	0xbe741232	-0.23835066
126	0xbf13ea10	-0.57779026
127	0x3dbb0d8b	0.091334425
128	0x3e92a387	0.28640386
129	0xbd491749	-0.049094472
130	0xbf973e61	-1.1815912
131	0x3b1c3dd9	0.0023840575
132	0x3e696a5c	0.22794479
133	0xbd42d2a5	-0.047564168
134	0xbe5d1950	-0.21591687
135	0x3db6426d	0.088993885
136	0xbfa731fe	-1.3062131
137	0xbe8b0491	-0.2715192
138	0x3e6aa73f	0.22915362
139	0x3e1f3798	0.15548551
140	0x3bb41b07	0.005496386
141	0xbd291bc3	-0.04128624
142	0x3e26b319	0.16279258
143	0x3c8d1ebe	0.017226573
144	0x3ed3aec9	0.41344288
145	0x3e50a640	0.2037592
146	0x3e895c77	0.26828358
147	0x3e979333	0.29604492
148	0x3c2c5310	0.0105178505
149	0x3e389e96	0.18029246
150	0x3e0457bc	0.12924093
151	0xbe11976a	-0.14217916
152	0x3ec439aa	0.38325244
153	0xbea10bdb	-0.31454358
154	0x3ec86ab1	0.391439
155	0x3dd917b9	0.10600228
156	0xbe54a11a	-0.2076458
157	0xbd385da4	-0.045011178
158	0xbd8590fd	-0.06521795
159	0xbe808910	-0.2510457
160	0xbd9af716	-0.07566659
161	0x3e7466cc	0.23867339
162	0x3d8b58e3	0.06804063
163	0x3e96e568	0.29471898
164	0xbd2403c7	-0.040042665
165	0x3e1e9822	0.15487722
166	0xbe36f994	-0.17868644
167	0x3d8a4d48	0.067530215
168	0x3de43871	0.11143578
169	0x3e9de4f0	0.30838728
170	0xbf89f8ab	-1.0779012
171	0x3e3a72cc	0.18207854
172	0xbe762be1	-0.24040176
173	0x3d38a382	0.04507781
174	0xbc7c63f6	-0.015404692
175	0x3e88783b	0.2665423
176	0xbf833c0d	-1.0252701
177	0xbe464d12	-0.19365337
178	0x3c6a1a9e	0.014288573
179	0x3e852e7e	0.26012033
180	0x3cb54f80	0.022132635
181	0xbeecddb5	-0.462629
182	0xbba1f8c0	-0.0049429834
183	0xbe01b0ea	-0.12665144
184	0x3e668c29	0.22514404
185	0xbe142dd8	-0.14470613
186	0xbe2281a8	-0.15869772
187	0x3e5935ff	0.21212004
188	0xbf2d28a7	-0.67640156
189	0xbe68fc98	-0.22752607
190	0x3da4c0f3	0.08044615
191	0xbe991201	-0.29896548
192	0x3e1d535c	0.1536383
193	0xbf1fa77b	-0.6236493
194	0x3daa75a2	0.08323218
195	0x3ed2b439	0.41153124
196	0xbf0b2090	-0.5434656
197	0x3e485c32	0.1956642
198	0x3e370400	0.1787262
199	0x3e2d0f60	0.16900396
200	0x3e36acff	0.1783943
201	0x3df43c63	0.1192558
202	0xbec6452b	-0.38724646
203	0xbc06ca33	-0.008226919
204	0x3e91f05b	0.2850369
205	0xbd8242a9	-0.06360371
206	0x3ed47dca	0.4150222
207	0x3d265444	0.040607706
208	0x3e0dc696	0.13845286
209	0xbe11c449	-0.14235033
210	0xbee9c2de	-0.45656484
211	0x3ea96505	0.33084884
212	0xbf1ccaa0	-0.6124668
213	0x3d25a588	0.040441066
214	0x3e8271e9	0.25477532
215	0xbc59f258	-0.013302408
216	0xbeb619b7	-0.35566494
217	0x3e3bfd3f	0.18358324
218	0xbd27ef9b	-0.04099999
219	0xbcc3bd6e	-0.023894038
220	0xbe492872	-0.19644335
221	0x3d8bfc42	0.06835224
222	0xbdb660f3	-0.0890521
223	0x3e032856	0.12808356
224	0xbcac1686	-0.021006834
225	0x3da2a765	0.07942084
226	0x3ded6329	0.11591179
227	0x3d9acede	0.07558988
228	0xbe08648f	-0.1331961
229	0x3e07755c	0.13228363
230	0xbe6bede9	-0.23039974
231	0x3ea6db11	0.3258901
232	0x3dd2ba90	0.1028949
233	0xbd35780f	-0.04430395
234	0x3e44aec4	0.19207293
235	0xbdb16bc6	-0.08663134
236	0xbcadf3a5	-0.021234343
237	0x3e294fbe	0.16534325
238	0x3e408dc8	0.18804085
239	0x3f36b351	0.71367365
240	0xbc31832b	-0.010834496
241	0x3d8e4062	0.06945874
242	0x3e9e958b	0.30973467
243	0x3eba8fa1	0.36437705
244	0x3d8b4fb8	0.068023145
245	0x3ddc1e73	0.10747995
246	0xbe35829b	-0.17725603
247	0xbe12810d	-0.14307041
248	0xbc66dda0	-0.014090925
249	0xbe730cd1	-0.23735358
250	0xbf954e97	-1.1664609
251	0x3e87f7e4	0.26556313
252	0xbf0a9864	-0.5413878
253	0x3e3b7521	0.183064
254	0x3e3923c2	0.18080047
255	0x3e95a389	0.2922633

f_after.2.bias f4 [40]
0	0xbc9f2142	-0.019425038
1	0x3ccf944b	0.025339266
2	0x3c61fd4a	0.013793299
3	0x3c8067c6	0.015674483
4	0xbde14890	-0.11000168
5	0x3d8154f1	0.063150294
6	0x3cb33c0e	0.021879222
7	0x3e0c24fc	0.13685983
8	0xbdfaee92	-0.12252535
9	0x3cb666e2	0.022265855
10	0xbd1b8c9f	-0.037975904
11	0x3c874feb	0.0165176
12	0xbc22c016	-0.009933492
13	0x3dce2125	0.100649156
14	0x3e37a882	0.17935374
15	0x3d71152c	0.05885808
16	0xbde45f2b	-0.11150964
17	0x3cf383b3	0.029725885
18	0xbe18e1fc	-0.14929956
19	0x3d12b416	0.035816275
20	0xbcd50f28	-0.026008204
21	0xbc9f2fee	-0.019432034
22	0x3d761fbd	0.06008886
23	0x3ddb2d90	0.1070205
24	0xbdc3a588	-0.09553057
25	0x3d953c18	0.072868526
26	0xbcff553f	-0.031168578
27	0xbda35094	-0.079743534
28	0xbe0e961c	-0.1392445
29	0xbeb0e54d	-0.34549943
30	0x3d189304	0.03724958
31	0x3e0bd3ed	0.13655062
32	0x3e132414	0.14369231
33	0x3e144a40	0.14481449
34	0x3dadd64f	0.08488142
35	0xbd4309d7	-0.047616806
36	0xbe27efed	-0.16400118
37	0x3d941ad3	0.07231679
38	0x3d0ff57b	0.035146218
39	0x3c78a71a	0.015176559

f_after.4.weight f4 [40, 40]
0	0x3bac0f68	0.00525086
1	0x3e4a4481	0.19752695
2	0x3c20d7d5	0.009817083
3	0xbe73ac26	-0.23796138
4	0x3e456093	0.19275121
5	0x3dfced95	0.12350003
6	0xbeacd56d	-0.3375658
7	0x3e3cfd49	0.18455996
8	0x3ecc7818	0.39935374
9	0xbcf1a3dc	-0.02949708
10	0xbe866b05	-0.26253524
11	0xbf00383f	-0.50085825
12	0xbdb270ed	-0.08712945
13	0xbe382859	-0.17984141
14	0x3ea39db9	0.3195627
15	0xbdb51185	-0.08841232
16	0x3e3768cb	0.17911069
17	0xbf22e7be	-0.6363486
18	0x3e15ad63	0.14616923
19	0x3e0b8b5d	0.13627382
20	0xbde36ba8	-0.11104518
21	0x3d9bca7f	0.076069824
22	0x3e190bf9	0.14945973
23	0x3de527e1	0.11189247
24	0x3e8c2f98	0.2738006
25	0x3d88daf5	0.06682388
26	0xbd714618	-0.058904737
27	0x3e7c7174	0.24652654
28	0x3ef9f8ef	0.48822734
29	0xbe6be5c2	-0.23036864
30	0xbc262cbc	-0.010142501
31	0x3e26776b	0.16256492
32	0xbe12e6e6	-0.14345893
33	0xbc77611d	-0.015098837
34	0xbee0fc88	-0.43942666
35	0x3d1fccc4	0.03901364
36	0xbeb8af90	-0.36071444
37	0xbcc00508	-0.0234399
38	0x3aee1dbf	0.0018166824
39	0x3ea96160	0.33082104
40	0xbe7742db	-0.24146597
41	0xbf4a15d2	-0.78939545
42	0xbfa880d1	-1.3164312
43	0x3e874be6	0.26425093
44	0x3eb79f2a	0.3586362
45	0xbd921471	-0.07132805
46	0xbd50fe20	-0.051023602
47	0xbeb42bcc	-0.35189664
48	0x3e49d1a3	0.19708876
49	0x3e4ce4a4	0.20009094
50	0xbda508f5	-0.08058349
51	0xbe1c7e0e	-0.15282461
52	0xbd89eab9	-0.06734223
53	0xbef4979d	-0.47771922
54	0xbcbdeea5	-0.023185084
55	0x3d557237	0.052110877
56	0x3ea4822f	0.32130572
57	0xbd57bc56	-0.052669846
58	0xbe80e0e3	-0.25171575
59	0x3eac130b	0.3360828
60	0x3e791649	0.24324907
61	0xbeebb875	-0.46039167
62	0x3e3aeb6e	0.18253872
63	0xbf2a6e20	-0.6657429
64	0xbee2dc6f	-0.44308802
65	0x3eb094cb	0.3448852
66	0x3ecabff0	0.39599562
67	0xbe680d48	-0.22661316
68	0xbf30197a	-0.68788874
69	0xbf17c4d5	-0.59284717
70	0x3caa9589	0.020823257
71	0x3c105677	0.008809677
72	0x3e3ae018	0.18249547
73	0xbdac26a6	-0.08405809
74	0xbd47ca17	-0.048776712
75	0xbd3481a9	-0.044068966
76	0x3e0534c9	0.13008417
77	0xbe4026d1	-0.18764807
78	0x3e655ec3	0.2239943
79	0x3d92bc60	0.07164836
80	0x3e48a611	0.195946
81	0x3c26056e	0.0101331305
82	0xbd31a6e4	-0.04337205
83	0x3dad9c7f	0.08477115
84	0x3e8d89f9	0.27644327
85	0x3ecb28ac	0.39679468
86	0x3dedeb0d	0.11617098
87	0x3e006338	0.12537849
88	0x3e3d812a	0.18506303
89	0x3e7ea560	0.24867773
90	0x3e4a97fe	0.19784543
91	0x3d2f3028	0.042770535
92	0xbf127fbb	-0.5722615
93	0xbd8901b5	-0.06689779
94	0x3def7eec	0.1169413
95	0xbdec9833	-0.11552467
96	0xbe827812	-0.2548223
97	0x3e793dfe	0.24340054
98	0x3e06b80e	0.13156149
99	0xbdb04b22	-0.086080804
100	0xbcaa3350	-0.02077642
101	0xbe31e2d0	-0.17371678
102	0x3c8f6d02	0.017508034
103	0xbd533d59	-0.051572178
104	0xbebb41d2	-0.36573654
105	0xbc917a2c	-0.017758451
106	0x3eecbf38	0.46239638
107	0xbdb3b277	-0.08774274
108	0xbf8729a3	-1.0559582
109	0xbccbea24	-0.02489192
110	0x3d068090	0.03283745
111	0xbe0cecc8	-0.137622
112	0x3e236c4c	0.1595928
113	0x3c9f0531	0.019411655
114	0x3d9a60db	0.07538005
115	0xbd544e79	-0.05183265
116	0xbde0e93d	-0.10981987
117	0xbb6f1885	-0.003648312
118	0x3eb8e2a5	0.36110416
119	0x3d9300ea	0.07177909
120	0x3e159cae	0.1461055
121	0x3e319cf0	0.17345023
122	0xbc911cfe	-0.01771402
123	0x3c8ac0e2	0.016937677
124	0x3e825e2c	0.25462472
125	0xbe075402	-0.1321564
126	0xbeecd568	-0.46256566
127	0x3e67e63e	0.22646424
128	0x3d551e50	0.05203086
129	0x3cf1a9bc	0.029499881
130	0xbf24d440	-0.6438637
131	0x3d11d0fe	0.0355997
132	0x3cb05700	0.02152586
133	0x3eef93e1	0.4679251
134	0x3d52ca1d	0.05146228
135	0x3ee24a72	0.44197422
136	0xbe333d5b	-0.17503874
137	0xbdcd68c4	-0.10029748
138	0xbc8134fc	-0.015772335
139	0x3e96579e	0.29363722
140	0xbedb9ca8	-0.42892957
141	0xbe6596c3	-0.22420792
142	0x3dd599dd	0.10429738
143	0xbe520716	-0.20510516
144	0xbc854805	-0.016269693
145	0xbd81cc8a	-0.06337841
146	0x3e601a37	0.21885
147	0x3e1bd80a	0.15219131
148	0xbe6ee6ce	-0.23330233
149	0x3e1acac3	0.1511641
150	0xbdec27ba	-0.11531015
151	0xbe5bac6e	-0.21452495
152	0x3d7f22ae	0.062288933
153	0x3dacd27c	0.08438584
154	0xbe5eb659	-0.21749248
155	0xbe5b4bb1	-0.21415593
156	0xbed32b4e	-0.41243976
157	0xbcaa195d	-0.020764047
158	0xbe0e5b8e	-0.13902113
159	0x3e74e817	0.2391666
160	0xbc78c93e	-0.015184699
161	0x3dcf18e7	0.101121716
162	0xbd5cfa9b	-0.053949933
163	0x3dd9564f	0.10612165
164	0x3e24e410	0.16102624
165	0x3a56cbbe	0.0008193812
166	0x3e0d3364	0.13789135
167	0xbde67719	-0.11253185
168	0x3ea5d44d	0.32388535
169	0xbece6e92	-0.40318733
170	0xbe33f383	-0.17573361
171	0x3d4e55f5	0.050374944
172	0xbe1ce494	-0.1532157
173	0xbe4fd748	-0.20296967
174	0x3e276c49	0.16349901
175	0xbea9d655	-0.33171335
176	0xbe557ad8	-0.20847642
177	0x3d25cac3	0.04047657
178	0xbd2ba17c	-0.04190205
179	0xbdd59ef5	-0.10430709
180	0xbeafb360	-0.3431654
181	0xbe745139	-0.23859109
182	0x3b28b054	0.0025739865
183	0x3e199611	0.14998652
184	0xbca53534	-0.02016697
185	0xbe55d30f	-0.20881294
186	0x3d7cf12d	0.06175344
187	0xbedc4fa7	-0.4302952
188	0x3f380b4e	0.7189225
189	0xbd353b4c	-0.044246003
190	0xbeae67cd	-0.3406357
191	0xbdf54aa3	-0.119771264
192	0x3e7b5b3e	0.24546525
193	0xbe02c338	-0.12769783
194	0xbd0825ab	-0.033239048
195	0xbcac1e62	-0.021010581
196	0x3e7b7644	0.24556834
197	0xbee0ff5a	-0.43944818
198	0x3e51cd03	0.20488362
199	0xbe4bef7c	-0.19915575
200	0x3e876e84	0.26451504
201	0x3e19767d	0.14986606
202	0xbf4440f0	-0.76661587
203	0x3e92b4e5	0.28653637
204	0x3f20b6ed	0.6277912
205	0x3bf0b04c	0.007345235
206	0x3f0a4a6e	0.5401982
207	0x3f106e93	0.5641872
208	0x3f155a1a	0.5834061
209	0x3ebc86ac	0.36821496
210	0x3f0c7d6b	0.5487887
211	0x3b0a738f	0.0021126007
212	0xbf326cf2	-0.6969749
213	0xbef81979	-0.48456934
214	0x3d492abe	0.049113028
215	0xbe692eb2	-0.22771719
216	0xbe908dcb	-0.2823318
217	0x3f0d5ffd	0.5522459
218	0xbf234d39	-0.6378971
219	0x3f34485d	0.7042292
220	0x3e951b3a	0.29122335
221	0x3da869a7	0.082232766
222	0xbe8fe738	-0.28106093
223	0xbfc4bb9f	-1.5369757
224	0xbdeb3014	-0.114837795
225	0x3f744f75	0.9543374
226	0x3ebfe181	0.37476733
227	0x3f246c81	0.64228064
228	0xbf02a491	-0.5103236
229	0xbea703da	-0.32620126
230	0x3f36824e	0.7129258
231	0x3e9d26ee	0.30693763
232	0xbf7a4bc7	-0.9777188
233	0xbf35ce96	-0.7101835
234	0xbe8c8e62	-0.2745238
235	0x3de78ceb	0.11306175
236	0xbd1d5045	-0.03840663
237	0x3e12e86e	0.14346477
238	0x3f84cc07	1.0374764
239	0x3e9be92f	0.30451342
240	0x3e30d1f6	0.17267594
241	0x3f0128fc	0.5045316
242	0xbd848f62	-0.064726606
243	0xbd7a53ff	-0.06111526
244	0xbea1f1ee	-0.3162989
245	0x3c6b1306	0.014347797
246	0xbd20c4da	-0.039250232
247	0xbc9c502f	-0.019081203
248	0xbeb63603	-0.35588083
249	0xbe71f1f9	-0.23627461
250	0x3e570b99	0.21000518
251	0x3ebdc910	0.3706746
252	0x3dbe20ef	0.09283625
253	0xbe3ebdff	-0.18627165
254	0xbd0a2e24	-0.03373541
255	0xbd77fb75	-0.060542542

f_after.4.bias f4 [40]
0	0xbcb3f758	-0.021968529
1	0x3c5aab0d	0.013346446
2	0x3d14ed37	0.03635904
3	0xbc66c967	-0.014086104
4	0x3d9dab15	0.07698647
5	0xbcb441d5	-0.022004047
6	0xbe424608	-0.18972027
7	0x3dcf8167	0.101321034
8	0xbd713bdf	-0.05889499
9	0xbd940762	-0.07227971
10	0x3dd7b317	0.105322056
11	0x3e5333ef	0.2062528
12	0x3dfd20d1	0.12359775
13	0xbe060829	-0.1308905
14	0xbe7f1e43	-0.24913888
15	0xbe20a11e	-0.15686461
16	0xbc3ba985	-0.011453991
17	0x3d339d5a	0.043851234
18	0x3d8e916b	0.0696133
19	0x3e5b6a58	0.21427286
20	0x3e29cd26	0.16582164
21	0x3d7e43cb	0.06207637
22	0x3e26d750	0.16293073
23	0x3bb4d72f	0.005518816
24	0xbd60c28c	-0.054873034
25	0xbd73b2e9	-0.059496794
26	0x3e0a180c	0.13485736
27	0xbdb41914	-0.08793846
28	0xbd395417	-0.04524621
29	0xbd018650	-0.03162223
30	0x3db08905	0.086198844
31	0x3e09276d	0.13393946
32	0xbcf8596f	-0.030316083
33	0x3e8092b1	0.25111917
34	0x3d970d17	0.073755436
35	0x3df57928	0.11985999
36	0x3e2d7185	0.16937836
37	0x3db0c508	0.08631331
38	0x3dc652c0	0.09683752
39	0xbdcc64eb	-0.09980186
