model_checkpoints/clevr_567_models/latest/latest_net_SlotAttention.pth (torch, 200289 bytes, 34 tensors)

slots_mu f4 [1, 1, 40]
1.093004 0.08606004 1.8391612 2.0659525 -0.52367455 -1.239519 -1.8381358 -0.32052276
0.064698674 -0.06159689 -0.6786656 -1.1214576 0.97818494 0.10535075 -2.0472004 0.29121414
-1.0489768 -1.6194649 -0.053512286 -0.17613068 -1.2958225 0.46972758 -0.28682265 -0.15775089
1.1598549 -1.7592511 -0.10731851 -0.2608162 0.40039715 -0.6766444 -0.19281276 -0.23203643
1.0895317 -0.45593274 -0.26997524 -0.27083167 -0.34661257 -0.5444011 0.3995089 -0.745759
00000000: 8ee7 8b3f 3f40 b03d a269 eb3f 9138 0440
00000010: 890f 06bf 8fa8 9ebf 0948 ebbf 8f1b a4be
00000020: bd80 843d 054d 7cbd 07bd 2dbf ec8b 8fbf
00000030: 546a 7a3f 22c2 d73d 5505 03c0 051a 953e
00000040: df44 86bf a04a cfbf b32f 5bbd 9a5b 34be
00000050: 83dd a5bf 2280 f03e 6bda 92be 7389 21be
00000060: 2076 943f 242f e1bf cfc9 dbbd b389 85be
00000070: db00 cd3e 9138 2dbf b570 45be f59a 6dbe
00000080: c675 8b3f 0470 e9be 323a 8abe 73aa 8abe
00000090: 3477 b1be df5d 0bbf 6e8c cc3e 10ea 3ebf

slots_logsigma f4 [1, 1, 40]
-0.034231182 -0.16784355 -0.27627322 -0.28882223 -0.18099383 0.16679597 -0.024253719 0.12894486
0.08186032 0.14116387 0.2384969 -0.22884002 -0.019862011 -0.3819344 -0.069020614 -0.25444144
-0.4048314 -0.15391387 0.19134675 0.42385858 -0.19832346 -0.1931991 -0.23913176 0.04016769
-0.31762064 0.18132885 0.35342374 -0.1659118 -0.21627475 -0.5403299 -0.118013576 -0.050827887
0.06169748 -0.06377829 -0.206717 -0.31766877 -0.18778174 -0.064936064 -0.48985496 -0.07522874
00000000: ff35 0cbd 2edf 2bbe af73 8dbe 82e0 93be
00000010: 7256 39be 90cc 2a3e bcaf c6bc 1f0a 043e
00000020: 62a6 a73d 438d 103e 8838 743e 0a55 6abe
00000030: a8b5 a2bc e88c c3be ae5a 8dbd 2646 82be
00000040: 1046 cfbe 999b 1dbe 67f0 433e fe03 d93e
00000050: 4e15 4bbe fcd5 45be f5de 74be e086 243d
00000060: 2c9f a2be 45ae 393e f5f3 b43e c8e4 29be
00000070: 2177 5dbe 0f53 0abf 1ab1 f1bd e730 50bd
00000080: 7fb6 7c3d 319e 82bd 9fad 53be 7ba5 a2be
00000090: db49 40be 33fd 84bd 45ce fabe 8711 9abd

slots_mu_bg f4 [1, 1, 40]
-0.09034491 -1.1989496 -0.8987331 -1.1047167 -2.1046748 0.27900955 -0.5437794 -0.62522984
1.0892265 0.30169177 0.03419017 0.030745562 1.2641354 0.4717445 0.894565 -0.20831925
2.7170122 1.6393957 -1.4557387 -0.5613142 -0.10903194 -1.1462582 0.036830835 -0.28665608
-0.35529047 0.47908258 -0.05396384 -1.2687703 0.048430536 -0.7804626 -2.2129798 -0.1666404
0.93211687 0.6871569 -1.0508645 -1.3963335 0.7910634 0.110084474 -1.6993238 -0.19793935
00000000: c106 b9bd 2e77 99bf 5f13 66bf 5b67 8dbf
00000010: feb2 06c0 57da 8e3e 2035 0bbf 100f 20bf
00000020: c66b 8b3f 5877 9a3e fe0a 0c3d 1ede fb3c
00000030: 30cf a13f 7f88 f13e 3602 653f a451 55be
00000040: 87e3 2d40 b8d7 d13f a555 babf 4ab2 0fbf
00000050: 234c dfbd 97b8 92bf eedb 163d 96c4 92be
00000060: a2e8 b5be 504a f53e 3009 5dbd 1167 a2bf
00000070: 195f 463d 66cc 47bf 76a1 0dc0 c8a3 2abe
00000080: 369f 6e3f 84e9 2f3f ba82 86bf 0ebb b2bf
00000090: 2283 4a3f f873 e13d 7183 d9bf 9db0 4abe

slots_logsigma_bg f4 [1, 1, 40]
-0.1462343 -0.35029507 -0.1723071 -0.22760542 -0.125202 -0.28155118 -0.50779265 -0.25648105
0.1645306 0.1453444 0.026296977 -0.041904442 -0.08288448 -0.30514827 -0.13460709 -0.5798166
-0.09309123 -0.41207838 0.11165127 -0.37575865 -0.3878995 -0.07572368 -0.25603512 0.0921821
-0.17314069 -0.32297564 0.05935037 -0.05816271 -0.4553176 -0.3230072 -0.23582946 0.11416279
0.022425858 -0.37846625 -0.3456401 -0.54724246 -0.1390819 -0.07573457 -0.48498577 -0.035931047
00000000: 72be 15be e059 b3be 4671 30be 6511 69be
00000010: f434 00be 7a27 90be b3fe 01bf 7c51 83be
00000020: b67a 283e 2ad5 143e c26c d73c fea3 2bbd
00000030: 57bf a9bd 653c 9cbe 71d6 09be dc6e 14bf
00000040: 9da6 bebd f0fb d2be 6ca9 e43d 7063 c0be
00000050: c39a c6be 0415 9bbd 0917 83be f8c9 bc3d
00000060: cb4b 31be 105d a5be 6019 733d 063c 6ebd
00000070: 631f e9be 3361 a5be 477d 71be 2ece e93d
00000080: 6fb6 b73c 54c6 c1be bdf7 b0be 1518 0cbf
00000090: 7c6b 0ebe ba1a 9bbd 0e50 f8be 6f2c 13bd

to_k.weight f4 [40, 40]
-0.089820385 0.13478492 -0.029212046 0.18656014 0.14909057 0.07736445 0.14175211 0.12569188
-0.13780649 -0.18560754 -0.15216555 -0.59391737 -0.11211488 0.06760671 -0.38336313 -0.18110043
-0.0865781 0.17981112 -0.36185488 0.14921077 -0.02259951 0.15108551 0.12342262 0.09487007
0.42948946 0.0049508084 0.15590948 -0.07135143 0.09218041 0.1346818 -0.1192954 0.19125743
0.13455321 0.072851494 0.07941278 0.05009594 0.52485913 0.15154727 0.028419862 -0.0021210145
0.14068873 0.23766743 -0.076144636 0.27159452 0.22838348 -0.0046311584 0.23207499 0.2624513
-0.18097106 -0.70339125 -0.14393598 -0.16811767 -0.13380775 0.25000814 0.22423503 -0.06879198
-0.14700897 0.30458465 0.03268676 0.28084505 -0.15954986 0.11781866 0.2220978 0.17289598
0.42951635 -0.3398839 0.13646026 0.3808491 0.13618375 0.24067317 0.26544085 -0.27917933
0.25291517 0.11292165 0.2324293 0.18649705 0.22901951 0.18859611 0.1660557 -0.52933735
-0.017511526 -0.08698019 -0.041968387 -0.038599886 -0.045470685 -0.10476688 -0.05300797 -0.07098184
0.14247215 0.23786265 0.10331376 0.67362696 -0.034986723 -0.01695055 0.30465254 0.063238986
0.023332957 -0.031006819 0.24471048 -0.048260596 -0.012324943 -0.13303208 -0.0470165 -0.03260374
-0.4108816 0.07808746 -0.16772342 0.026373973 -0.06472311 -0.03543862 -0.019471776 -0.1698414
0.008947404 -0.043238357 -0.071932755 -0.043970034 -0.6375678 -0.062021874 -0.009584113 -0.039613232
0.07152202 -0.21028554 -0.030477164 -0.22137697 -0.23859124 -0.048072807 -0.16412932 -0.20645712
0.26565632 0.27723897 0.12260071 0.01439932 0.06003728 -0.049107272 -0.33536538 0.18010065
0.37438363 -0.23869605 0.05625085 -0.20466328 0.10521261 -0.10996132 -0.13298583 -0.1456094
-0.07974043 -0.0337448 -0.2194778 -0.080783375 -0.115605764 -0.2071998 -0.42011383 0.5144715
-0.20081207 -0.08774381 -0.18072605 -0.13491 -0.014626894 -0.1561001 0.13705651 0.24310276
-0.12247286 0.13574404 -0.059184853 0.12460106 0.16721089 -0.036920346 0.18478826 0.18922618
0.03936443 0.17133841 -0.15002415 0.4448631 -0.052674323 0.11795646 0.23640956 -0.3415735
-0.2532307 0.16747032 -0.08608572 0.18345617 -0.2497814 0.019401554 0.12269534 0.08451519
-0.37557045 0.19287555 -0.15427254 -0.21065325 0.14415132 0.15982343 -0.013228886 -0.13507132
0.16043618 0.08614842 0.1599836 0.08047255 -0.4582211 0.13564762 -0.32950905 -0.07319786
-0.10931263 -0.05121353 0.050827436 -0.059622094 -0.062001944 0.06463655 -0.01673916 -0.040449694
-0.4426751 -0.26222253 0.09680468 -0.58182216 0.04117337 -0.1849579 -0.085107274 -0.013235269
-0.16224223 -0.0862249 -0.20412746 -0.049819823 0.05483861 0.0066050184 -0.051670283 -0.043647237
0.37735638 0.11273377 0.5152036 0.032766253 -0.015576372 -0.047419388 0.32858774 -0.05222936
-0.06566455 -0.03260997 -0.04132178 -0.071948044 0.48804793 -0.045246996 -0.17659381 0.036087424
0.05673569 -0.14715786 -0.047093995 -0.13990843 -0.13321929 -0.13456222 -0.14951739 -0.16617535
-0.3764949 -0.20527938 0.1420231 -0.07456078 0.06077057 -0.054580986 0.44252762 0.25431055
00000000: c0f3 b7bd 0f05 0a3e 1a4e efbc 9f09 3f3e
00000010: 33ab 183e 4171 9e3d 7727 113e 5fb5 003e
00000020: 251d 0dbe e70f 3ebe 49d1 1bbe f80a 18bf
00000030: 7c9c e5bd 6375 8a3d 2c48 c4be 6472 39be
00000040: dc4f b1bd 6820 383e 0b45 b9be b5ca 183e
00000050: 9c22 b9bc 29b6 1a3e 00c5 fc3d 3d4b c23d
00000060: 0be6 db3e 643a a23b bca6 1f3e b320 92bd
00000070: 15c9 bc3d 07ea 093e 2651 f4bd fdd8 433e
00000080: 51c8 093e 2a33 953d 2ba3 a23d 6631 4d3d
00000090: 2b5d 063f 352f 1b3e c5d0 e83c b800 0bbb
000000a0: b510 103e 175f 733e b8f1 9bbd 700e 8b3e
000000b0: 5cdd 693e f9c0 97bb 11a5 6d3e 0460 863e
000000c0: 7a50 39be 7311 34bf f463 13be 0a27 2cbe
000000d0: e604 09be 1101 803e de9d 653e cfe2 8cbd
000000e0: 8589 16be 85f2 9b3e 8de2 053d ecca 8f3e
000000f0: 0a61 23be e94a f13d 9b6d 633e a50b 313e
00000100: 91e9 db3e 4305 aebe 3dbc 0b3e a7fe c23e
00000110: c173 0b3e 0773 763e dde7 873e 98f0 8ebe
00000120: 197e 813e 7743 e73d f201 6e3e 15f9 3e3e
00000130: 1784 6a3e 571f 413e 810a 2a3e a782 07bf
00000140: 5574 8fbc ab22 b2bd 0be7 2bbd ea1a 1ebd
00000150: 783f 3abd 0590 d6bd e31e 59bd ed5e 91bd
00000160: 38e4 113e 4492 733e 2a96 d33d d172 2c3f
00000170: 3d4e 0fbd e1db 8abc 6bfb 9b3e 7183 813d
00000180: c224 bf3c 0302 febc 6295 7a3e e7ac 45bd
00000190: 8fee 49bc 9039 08be 6094 40bd 808b 05bd
000001a0: 135f d2be 51ec 9f3d b0bf 2bbe 3b0e d83c
000001b0: 8d8d 84bd 1628 11bd 4683 9fbc e7ea 2dbe
000001c0: 2298 123c b41a 31bd 7b51 93bd ec19 34bd
000001d0: a537 23bf a60a 7ebd af06 1dbc 7c41 22bd
000001e0: 237a 923d 1855 57be 3fab f9bc a5b0 62be
000001f0: 4351 74be fee7 44bd 8411 28be 7f69 53be
00000200: 1b04 883e 44f2 8d3e 1516 fb3d 20eb 6b3c
00000210: a7e9 753d b524 49bd 03b5 abbe 4e6c 383e
00000220: 36af bf3e bd6c 74be 4b67 663d 4093 51be
00000230: b579 d73d 6733 e1bd 702d 08be a11a 15be
00000240: f34e a3bd fd37 0abd cabe 60be c171 a5bd
00000250: b7c2 ecbd 2f2c 54be 2919 d7be 67b4 033f
00000260: aea1 4dbe 07b3 b3bd 4010 39be d925 0abe
00000270: a4a5 6fbc b4d8 1fbe 8b58 0c3e eeef 783e
00000280: 0dd3 fabd 7c00 0b3e d16b 72bd d72e ff3d
00000290: 5539 2b3e ca39 17bd 2239 3d3e 82c4 413e
000002a0: 993c 213d 5673 2f3e ee9f 19be 19c5 e33e
000002b0: 08c1 57bd 2893 f13d 5915 723e b9e2 aebe
000002c0: 74a7 81be 577d 2b3e b64d b0bd efdb 3b3e
000002d0: b2c6 7fbe 02f0 9e3c b247 fb3d 4d16 ad3d
000002e0: c54a c0be 2b81 453e 9ff9 1dbe 7cb5 57be
000002f0: 679c 133e c1a8 233e f8bd 58bc 2350 0abe
00000300: 6249 243e 956e b03d bed2 233e cbce a43d
00000310: f59b eabe 36e7 0a3e 69b5 a8be c2e8 95bd
00000320: 4ddf dfbd 47c5 51bd 6e30 503d 4c36 74bd
00000330: c0f5 7dbd 2b60 843d 9020 89bc 94ae 25bd
00000340: 50a6 e2be 0842 86be 8841 c63d 4cf2 14bf
00000350: 68a5 283d 9b65 3dbe b94c aebd bed8 58bc
00000360: d422 26be ae96 b0bd ca06 51be df0f 4cbd
00000370: 739e 603d e96e d83b 38a4 53bd 72c7 32bd
00000380: db34 c13e f6e0 e63d 62e4 033f e835 063d
00000390: 0a34 7fbc d53a 42bd a73c a83e 74ee 55bd
000003a0: 237b 86bd 0892 05bd 0741 29bd 7f59 93bd
000003b0: 6be1 f93e ea54 39bd 02d5 34be 68d0 133d
000003c0: af63 683d 8db0 16be a2e5 40bd 2844 0fbe
000003d0: a36a 08be aeca 09be 161b 19be df29 2abe
000003e0: f1c3 c0be c234 52be 816e 113e 52b3 98bd
000003f0: 90ea 783d 5090 5fbd fb92 e23e fe34 823e

to_v.weight f4 [40, 40]
0.15497003 0.093588874 0.052413214 0.11664192 0.1355377 0.010717769 0.07796205 0.114225864
-0.11206616 -0.14372136 -0.1033455 -0.07915872 0.030545413 0.07228442 -0.07120826 0.05717436
-0.17599472 0.09001422 -0.052985985 0.111076266 -0.08102122 0.0112748975 0.08569972 0.05036651
-0.17986955 0.3188855 -0.046767514 -0.26833564 0.08287373 0.07433319 -0.040139623 -0.096892335
0.113874085 0.027900334 0.113005295 0.079347886 -0.07493709 0.09760362 0.054287493 0.09982601
0.11936418 0.11535382 -0.16772413 0.14107484 0.13057362 0.04590394 0.13220777 0.10541256
0.048297957 -0.037594177 -0.15762624 -0.12758309 -0.19305687 0.191821 0.003185725 -0.1926392
-0.036459956 0.112361334 0.09772941 0.06768922 -0.1980898 -0.018637162 0.12501013 0.13575418
0.005512701 0.066113956 -0.1458525 -0.06225913 0.13026069 0.12072166 0.1317466 -0.055819307
0.18452518 0.0804314 0.14225894 0.108047456 0.18151216 0.115945086 0.04792538 0.12133816
-0.081643194 0.03296555 0.1660395 0.00259585 -0.018254075 0.04302164 0.036780514 0.016567493
-0.046613187 -0.09230335 0.0022535506 -0.17934656 0.11516 0.012187319 -0.17897396 -0.010992398
-0.06201289 -0.007326023 -0.09192565 -0.034867324 -0.048084684 0.14045797 -0.03515819 0.029569553
-0.03758325 -0.0050781537 -0.018852541 -0.23833431 0.008692365 0.006572164 -0.22750494 0.099435724
0.016769387 0.0035277922 0.037733335 0.012393157 0.042118363 0.021257173 0.024961304 0.023768116
-0.015077507 0.0049677077 -0.076434694 0.002307921 -0.00026262298 0.1998637 0.029227834 -0.0103215715
-0.032540396 0.15247469 0.16191806 0.13651052 0.045974087 0.04322771 -0.03576082 0.24354997
0.02509478 0.01981896 -0.0585858 -0.0046500717 -0.014835032 -0.023662085 0.027484335 0.021155382
0.0320863 -0.1846907 -0.07797153 -0.026859207 0.039593443 0.02053136 -0.046252333 -0.08912183
-0.029404918 0.07488632 -0.0085950345 0.067277625 0.13084564 0.032968845 0.026088867 0.111008935
-0.08213095 0.033268828 0.03342782 0.046302725 0.018975524 0.112536974 0.03325386 0.0006507782
-0.02908035 0.012106423 0.063694745 -0.11273008 0.01584165 0.044738643 -0.068585224 -0.06885145
0.070241004 0.012056979 -0.033754595 0.041747026 -0.14809375 0.056325514 0.08188968 0.03947326
0.11928462 -0.02106299 -0.042797823 -0.0038062318 0.02645985 0.019427199 -0.15154593 0.14435667
0.040439274 0.042253032 0.028287092 0.06604451 0.17142567 0.06398436 -0.0039683357 -0.048465777
-0.009089361 0.0072875656 -0.013578672 -0.009887462 0.008260106 0.11228656 -0.011916454 -0.0006463854
-0.061334625 -0.0069786916 -0.18657239 -0.23236625 0.09823265 0.01786022 -0.14712536 0.09529384
0.12430732 -0.022737412 -0.067416504 0.002952245 -0.14401743 -0.024604382 0.0070916675 0.032776278
-0.048484698 0.06299517 0.07382689 -0.044130675 0.009651954 -0.019944422 -0.024602516 0.050088562
0.012056492 0.02234082 0.007777048 0.030899005 0.12483522 0.016904242 0.017879618 0.0823096
0.053461608 0.10319793 -0.2202187 0.10482467 0.110466026 0.039091453 0.11313767 0.10235331
-0.10621688 -0.006514384 0.075364806 -0.16198657 -0.032182604 0.0901938 -0.18070675 0.034598537
00000000: 77b0 1e3e 86ab bf3d 3daf 563d f5e1 ee3d
00000010: 65ca 0a3e 9599 2f3c 91aa 9f3d 40ef e93d
00000020: f182 e5bd b12b 13be cea6 d3bd f81d a2bd
00000030: 603a fa3c db09 943d a3d5 91bd a92f 6a3d
00000040: f637 34be 6059 b83d d507 59bd f47b e33d
00000050: 74ee a5bd 59ba 383c 5683 af3d 1d4d 4e3d
00000060: b92f 38be f644 a33e 4b8f 3fbd 4a63 89be
00000070: b4b9 a93d 003c 983d 7269 24bd 7d6f c6bd
00000080: d136 e93d 3e8f e43c 526f e73d 2581 a23d
00000090: 9e78 99bd 68e4 c73d 905c 5e3d 9471 cc3d
000000a0: 3575 f43d a03e ec3d e0bf 2bbe ec75 103e
000000b0: 17b5 053e c505 3c3d 7961 073e 8ae2 d73d
000000c0: 14d4 453d 5afc 19bd c668 21be 24a5 02be
000000d0: b3b0 45be b96c 443e 99c7 503b 3643 45be
000000e0: 0957 15bd b31d e63d 5b26 c83d a5a0 8a3d
000000f0: 0dd8 4abe f6ac 98bc a802 003e 2503 0b3e
00000100: e3a3 b43b c166 873d 5c5a 15be 6e03 7fbd
00000110: 0f63 053e eb3c f73d 95e8 063e c9a2 64bd
00000120: 2bf4 3c3e 38b9 a43d 54ac 113e fc47 dd3d
00000130: 53de 393e 9e74 ed3d 674d 443d 2480 f83d
00000140: 8c34 a7bd e206 073d 4206 2a3e 231f 2a3b
00000150: 9289 95bc 7637 303d 2aa7 163d 8db8 873c
00000160: 78ed 3ebd 8a09 bdbd 4eb0 133b a0a6 37be
00000170: 02d9 eb3d 52ad 473c f344 37be 7519 34bc
00000180: 3a01 7ebd 230f f0bb 8443 bcbd 0ad1 0ebd
00000190: 72f4 44bd 37d4 0f3e 0902 10bd d93b f23c
000001a0: e5f0 19bd a466 a6bb a570 9abc e90d 74be
000001b0: 6c6a 0e3c 4f5b d73b 0ef7 68be f5a4 cb3d
000001c0: f45f 893c 8832 673b 458e 1a3d ab0c 4b3c
000001d0: 4e84 2c3d 8623 ae3c a67b cc3c 5ab5 c23c
000001e0: a607 77bc 27c8 a23b cb89 9cbd 7d40 173b
000001f0: a9b0 89b9 12a9 4c3e 366f ef3c cf1b 29bc
00000200: 1449 05bd 5322 1c3e d9cd 253e 6ac9 0b3e
00000210: 534f 3c3d 8a0f 313d f079 12bd 2a65 793e
00000220: 9193 cd3c 5f5b a23c aaf7 6fbd a15f 98bb
00000230: a20e 73bc fdd6 c1bc d426 e13c 0d4e ad3c
00000240: ed6c 033d 8f1f 3dbe 8aaf 9fbd d707 dcbc
00000250: bc2c 223d 6231 a83c 1673 3dbd 8285 b6bd
00000260: 95e2 f0bc 005e 993d 30d2 0cbc dac8 893d
00000270: 66fc 053e 570a 073d 52b8 d53c a758 e33d
00000280: 4634 a8bd e544 083d 9ceb 083d eda7 3d3d
00000290: 8f72 9b3c c979 e63d 3335 083d fc98 2a3a
000002a0: ea39 eebc 055a 463c 6472 823d 07df e6bd
000002b0: 59c6 813c de3f 373d 6976 8cbd fd01 8dbd
000002c0: 84da 8f3d a38a 453c 4242 0abd eefe 2a3d
000002d0: e3a5 17be 95b5 663d c7b5 a73d b7ae 213d
000002e0: 7f4b f43d 4b8c acbc c54c 2fbd f971 79bb
000002f0: 54c2 d83c ca25 9f3c db2e 1bbe 3cd2 133e
00000300: a7a3 253d 8411 2d3d 55ba e73c 5842 873d
00000310: 368a 2f3e 3b0a 833d d008 82bb 0d84 46bd
00000320: 8beb 14bc 88cc ee3b 1479 5ebc 05ff 21bc
00000330: 6555 073c 7ff6 e53d 3b3d 43bc 3172 29ba
00000340: 043a 7bbd 82ad e4bb d50c 3fbe 6bf1 6dbe
00000350: 332e c93d 994f 923c 08a8 16be 6b29 c33d
00000360: d694 fe3d cf43 babc aa11 8abd 747a 413b
00000370: 4e79 13be 218f c9bc 3861 e83b 6b40 063d
00000380: e497 46bd 9d03 813d 8d32 973d 5ec2 34bd
00000390: 3b23 1e3c 7c62 a3bc 378b c9bc aa29 4d3d
000003a0: 9888 453c 1804 b73c 9bd6 fe3b e91f fd3c
000003b0: 9ca9 ff3d c47a 8a3c 4778 923c f091 a83d
000003c0: 8ffa 5a3d 7059 d33d 0381 61be 51ae d63d
000003d0: 033c e23d 5c1e 203d b9b4 e73d 9d9e d13d
000003e0: 3c88 d9bd 9d76 d5bb dd58 9a3d cfdf 25be
000003f0: e8d1 03bd 87b7 b83d 310b 39be 32b7 0d3d

to_q.0.weight f4 [40]
1.0373633 0.9818371 1.1705276 0.9290931 0.95051056 1.1916118 1.2902287 1.0652329
1.2477198 1.0638257 1.2398548 1.1404732 1.1131049 1.0791833 1.2086629 1.0905836
0.89592415 1.0434986 1.00042 1.4006726 1.1053979 1.2664269 1.1705353 1.1851488
0.8805597 1.2695227 1.3035159 1.1681511 1.1039436 1.101205 1.2117914 0.96261513
1.2211895 1.1228455 1.2769642 1.2804396 1.0157279 1.0201045 0.96613723 1.0237565
00000000: 52c8 843f ad59 7b3f d9d3 953f 0cd9 6d3f
00000010: a954 733f bc86 983f 3726 a53f 8d59 883f
00000020: 48b5 9f3f 712b 883f 90b3 9e3f 07fb 913f
00000030: 397a 8e3f ae22 8a3f 77b5 9a3f 3e98 8b3f
00000040: 495b 653f 5d91 853f c30d 803f 3d49 b33f
00000050: ae7d 8d3f 471a a23f 1ad4 953f f5b2 973f
00000060: 5c6c 613f b87f a23f 9cd9 a63f fa85 953f
00000070: 064e 8d3f 49f4 8c3f fb1b 9b3f f26d 763f
00000080: f04f 9c3f 67b9 8f3f 9073 a33f 72e5 a33f
00000090: 5f03 823f c992 823f c554 773f 740a 833f

to_q.0.bias f4 [40]
0.047597833 -0.098272525 -0.0142492065 -0.01798029 -0.04275775 0.01855132 -0.0762406 -0.0999284
-0.029795842 0.07797314 -0.0066721295 -0.0020192452 0.283904 0.13261291 -0.27506945 -0.25691092
-0.2342086 -0.056072988 0.13197343 -0.0005463556 -0.06146124 -0.21244796 0.14940497 0.059978615
-0.106448226 -0.076336466 0.048182245 -0.009230318 0.1161665 0.106295004 -0.10308003 -0.06601026
0.13747095 -0.007303032 0.21965176 0.10666786 0.07273501 -0.18175489 -0.019960536 -0.06983989
00000000: f2f5 423d 1b43 c9bd 8175 69bc 674b 93bc
00000010: c022 2fbd f0f8 973c 0824 9cbd 43a7 ccbd
00000020: 6916 f4bc 62b0 9f3d e1a1 dabb 5055 04bb
00000030: dd5b 913e aecb 073e e7d5 8cbe d489 83be
00000040: 61d4 6fbe caac 65bd 0b24 073e 4e39 0fba
00000050: c8be 7bbd f58b 59be 9efd 183e 23ac 753d
00000060: 8701 dabd 4b56 9cbd bf5a 453d c23a 17bc
00000070: b4e8 ed3d 32b1 d93d 9f1b d3bd 6330 87bd
00000080: 2fc5 0c3e 464e efbb 64ec 603e ae74 da3d
00000090: 18f6 943d f41d 3abe 4784 a3bc 3708 8fbd

to_q.1.weight f4 [40, 40]
0.06744531 0.043146275 -0.22534083 -0.025547745 -0.00828858 0.18498455 0.27835795 -0.042645957
-0.25276005 -0.19486108 0.29097208 -0.07551645 0.058881875 -0.15291065 -0.1490712 -0.09293558
-0.024967838 -0.042578656 -0.047789764 0.2167856 0.08230399 0.010462579 0.07983276 0.28717107
0.09545124 -0.26619402 0.063915744 0.17126004 -0.0006526436 -0.031886924 -0.32683343 -0.036410388
0.14837582 0.100087784 -0.15428644 0.08284276 -0.18508306 -0.09111697 -0.017592475 0.06768157
-0.14247139 0.009678142 -0.23340397 -0.15236633 -0.012841059 0.33894792 0.19698906 -0.16823548
-0.31575274 -0.047489915 0.2654947 0.19105724 -0.16009988 -0.16364089 0.15403162 -0.06102226
-0.019659866 -0.17361173 0.002099262 -0.2516172 0.22764112 -0.091532 0.12202454 -0.23220623
0.05905185 -0.05012633 0.27785113 0.18642914 0.057116523 -0.2742093 -0.0046843984 0.023996513
-0.2926589 -0.104800805 -0.11656044 0.3267482 -0.10942676 0.11402968 0.10867479 0.10109981
-0.018596996 -0.06875463 0.18694894 0.021801762 0.14507473 -0.25859353 -0.24333532 0.025911387
0.3942078 0.2611854 -0.36886933 0.16302854 -0.13201901 0.1212762 0.14553359 0.09174996
0.02467961 0.10612744 0.0980372 -0.1583896 -0.08226046 0.041754533 -0.09467639 -0.24382675
-0.08171358 0.33828607 -0.10921463 -0.16364145 -0.048059653 0.032991327 0.33878547 -0.058469832
-0.12523852 -0.20040624 0.12653624 -0.13586582 0.1681078 0.056685258 0.02189807 -0.13397586
0.15620984 -0.019827446 0.010332678 0.093264006 -0.011769721 -0.068170756 0.036583953 0.06869283
0.17664889 -0.018973084 -0.06382158 -0.19181497 0.04554516 0.00833254 -0.046363413 0.10436815
0.12413405 0.16001654 -0.110022806 0.28482547 -0.1023959 0.17709678 -0.15766674 0.25924492
-0.082166016 -0.08359585 -0.2986637 -0.21770296 -0.14700554 0.07446768 -0.12607712 -0.040968504
0.28021777 0.11651955 -0.091221 -0.25780317 0.10494624 -0.11206539 -0.10898965 -0.020230856
-0.18362486 -0.024806626 0.11518655 -0.065049104 0.097312756 -0.29549503 -0.1528933 0.19362992
0.2577016 0.06870925 -0.23814905 0.016371712 -0.07236999 0.1849106 0.14975478 0.066525616
0.054041225 0.112703405 0.080586754 -0.019937549 -0.06704258 -0.035390332 -0.05977148 -0.20115666
-0.10711123 0.23010877 -0.07047166 -0.13070673 -0.026507434 0.0010804477 0.3000486 -0.025791086
-0.11698854 -0.11441064 0.105212815 -0.060644913 0.039205812 0.022396468 0.13020286 -0.09099644
0.15056746 -0.018970134 -0.061131854 0.0719686 -0.09687763 0.17781448 0.09481061 -0.1401815
-0.27423266 -0.10407857 0.287935 -0.07997744 0.19816448 -0.062497392 -0.21216202 -0.19737665
-0.08213062 -0.13213322 -0.071483485 -0.08620509 0.10089533 -0.20223884 0.21554862 0.11831717
0.09873202 -0.3116063 0.30751553 0.26134983 0.09754137 0.04793295 -0.25078672 0.02991496
0.0644489 0.08971739 0.032416277 0.17186041 -0.08966056 0.022004431 -0.032526676 0.019728737
0.07079954 -0.22674732 0.16757266 0.012944771 -0.0076005035 0.16780023 -0.1781768 -0.25624305
-0.06448189 0.06857847 0.12064341 0.08149339 0.12917 -0.0019822384 -0.14581881 -0.16019195
00000000: c420 8a3d 26ba 303d bfbf 66be 8149 d1bc
00000010: d3cc 07bc 976c 3d3e ef84 8e3e 87ad 2ebd
00000020: c469 81be aa89 47be 4bfa 943e 5ea8 9abd
00000030: 1f2e 713d 9c94 1cbe 1fa6 18be 0255 bebd
00000040: 5a89 ccbc f566 2ebd 33bf 43bd 0bfd 5d3e
00000050: ff8e a83d 3d6b 2b3c 5c7f a33d 1608 933e
00000060: f17b c33d 954a 88be 42e6 823d cb5e 2f3e
00000070: 2c16 2bba dd9b 02bd b656 a7be 0f23 15bd
00000080: d5ef 173e d3fa cc3d 44fd 1dbe 77a9 a93d
00000090: 6a86 3dbe 899b babd 181e 90bc a39c 8a3d
000000a0: 05e4 11be 1291 1e3c 7301 6fbe eb05 1cbe
000000b0: 4e63 52bc 958a ad3e 80b7 493e ec45 2cbe
000000c0: 58aa a1be c984 42bd ecee 873e 82a4 433e
000000d0: 39f1 23be 7a91 27be 77ba 1d3e 7af2 79bd
000000e0: ba0d a1bc 46c7 31be c693 093b f8d3 80be
000000f0: c11a 693e 2175 bbbd 01e8 f93d 78c7 6dbe
00000100: 5ae0 713d 4451 4dbd 8142 8e3e 48e7 3e3e
00000110: 04f3 693d 2965 8cbe 957f 99bb 5694 c43c
00000120: 63d7 95be cea1 d6bd 3db7 eebd 8a4b a73e
00000130: 231b e0bd 6588 e93d e390 de3d 6b0d cf3d
00000140: ba58 98bc 3acf 8cbd 8b6f 3f3e 9c99 b23c
00000150: 788e 143e 5f66 84be e52c 79be 1e44 d43c
00000160: 9bd5 c93e 18ba 853e 71dc bcbe f4f0 263e
00000170: fe2f 07be a85f f83d c206 153e 67e7 bb3d
00000180: e52c ca3c 5859 d93d bac7 c83d e230 22be
00000190: 2c78 a8bd cd06 2b3d b2e5 c1bd b8ad 79be
000001a0: 7359 a7bd d533 ad3e ecab dfbd a091 27be
000001b0: 33da 44bd ea21 073d 4a75 ad3e 107e 6fbd
000001c0: 873e 00be 4b37 4dbe b792 013e 6920 0bbe
000001d0: 7324 2c3e cd2e 683d 9563 b33c f830 09be
000001e0: 79f5 1f3e 2b6d a2bc 654a 293c 3301 bf3d
000001f0: cad5 40bc 1c9d 8bbd 0ed9 153d d4ae 8c3d
00000200: 72e3 343e 716d 9bbc e3b4 82bd 256b 44be
00000210: 908d 3a3d 3585 083c 90e7 3dbd f8be d53d
00000220: fe39 fe3d 60db 233e a353 e1bd a5d4 913e
00000230: f1b4 d1bd dc58 353e 6473 21be c0bb 843e
00000240: a846 a8bd 4d34 abbd 73ea 98be 86ed 5ebe
00000250: 9f88 16be 8382 983d 5c1a 01be 97ce 27bd
00000260: b478 8f3e cda1 ee3d 13d2 babd c7fe 83be
00000270: 0eee d63d 8a82 e5bd f735 dfbd 2ebb a5bc
00000280: 2808 3cbe 4437 cbbc ede6 eb3d 7738 85bd
00000290: e94b c73d 204b 97be 1090 1cbe ec46 463e
000002a0: 77f1 833e 6fb7 8c3d 58dd 73be f81d 863c
000002b0: b836 94bd 3459 3d3e 5159 193e 953e 883d
000002c0: 555a 5d3d 0bd1 e63d ab0a a53d 1254 a3bc
000002d0: 9f4d 89bd 74f5 10bd f0d2 74bd 03fc 4dbe
000002e0: 225d dbbd a2a1 6b3e 7253 90bd fcd7 05be
000002f0: 1e26 d9bc cf9d 8d3a f89f 993e d447 d3bc
00000300: b097 efbd 2050 eabd d179 d73d cd66 78bd
00000310: 4696 203d cc78 b73c e653 053e 575c babd
00000320: 5b2e 1a3e 4167 9bbc 6565 7abd 4664 933d
00000330: c767 c6bd 0015 363e 112c c23d bd8b 0fbe
00000340: 3968 8cbe 2527 d5bd 376c 933e 36cb a3bd
00000350: a1eb 4a3e 44fd 7fbd 0041 59be 1b1d 4abe
00000360: 1934 a8bd ee4d 07be ef65 92bd 4b8c b0bd
00000370: 36a2 ce3d b317 4fbe c7b8 5c3e 4650 f23d
00000380: 0334 ca3d dc8a 9fbe ad72 9d3e a5cf 853e
00000390: c5c3 c73d 5755 443d 1e67 80be 3810 f53c
000003a0: c9fd 833d c0bd b73d eec6 043d 2dfc 2f3e
000003b0: f59f b7bd a342 b43c b13a 05bd 299e a13c
000003c0: 59ff 903d 7330 68be 2b98 2b3e 4e16 543c
000003d0: a50d f9bb d3d3 2b3e fb73 36be 4a32 83be
000003e0: 150f 84bd de72 8c3d e413 f73d 02e6 a63d
000003f0: 2445 043e 71e8 01bb 8751 15be 5c09 24be

to_q_bg.0.weight f4 [40]
1.0429956 0.7877883 1.1463034 1.1616998 1.1169891 1.2220505 1.8503506 1.7078089
1.0644758 0.99835926 0.88591313 0.82569504 1.0392092 1.3867631 1.0718606 1.4726108
1.1015825 1.1041757 1.0066952 1.0887965 1.8848411 1.1588153 1.4940865 0.8749509
1.5372353 1.3623992 1.3148954 1.0809683 1.4633461 0.81787664 1.2713033 0.9829724
1.0691496 1.0706555 0.92332774 1.1353432 1.0623373 0.7018115 1.1118362 1.1874789
00000000: e180 853f 7eac 493f 12ba 923f 94b2 943f
00000010: 80f9 8e3f 276c 9c3f 4ad8 ec3f 7b99 da3f
00000020: be40 883f 7994 7f3f 34cb 623f c060 533f
00000030: cf04 853f 7481 b13f ba32 893f 837e bc3f
00000040: a800 8d3f a155 8d3f 63db 803f af5d 8b3f
00000050: 7942 f13f 0f54 943f 3a3e bf3f c8fc 5f3f
00000060: 20c4 c43f 1963 ae3f 7e4e a83f 2b5d 8a3f
00000070: ed4e bb3f 5d60 513f 11ba a23f 14a4 7b3f
00000080: e5d9 883f 3d0b 893f 355f 6c3f ed52 913f
00000090: abfa 873f eba9 333f a650 8e3f 4fff 973f

to_q_bg.0.bias f4 [40]
-0.24998827 0.15025245 0.13765128 -0.27155018 -0.072272435 0.02494789 0.19111075 0.15583965
0.14552583 -0.027340878 0.224604 -0.21729325 0.15964308 -0.13980208 0.19215496 -0.16713408
0.04455862 0.24193397 -0.29110387 -0.222828 -0.21146788 0.32952833 0.23425524 0.19935153
-0.1337866 0.16898674 0.21234792 -0.27473396 -0.14447676 -0.10389689 -0.16913132 0.17471662
0.014869979 0.18822594 -0.21503603 0.039330892 -0.14739332 -0.12166572 -0.25149226 -0.22561374
00000000: edfc 7fbe c7db 193e 75f4 0c3e a008 8bbe
00000010: 9203 94bd 845f cc3c 89b2 433e 6e94 1f3e
00000020: b904 153e faf9 dfbc 97fe 653e 1f82 5ebe
00000030: 7a79 233e 4728 0fbe 45c4 443e 3225 2bbe
00000040: 1983 363d 8abd 773e 910b 95be 062d 64be
00000050: 098b 58be f0b7 a83e 9be0 6f3e cf22 4c3e
00000060: 5bff 08be dc0a 2d3e bc71 593e eea9 8cbe
00000070: b7f1 13be e5c7 d4bd c330 2dbe eae8 323e
00000080: 36a1 733c 4dbe 403e 6832 5cbe 6e19 213d
00000090: 46ee 16be e12b f9bd 98c3 80be 4a07 67be

to_q_bg.1.weight f4 [40, 40]
0.23261611 -0.023847163 -0.13541333 0.12853 -0.055930875 0.12824754 -0.5326821 -0.36143857
-0.014730356 0.122879855 0.023636429 -0.08917744 0.048924457 0.35108578 -0.07895642 0.34279856
0.025174621 -0.03429015 -0.011104327 0.12062074 0.37622696 -0.25080207 -0.26934505 -0.077125415
0.19734494 -0.2129415 -0.34885508 -0.0074075013 0.17812839 -0.1328759 -0.015522619 -0.054556854
0.112388775 0.0017928269 0.034917887 -0.16124827 0.18716332 0.055197515 0.052611567 0.05905744
0.13933875 -0.053308923 -0.27960372 -0.14111272 -0.20335737 0.13884372 -0.5525868 -0.5518088
0.27128726 0.011215231 0.010410225 0.026861021 0.20415533 0.39428794 0.024332762 0.39857483
0.22076707 0.1988046 -0.22466621 -0.0156036 0.47432157 -0.21602273 -0.37888354 -0.18979405
0.34729692 -0.300257 -0.04007428 -0.138635 0.35426888 -0.15302667 -0.26618156 0.10321842
0.20757952 0.0021288162 0.009130873 -0.32269394 0.15921134 -0.04134072 -0.07498004 0.18588197
-0.028109185 -0.044033274 -0.014026648 -0.12560643 -0.09865826 0.017726801 0.09751697 0.03522705
0.068573944 -0.19250979 0.12945761 0.011305753 0.00093625556 -0.051036105 0.03480186 -0.16865174
0.14751329 0.058622364 -0.03470643 -0.00452765 -0.057900995 0.09090394 0.16137657 0.022874167
-0.0003781443 0.09587343 0.09711103 -0.019114835 0.09097556 -0.060424063 -0.05077878 0.07094243
0.082247235 0.11557183 -0.06460766 -0.063251264 0.076437056 -0.105320446 -0.10189544 -0.10355256
-0.07923566 0.09949411 0.24063794 -0.03445646 0.09077856 -0.024366012 0.5189047 0.6009461
-0.02012305 -0.04188236 -0.03609634 -0.037383553 0.11401324 -0.35186234 0.14768767 -0.4635269
-0.10933621 0.15139405 0.015518526 -0.07578853 -0.6327211 0.22032012 0.4616921 0.16247866
-0.49265072 0.44684005 0.18683055 -0.089430094 -0.4604375 0.055691108 0.07549982 -0.030574469
-0.07215854 0.17998713 -0.19132766 0.077771835 -0.14886123 -0.077903405 -0.22498925 -0.2904304
0.113672055 -0.08818239 -0.20079373 -0.007464918 -0.033934195 0.24482042 -0.5858071 -0.6024704
0.006491694 0.10607733 0.038985766 0.07871224 -0.07923191 0.25081623 -0.1430659 0.30528885
0.1925295 -0.080351174 0.01844169 0.073055856 0.5784583 -0.2442544 -0.33804697 0.0040890947
0.51407164 -0.29695898 -0.27800164 0.082298055 0.4163333 -0.003587382 -0.08729651 -0.11425573
0.1828993 -0.018468028 0.08870304 -0.19204402 0.19016092 -0.025087621 0.14741576 0.15650645
0.18594228 0.089693874 0.06744546 0.2541508 0.17593253 -0.16900316 -0.024514448 0.1025345
-0.1203508 0.12312711 -0.038118687 -0.03601084 -0.16855271 -0.059010718 -0.10321048 0.10948693
-0.19187732 -0.24041657 0.20147137 0.055200133 0.064756736 -0.025359137 -0.068550356 -0.15595053
-0.03888751 -0.16195773 0.0047633112 0.15177085 -0.05123572 0.00864749 0.23248465 -0.0518713
-0.20940454 -0.22474839 0.1543852 0.12641764 -0.10590545 0.11998111 0.20707844 0.17457958
0.088562824 0.0031768961 0.14784417 -0.030493949 0.034128536 -0.24729413 0.36494908 0.36485976
0.050956964 -0.2824902 -0.13304502 0.07284449 0.06297725 -0.3185033 0.10537837 -0.3419307
00000000: eb32 6e3e 205b c3bc cba9 0abe 5e9d 033e
00000010: c617 65bd 5353 033e db5d 08bf 7a0e b9be
00000020: 9757 71bc 6fa8 fb3d 2fa1 c13c a9a2 b6bd
00000030: 0365 483d 84c1 b33e e7b3 a1bd 4b83 af3e
00000040: 023b ce3c d473 0cbd ecee 35bc 0208 f73d
00000050: d2a0 c03e 2169 80be 98e7 89be eef3 9dbd
00000060: cb14 4a3e 560d 5abe 229d b2be a0ba f2bb
00000070: 4a67 363e 9f10 08be 9552 7ebc 0277 5fbd
00000080: 162c e63d 4afd ea3a 0f06 0f3d 441e 25be
00000090: bea7 3f3e ca16 623d 3a7f 573d 37e6 713d
000000a0: d1ae 0e3e 755a 5abd 3828 8fbe da7f 10be
000000b0: ea3c 50be 0c2d 0e3e 5476 0dbf 5743 0dbf
000000c0: 2ae6 8a3e 17c0 373c a68f 2a3c a50b dc3c
000000d0: 180e 513e 1ce0 c93e 8055 c73c 0012 cc3e
000000e0: c310 623e 6f93 4b3e e60e 66be 3ea6 7fbc
000000f0: 47da f23e 1035 5dbe 06fd c1be 5f59 42be
00000100: e7d0 b13e 49bb 99be ee24 24bd 55f6 0dbe
00000110: bb62 b53e 06b3 1cbe f348 88be 2e64 d33d
00000120: ba8f 543e 9c83 0b3b a899 153c 2438 a5be
00000130: 4c08 233e e354 29bd 238f 99bd d857 3e3e
00000140: 3c45 e6bc 3c5c 34bd 07d0 65bc f99e 00be
00000150: 580d cabd cc37 913c fab6 c73d 3d4a 103d
00000160: 7f70 8c3d 4921 45be 8990 043e c43b 393c
00000170: 0c6f 753a 3c0b 51bd 658c 0e3d 0bb3 2cbe
00000180: b90d 173e 011e 703d 5428 0ebd ae5c 94bb
00000190: 9829 6dbd d82b ba3d e63f 253e 9b62 bb3c
000001a0: ab41 c6b9 4a59 c43d 26e2 c63d b796 9cbc
000001b0: 6551 ba3d 397f 77bd 69fd 4fbd 444a 913d
000001c0: 3d71 a83d ecb0 ec3d 0551 84bd e189 81bd
000001d0: 088b 9c3d 3fb2 d7bd 8eae d0bd 5d13 d4bd
000001e0: 4e46 a2bd 91c3 cb3d cb69 763e 3822 0dbd
000001f0: 1cea b93d 3b9b c7bc f0d6 043f 9bd7 193f
00000200: 18d9 a4bc d68c 2bbd c1d9 13bd 7f1f 19bd
00000210: c67f e93d 4d27 b4be 703b 173e 6653 edbe
00000220: aaeb dfbd 0b07 1b3e 6a41 7e3c 0437 9bbd
00000230: 03fa 21bf 999b 613e e862 ec3e ce60 263e
00000240: b73c fcbe 38c8 e43e 8250 3f3e 2027 b7bd
00000250: 77be ebbe 5c1c 643d a69f 9a3d 4f77 fabc
00000260: dbc7 93bd 8c4e 383e 66eb 43be d746 9f3d
00000270: 146f 18be d28b 9fbd 9563 66be 4bb3 94be
00000280: e5cc e83d f898 b4bd df9c 4dbe 459c f4bb
00000290: 95fe 0abd 34b2 7a3e 74f7 15bf 803b 1abf
000002a0: 47b8 d43b 123f d93d 8aaf 1f3d e233 a13d
000002b0: 5744 a2bd fc6a 803e de7f 12be d24e 9c3e
000002c0: 7426 453e 288f a4bd 0713 973c 4f9e 953d
000002d0: d815 143f d31d 7abe 7e14 adbe d0fd 853b
000002e0: 339a 033f 020b 98be 3b56 8ebe e28b a83d
000002f0: a329 d53e 481a 6bbb 83c8 b2bd e8fe e9bd
00000300: f449 3b3e 434a 97bc f0a9 b53d 30a7 44be
00000310: 8bb9 423e 8e84 cdbc 28f4 163e 3a43 203e
00000320: a767 3e3e 6cb1 b73d d820 8a3d 0e20 823e
00000330: a827 343e 2a0f 2dbe 86d2 c8bc 9cfd d13d
00000340: 7b7a f6bd 112a fc3d 5722 1cbd 1a80 13bd
00000350: 1599 2cbe 39b5 71bd 0460 d3bd af3a e03d
00000360: 7d7b 44be c32f 76be 834e 4e3e 8919 623d
00000370: 2e9f 843d f7bd cfbc 2164 8cbd 7fb1 1fbe
00000380: 8248 1fbd 3fd8 25be 8d15 9c3b d169 1b3e
00000390: 8cdc 51bd 34ae 0d3c 7510 6e3e 0077 54bd
000003a0: 256e 56be 7124 66be 2717 1e3e a073 013e
000003b0: f5e4 d8bd a8b8 f53d 5f0c 543e fdc4 323e
000003c0: 6d60 b53d 7933 503b 7664 173e 72ce f9bc
000003d0: 5dca 0b3d ac3a 7dbe 9bda ba3e e6ce ba3e
000003e0: 40b8 503d 8ea2 90be f43c 08be 7e2f 953d
000003f0: 37fa 803d dd12 a3be 9dd0 d73d 8a11 afbe

gru.weight_ih f4 [120, 40]
-0.114498295 0.2849844 -0.21698222 0.1333549 -0.021442391 -0.19834074 0.1081427 0.1560348
-0.14827935 -0.14448899 0.14482199 0.13763137 0.15736231 0.038062625 0.25436667 0.06352585
-0.03777614 -0.13890807 -0.122107804 0.15764439 0.11813107 0.012252972 -0.18343547 0.16906427
-0.0058048773 0.29596674 0.17161457 0.033746745 -0.32257086 -0.009449487 0.1685334 -0.017135723
0.76131165 0.011127392 -0.41781652 0.09962017 0.43714768 0.20933186 -0.1324039 0.021573158
0.31726664 0.27703932 -0.09783119 -0.12026601 0.05469898 0.015977936 0.33701357 0.07469089
-0.19768813 -0.33409154 0.045202635 0.05800016 0.05760926 -0.07820375 0.012254984 -0.0022159247
-0.0467794 -0.44891077 0.113754466 0.112859935 0.14770089 0.034344826 -0.1813781 0.17138398
-0.13735901 -0.02117478 -0.004217722 0.14153711 0.14519359 0.08107689 -0.100515254 -0.16743512
0.14156948 0.02299579 -0.16519846 0.19692786 0.27393058 -0.06279796 -0.13073395 0.1816413
-0.25706425 0.21011554 -0.11875698 -0.06909944 0.11933815 -0.025058994 0.060453795 -0.11747846
-0.043867555 -0.113696896 0.15214589 0.16552942 -0.03680474 -0.3011353 0.1859024 -0.0026693777
0.1756043 0.053853683 0.05556716 0.0072467527 0.037657533 -0.055668578 -0.3061459 0.15510769
-0.12591685 0.31046495 0.14746036 0.037095003 -0.3282352 0.092804745 -0.07289821 -0.14018223
0.35188913 -0.06086179 -0.16472363 0.15226188 0.17686625 0.10487345 -0.19009587 -0.22891799
0.08111153 -0.014135096 0.29364753 -0.24055797 0.17948227 -0.10120881 0.023032678 0.2623844
0.35795003 -0.038880587 0.08850686 -0.09334478 0.07396758 -0.25324965 -0.050343376 -0.40503037
-0.2014181 0.011164913 0.29450142 0.09872897 -0.07755293 -0.07702341 -0.07050004 0.21510437
-0.050707024 -0.11242234 0.01343342 -0.23405318 -0.062432423 -0.036473345 0.09899904 -0.13107371
-0.052095372 -0.3459117 -0.056689125 -0.083484106 0.13335487 -0.053175893 0.13435055 -0.22264904
-0.04977121 0.04713054 0.09117932 0.06302708 0.16709815 -0.21208666 0.2244132 0.2768036
0.05369967 -0.06599384 0.12533526 -0.18260148 -0.07387223 -0.27789488 -0.026028292 -0.040810242
-0.126889 0.06645365 0.06007367 0.0699234 0.2867608 -0.04231782 -0.2266926 0.16494769
-0.31059062 0.08442371 -0.19612478 -0.114032604 -0.0848387 0.16426037 0.089385405 -0.032172553
-0.008423871 -0.0879413 0.18215553 0.13582629 -0.16262627 -0.131588 0.1726623 -0.49952763
0.28568774 -0.034079116 0.14679869 -0.3419582 0.02914991 -0.08495797 -0.007038235 0.36777467
0.39957005 0.045995455 0.22394927 -0.17316099 0.12656847 0.057921357 0.20913427 0.028607901
-0.30247283 0.015101517 0.33287397 -0.32770237 0.37260348 0.026914049 0.006607865 -0.13915396
-0.23579004 -0.027494663 -0.12894118 -0.15802334 -0.19648921 0.09022237 0.6107485 0.016300712
0.05141492 -0.4832538 0.44048256 0.14618833 -0.19188401 -0.27926886 -0.0006546604 -0.22368866
0.113563225 0.1868507 0.03934177 0.08939058 0.04014176 0.11564749 0.23763196 -0.07246333
0.004414942 -0.29597476 0.21411915 0.10158895 0.051060077 -0.17806056 0.030816032 -0.08250658
00000000: 157e eabd 7ae9 913e 9630 5ebe 308e 083e
00000010: f4a7 afbc d619 4bbe eb79 dd3d 96c7 1f3e
00000020: 8bd6 17be ecf4 13be 374c 143e 3def 0c3e
00000030: 9623 213e 8ee7 1b3d 593c 823e d719 823d
00000040: 27bb 1abd eb3d 0ebe a813 fabd 886d 213e
00000050: b4ee f13d b1c0 483c 82d6 3bbe 2f1f 2d3e
00000060: d736 bebb f488 973e bbbb 2f3e 073a 0a3d
00000070: 0228 a5be 05d2 1abc 0594 2c3e 3760 8cbc
00000080: 52e5 423f aa4f 363c 0cec d5be a905 cc3d
00000090: d2d1 df3e 175b 563e e394 07be 31ba b03c
000000a0: c670 a23e 19d8 8d3e b85b c8bd 074e f6bd
000000b0: 0a0c 603d 29e4 823c 0b8d ac3e 8af7 983d
000000c0: c26e 4abe 0c0e abbe 6626 393d 9391 6d3d
000000d0: b0f7 6b3d 4a29 a0bd 21c9 483c 0c39 11bb
000000e0: c29b 3fbd a2d7 e5be 1af8 e83d 1c23 e73d
000000f0: e73e 173e 29ad 0c3d 2ebb 39be 487f 2f3e
00000100: d7a7 0cbe bb76 adbc d134 8abb 1bef 103e
00000110: a1ad 143e a40b a63d f1da cdbd 1d74 2bbe
00000120: 97f7 103e ab61 bc3c c929 29be 75a7 493e
00000130: a140 8c3e 389c 80bd 1fdf 05be 2d00 3a3e
00000140: ed9d 83be 8728 573e dc36 f3bd 0284 8dbd
00000150: 8f67 f43d 8548 cdbc 669e 773d 8c98 f0bd
00000160: 77ae 33bd ebd9 e8bd 22cc 1b3e 8b80 293e
00000170: 91c0 16bd 682e 9abe 335d 3e3e baf0 2ebb
00000180: 9dd1 333e ae95 5c3d 649a 633d 2b76 ed3b
00000190: c93e 1a3d bc04 64bd 28bf 9cbe 8dd4 1e3e
000001a0: 59f0 00be 43f5 9e3e d9ff 163e eef0 173d
000001b0: 720e a8be 6a10 be3d a84b 95bd ee8b 0fbe
000001c0: d02a b43e 364a 79bd 50ad 28be 8aea 1b3e
000001d0: 6d1c 353e e4c7 d63d 7ea8 42be 7a69 6abe
000001e0: cd1d a63d e496 67bc f858 963e d454 76be
000001f0: 33ca 373e 9146 cfbd 07af bc3c 4057 863e
00000200: 3a45 b73e 4041 1fbd 1643 b53d 8c2b bfbd
00000210: 517c 973d f0a9 81be db34 4ebd 2460 cfbe
00000220: 8c40 4ebe 0aed 363c e4c8 963e 6a32 ca3d
00000230: 12d4 9ebd 73be 9dbd 5362 90bd 5244 5c3e
00000240: 2bb2 4fbd af3d e6bd d917 5c3c a3ab 6fbe
00000250: 24b9 7fbd 1365 15bd 02c0 ca3d 3038 06be
00000260: f561 55bd 571b b1be db32 68bd b7f9 aabd
00000270: 2e8e 083e f7ce 59bd 3193 093e 1cfe 63be
00000280: e5dc 4bbd f40b 413d 39bc ba3d 5714 813d
00000290: c71b 2b3e 3f2d 59be 93cc 653e 34b9 8d3e
000002a0: 2ff4 5b3d c727 87bd e357 003e e2fb 3abe
000002b0: 534a 97bd 3d48 8ebe 4939 d5bc a428 27bd
000002c0: 31ef 01be da18 883d cf0f 763d 0034 8f3d
000002d0: 50d2 923e 7355 2dbd 1b22 68be 0ce8 283e
000002e0: bc05 9fbe 57e6 ac3d efd4 48be ed89 e9bd
000002f0: eabf adbd df33 283e b20f b73d 5ec7 03bd
00000300: 4704 0abc 911a b4bd fb86 3a3e 0c16 0b3e
00000310: 8087 26be 01bf 06be 63ce 303e 16c2 ffbe
00000320: aa45 923e 8b96 0bbd 6552 163e 2515 afbe
00000330: cbcb ee3c 72fe adbd ffa0 e6bb f64c bc3e
00000340: 7294 cc3e bb65 3c3d f552 653e 1d51 31be
00000350: 2a9b 013e f23e 6d3d 4b27 563e 1e5b ea3c
00000360: b8dd 9abe 5a6c 773c 756e aa3e 9bc8 a7be
00000370: e2c5 be3e da7a dc3c ca86 d83b 607e 0ebe
00000380: f272 71be 7d3c e1bc 2809 04be dfd0 21be
00000390: 7834 49be 82c6 b83d 045a 1c3f 1289 853c
000003a0: 7398 523d 0b6d f7be ee86 e13e 65b2 153e
000003b0: 3e7d 44be 54fc 8ebe 849d 2bba a40e 65be
000003c0: d693 e83d ca55 3f3e d624 213d 6912 b73d
000003d0: b06b 243d 97d8 ec3d cb55 733e a867 94bd
000003e0: 38ab 903b 018a 97be 0d42 5b3e de0d d03d
000003f0: 5f24 513d 8255 36be e771 fc3c 36f9 a8bd

gru.weight_hh f4 [120, 40]
-0.018914776 -0.12163504 -0.08553207 -0.09756147 -0.020159472 0.26624092 0.23635113 0.06962934
-0.025762472 0.095896386 -0.13952793 0.04409763 0.027847202 0.091420434 0.21665555 -0.18487535
0.14721136 0.12998241 -0.11226579 -0.0990008 0.06672402 -0.19549567 0.16139974 0.09337441
-0.10848444 0.06865459 0.06548746 -0.06953492 -0.011675743 0.22909302 0.07673155 -0.03302103
-0.1834154 0.06835999 -0.04438339 -0.07096114 0.060729835 0.30348688 -0.30674002 -0.045024723
-0.12777022 0.120261975 0.16459437 -0.18523322 0.14004458 0.12680788 0.15747377 0.10610458
0.18217434 -0.0066958806 0.19843695 -0.04949309 0.055023946 0.09118484 0.22083046 -0.24563116
0.04205899 0.16994667 -0.13600355 0.085862994 0.02638446 -0.33691126 -0.018034816 -0.0013825889
0.09000999 0.0059159514 0.12866864 0.27357152 0.09672152 0.25638968 0.058096137 0.037638307
0.07786591 0.11335234 -0.10948868 0.10323855 0.046147898 0.04401527 -0.11874197 0.054478474
-0.019323686 0.024068974 -0.066912524 -0.21628731 0.13556796 0.042600468 0.034749202 0.016979689
0.008000844 0.007541735 0.09760601 -0.07835641 -0.09575213 -0.07005182 0.24394721 -0.12650928
0.164157 0.25422493 -0.16878814 0.06715383 0.24764568 -0.2784882 0.06530257 -0.021776784
-0.1410418 0.1512323 0.046128158 0.14805573 -0.11157702 -0.03437347 -0.07468278 -0.1039991
-0.060131337 0.21189405 0.09511003 0.07198729 -0.029803619 -0.0074037346 -0.06425824 -0.013629273
-0.16439657 -0.10188745 0.10606626 0.08177171 0.1466341 0.08853178 0.12208586 -0.091629654
0.17096122 0.22163382 -0.10517326 -0.05467031 -0.17357768 -0.081431255 0.045123354 0.21385358
0.0696133 0.003089277 0.0042489795 0.27263772 0.104614 0.13565686 0.058436763 -0.013536628
-0.0119866235 -0.0050570024 -0.1012879 0.06967072 0.028595433 -0.025479797 0.22360495 -0.067606546
-0.18572143 0.115849935 -0.024318533 0.03930813 0.11537989 0.15212089 -0.13939627 0.05165449
0.07881121 -0.09653109 -0.08409013 -0.05198732 0.2703723 0.18134716 0.06120786 0.026821235
0.050088905 0.010653146 0.1987369 -0.030289413 -0.13967146 -0.0325488 0.09726857 -0.17262015
-0.00054057117 0.07812269 0.081156485 0.10153673 0.03347891 -0.19582546 0.04577122 -0.028334642
0.078740396 0.10375222 -0.08480892 0.011421923 -0.20478497 0.005440227 -0.091609 -0.05605842
0.11786974 -0.11884837 0.017579699 -0.09594694 -0.054938808 -0.040009364 -0.27450007 0.07779048
-0.18046792 -0.116902605 -0.028519891 -0.11771903 0.2075824 0.118806005 0.26161188 0.11338058
0.05822421 0.026788576 -0.032170627 0.23957427 -0.16642323 -0.13032387 0.24414991 -0.11247014
0.089165494 0.064437814 -0.13240525 0.10555855 0.17359632 -0.13331488 0.13109984 0.032111097
-0.10662894 0.22452925 -0.27440104 -0.055341847 -0.0029165936 0.21125671 0.0029363965 -0.007363064
0.06914132 0.07752284 0.06566454 0.032410733 0.10610859 -0.019278193 -0.057953577 -0.07308297
-0.14532731 0.08205815 -0.28050172 -0.1813719 0.15356855 -0.031373285 0.27146563 0.15806496
0.033120167 0.124985054 0.26354113 0.014138817 -0.032192633 0.027601881 0.038584437 -0.19284266
00000000: 29f3 9abc cb1b f9bd 702b afbd 4fce c7bd
00000010: 7a25 a5bc bb50 883e 0806 723e d499 8e3d
00000020: d20b d3bc 5365 c43d 69e0 0ebe b79f 343d
00000030: d11f e43c a33a bb3d f4da 5d3e f74f 3dbe
00000040: 93be 163e 1c1a 053e 9beb e5bd eec0 cabd
00000050: 9aa6 883d 0430 48be f945 253e 153b bf3d
00000060: 172d debd c79a 8c3d 4a1e 863d 5368 8ebd
00000070: 9e4b 3fbc 5c97 6a3e 6e25 9d3d 0f41 07bd
00000080: 3fd1 3bbe 5300 8c3d 5ccb 35bd 1354 91bd
00000090: d9bf 783d a262 9b3e 070d 9dbe d86b 38bd
000000a0: 32d6 02be e94b f63d 6d8b 283e c7ad 3dbe
000000b0: d967 0f3e edd9 013e ce40 213e 5c4d d93d
000000c0: e98b 3a3e 1e69 dbbb 0e33 4b3e 44b9 4abd
000000d0: ca60 613d 1ebf ba3d 6121 623e bc86 7bbe
000000e0: 0c46 2c3d 8006 2e3e 8444 0bbe f0d8 af3d
000000f0: 3924 d83c a27f acbe c0bd 93bc fc37 b5ba
00000100: 2857 b83d 99da c13b b6c1 033e 9111 8c3e
00000110: ef15 c63d 8245 833e 37f6 6d3d a02a 1a3d
00000120: 2a78 9f3d 4625 e83d 9a3b e0bd bc6e d33d
00000130: 9405 3d3d 5b49 343d fd2e f3bd d224 5f3d
00000140: b54c 9ebc 4c2c c53c 6f09 89bd 6c7a 5dbe
00000150: 54d2 0a3e d47d 2e3d 2e55 0e3d fd18 8b3c
00000160: f915 033c a920 f73b a9e5 c73d 5379 a0bd
00000170: b119 c4bd 5477 8fbd 4ccd 793e a68b 01be
00000180: c618 283e c529 823e ccd6 2cbe f287 893d
00000190: d496 7d3e 0196 8ebe 5bbd 853d 3a65 b2bc
000001a0: 436d 10be a4dc 1a3e e1f0 3c3d ec9b 173e
000001b0: 7e82 e4bd 32cb 0cbd 49f3 98bd 7bfd d4bd
000001c0: 474c 76bd c1fa 583e 0cc9 c23d 136e 933d
000001d0: b826 f4bc 079b f2bb d399 83bd 504d 5fbc
000001e0: 9357 28be 5eaa d0bd 4439 d93d ed77 a73d
000001f0: 4027 163e 2650 b53d 2708 fa3d 54a8 bbbd
00000200: 7510 2f3e faf3 623e 1465 d7bd faed 5fbd
00000210: 59be 31be 6ec5 a6bd 44d3 383d 6ffc 5a3e
00000220: 6b91 8e3d 7875 4a3b 063b 8b3b 2c97 8b3e
00000230: dd3f d63d a2e9 0a3e 635b 6f3d bcc8 5dbc
00000240: 8b63 44bc 36b5 a5bb 0870 cfbd 86af 8e3d
00000250: f840 ea3c 02bb d0bc b2f8 643e 4d75 8abd
00000260: c22d 3ebe bb42 ed3d a937 c7bc 9001 213d
00000270: 4b4c ec3d 94c5 1b3e e5bd 0ebe a993 533d
00000280: c667 a13d 18b2 c5bd 7237 acbd a8f0 54bd
00000290: 3d6e 8a3e 12b3 393e 18b5 7a3d 35b8 db3c
000002a0: 062a 4d3d 888a 2e3c b081 4b3e 8121 f8bc
000002b0: 0906 0fbe e451 05bd be34 c73d 56c3 30be
000002c0: 1eb5 0dba cafe 9f3d 5f35 a63d 7df2 cf3d
000002d0: 2e21 093d 7886 48be 9a7a 3b3d 0d1e e8bc
000002e0: a542 a13d 0b7c d43d 4db0 adbd 0423 3b3c
000002f0: 27b3 51be ef43 b23b 809d bbbd 849d 65bd
00000300: b165 f13d c666 f3bd 4d03 903c d47f c4bd
00000310: 8407 61bd dce0 23bd 468b 8cbe 9d50 9f3d
00000320: 95cc 38be a26a efbd 8ca2 e9bc ad16 f1bd
00000330: 7b90 543e 9050 f33d fef1 853e 1434 e83d
00000340: 827c 6e3d b773 db3c 59c5 03bd f552 753e
00000350: da6a 2abe 9f73 05be 6f02 7a3e bf56 e6bd
00000360: 669c b63d f9f7 833d 3e95 07be 152f d83d
00000370: 3cc3 313e b283 08be 093f 063e ed86 033d
00000380: 4660 dabd ffea 653e 4b7e 8cbe 22ae 62bd
00000390: 5224 3fbb ae53 583e 8f70 403b dc45 f1bb
000003a0: f799 8d3d 4bc4 9e3d 217b 863d 1ec1 043d
000003b0: 764f d93d 4ded 9dbc bb60 6dbd 86ac 95bd
000003c0: afd0 14be 1a0e a83d ec9d 8fbe 8eb9 39be
000003d0: 1341 1d3e 4681 00bd 8bfd 8a3e c8db 213e
000003e0: 03a9 073d 2af8 ff3d ddee 863e 7fa6 673c
000003f0: 6cdc 03bd 571d e23c b70a 1e3d 8c78 45be

gru.bias_ih f4 [120]
-0.05879353 -0.17584878 -0.12121832 -0.24749379 -0.3127715 -0.36954534 -0.06254634 -0.05622529
-0.24519102 -0.36957312 0.07499751 -0.06518845 -0.41072738 -0.052940506 -0.12558714 -0.1325157
-0.16117996 -0.13286091 -0.11082625 -0.1882176 -0.19550076 0.08370773 -0.29724073 0.093258984
-0.22771935 -0.10931528 -0.19796517 -0.21767688 -0.12597738 -0.06607551 -0.17487961 -0.159307
-0.16246104 -0.03324117 -0.23548988 0.04072121 -0.18726768 0.01878445 -0.049566366 0.107300095
-0.44419357 -0.24762054 -0.30882964 -0.44850728 -0.2677564 -0.48280013 -0.10507518 -0.4668183
-0.2042508 -0.43260527 -0.095560946 -0.14933746 -0.46446285 -0.21441367 -0.3773307 -0.44880122
-0.042904664 -0.43155137 -0.19557065 -0.05211393 -0.25398135 -0.53860456 -0.59352136 -0.1878528
-0.2528992 -0.30402184 -0.06959744 -0.31089666 -0.3560065 -0.22471222 -0.42370012 -0.16951588
-0.29938367 -0.12718914 -0.45145234 -0.5251796 -0.33543316 -0.44779488 -0.13649948 -0.16355109
0.08094802 -0.08510325 0.031706568 0.16949564 0.034311842 0.11771847 -0.06633842 0.21747951
-0.07070316 -0.080618225 -0.04448436 0.19549456 -0.01504235 -0.016567875 -0.011087147 -0.12929556
-0.14317033 0.019237332 -0.15760422 -0.018043073 -0.17554702 -0.25963548 0.08921723 0.18391907
0.17449476 -0.17636092 -0.058375884 0.063417085 -0.09618048 -0.010860205 0.01210041 -0.07171117
0.19282657 -0.09173335 -0.036479976 -0.10715123 0.07108961 -0.109354064 -0.029704165 0.04008729
00000000: 7cd1 70bd b411 34be 5041 f8bd 036f 7dbe
00000010: 9623 a0be 0c35 bdbe 4c18 80bd 7d4c 66bd
00000020: 5b13 7bbe b038 bdbe 4b98 993d 8681 85bd
00000030: dc4a d2be 25d8 58bd ea99 00be 32b2 07be
00000040: 5c0c 25be b10c 08be dff8 e2bd 1dbc 40be
00000050: 5a31 48be f56e ab3d f02f 98be 91fe be3d
00000060: 432f 69be b1e0 dfbd 62b7 4abe b0e6 5ebe
00000070: 3700 01be 9952 87bd a413 33be 6021 23be
00000080: 305c 26be e527 08bd 4224 71be 49cb 263d
00000090: 19c3 3fbe d9e1 993c 1a06 4bbd 27c0 db3d
000000a0: 576d e3be 3d90 7dbe eb1e 9ebe bfa2 e5be
000000b0: 5e17 89be 9431 f7be a831 d7bd cf02 efbe
000000c0: 1f27 51be 707e ddbe 75b5 c3bd ebeb 18be
000000d0: 13ce edbe 428f 5bbe 7d31 c1be 46c9 e5be
000000e0: cdbc 2fbd 4df4 dcbe ac43 48be 6b75 55bd
000000f0: d809 82be fde1 09bf 04f1 17bf 7c5c 40be
00000100: 017c 81be c0a8 9bbe 1a89 8ebd d92d 9fbe
00000110: 7c46 b6be f61a 66be 39ef d8be 9295 2dbe
00000120: d148 99be df3d 02be c324 e7be 2c72 06bf
00000130: e5bd abbe 5f45 e5be 85c6 0bbe f079 27be
00000140: 13c8 a53d 9d4a aebd bfde 013d 4490 2d3e
00000150: 938a 0c3d 6216 f13d 70dc 87bd f3b2 5e3e
00000160: d1cc 90bd 2b1b a5bd 3b35 36bd ba2f 483e
00000170: 3074 76bc 5ab9 87bc dda6 35bc 0e66 04be
00000180: 3e9b 12be 9c97 9d3c 0063 21be 11cf 93bc
00000190: 99c2 33be f1ee 84be 86b7 b63d 4855 3c3e
000001a0: c1ae 323e f597 34be 8d1b 6fbd d1e0 813d
000001b0: 46fa c4bd 00ef 31bc cc40 463c 4edd 92bd
000001c0: 5474 453e b2de bbbd 076c 15bd 1b72 dbbd
000001d0: 6e97 913d 06f5 dfbd 2656 f3bc 9232 243d
