model_checkpoints/clevr_567_models/latest/latest_net_Encoder.pth (torch, 418651 bytes, 12 tensors)

enc_down_1.0.weight f4 [40, 7, 3, 3]
00000000: 0e6d 1c3d da1d da3c dd44 db3c 007e d3bc
00000010: 2322 983b d40a d73b e584 423c 1ad1 783d
00000020: ac6a e03c 8f98 c33c 31d5 dc3b a901 f83c
00000030: 7c76 133d ddde 5ebc 03d5 bd3c 27ce 033d
00000040: 741e cb3c 7b1d 153d 8b37 1bbb 4730 5dbc
00000050: ca97 8d3d d24c 843c 09d7 a03c ad80 843d
00000060: eee2 2f3c 9aa5 5e3c 9e74 eabb 5e2d 043c
00000070: 6d7e 8bbc 91ec 9c3c 5c5e c13c c102 cbbc
00000080: aa12 ae3c b54c 37bc 6a4b 96ba 330a 11bd
00000090: 5969 94ba d982 4dbd 1373 7fbb 9910 bb3b
000000a0: 42e7 1abd 4d30 87bc 9716 6abc 8448 9d3c
000000b0: 5bdb aabc 57f2 193c 9f23 a03c 2e35 1b3c
000000c0: db80 22bc bae5 c8bc 47c1 3d3c 1cd7 803c
000000d0: 3d8c 133c e4e0 adbc 4b16 2dbd 579e b33c
000000e0: 1198 f53b 74aa 18bc a5c4 47bb dad0 9ebb
000000f0: 6e5a fb3b 5f4e 0cbb 9cb6 023c bc48 423e
00000100: 6760 263e e106 e63d a052 123e 7902 e43d
00000110: bb47 0d3e b501 283e 470d 023e 6839 573e
00000120: 0e53 543e c44e 2d3e 57b8 553e e157 393e
00000130: 63fc 263e 4ed9 643e eaac 3a3e 18e6 453e
00000140: e0e7 753e 21b6 1e3d 7395 7b3b 010a 7c3c
00000150: 1fd1 27bc 23ba 4fbc 1e3b 6abc a0e2 2dbd
00000160: 080c 68bd c557 f9bc cff5 0d3e a3de 163e
00000170: 3a9a d93d 0aae 1c3e fec0 013e bd60 1a3e
00000180: e658 433e 34c6 fb3d 1a62 c73d 5f9f 05bd
00000190: f6ca 49bc 0e50 12bd 6071 ca39 d413 07bc
000001a0: 99c5 083a efa6 23bc 4978 a33c ffd1 64bc
000001b0: 607c 493e 2cbd 3f3e d307 433e 3815 363e
000001c0: 80ff 323e b79c 473e 90c5 2b3e 0e33 2d3e
000001d0: 0162 313e adda 01bd 9470 19bd 788c 03bd
000001e0: 466d 03bd b0fe 4cbd d14e ce3c 05ed 2bbb
000001f0: bd46 2abc 49ce 3dbd f4bf 0fbc a9a4 50bc
00000200: 08bc dbbb e631 51bd eee9 95bd 9ca8 2abd
00000210: a723 7bbd c75a 8ebd 6f16 99bc 013f a1bb
00000220: b45b 96bd bcad e7bc 2e53 90bd 1a09 b1bd
00000230: 772b 18bd d518 62bd e8fa edbd 754f c8bd
00000240: c5a4 75bc c1e8 c5bd 2f7c 79bd c8ec 47bd
00000250: 89a8 94bd d8b5 78bd d512 40bd 40b9 5bbd
00000260: 92c1 32bd a8f3 7b3e 9066 523e 0cbc 6b3e
00000270: 2b71 953e dae2 7b3e 85e0 6b3e 9fff 923e
00000280: f098 7b3e a7bd 6d3e e700 a2bd 7393 aebd
00000290: e710 d7bd 6e02 8cbd 527a 27bd 313f e5bd
000002a0: edec 8bbd 348e 15bd 56b0 96bd 6cef 0fbe
000002b0: 7202 20be 92a4 2bbe a7d2 15be 7b0e f5bd
000002c0: 6ffd 19be 42ee 22be 6ad7 debd b7fe 20be
000002d0: f9e3 5abb c180 8b3c a484 233c c929 d0bc
000002e0: 1793 83bb 9461 6f3c d3f0 303c a15f af3c
000002f0: 0423 173d bca7 afbc 2f4e 7abc 92ee 1e3b
00000300: a3df d4bd 06f6 09bd 6f33 3bbd ca8c 01be
00000310: d583 c1bd 0d9d a4bd 79bf 88bd 6bda 6cbd
00000320: 91b2 1cbd 1a27 f8bd c3e7 4dbd cafe 4dbd
00000330: 3ca7 08be 5f80 cebd f542 92bd 8972 863b
00000340: dd3e 6fbc 46e3 08bd 69a3 02bd 643a 84bd
00000350: 605f f9bc e49e f7bd 8240 b5bd 7638 97bd
00000360: 0f58 ab3c 0e1c ea3c df41 7c3c cd2a 2ebc
00000370: fc4f 03bc d939 973d 3cb3 bf3b 71cc 4c3d
00000380: a84f a63c f40c 89bb 8c21 573d 170d 713c
00000390: 14de b03c 74a1 203d a83a dd3b f604 423c
000003a0: 38f4 7abc 0693 cf3c 73f8 913e b7ea b53e
000003b0: 376e 9f3e bed1 983e ae4d 963e 25e2 963e
000003c0: e1ec 903e 9283 823e e43c 793e 64fa 31bd
000003d0: a4d3 d1bc 39b8 a0bd c5f0 58bd ab7e 80bd
000003e0: af60 14bd 2ef8 06bd 21dd 50bd bc56 c6bc
000003f0: 0d5c 1dbd e524 6abc 72eb 0e3a b535 86bd
0.03818994 0.026625562 0.026766235 -0.025816917 0.0046427413 0.00656257 0.011872505 0.06074629
0.027394615 0.023876457 0.0067392816 0.03027423 0.036001667 -0.013602939 0.023172861 0.032179024
0.024794795 0.036405068 -0.002368423 -0.01350028 0.06913717 0.016149912 0.019633787 0.064698555
0.010735257 0.013589287 -0.007155015 0.008067457 -0.017028058 0.019155772 0.023604564 -0.024781587
0.021249134 -0.011187722 -0.0011466567 -0.035410117 -0.00113229 -0.050173614 -0.0038978502 0.0057087657
-0.0378182 -0.016502524 -0.014287612 0.019199617 -0.02085655 0.009396157 0.019548235 0.009473128
-0.009918417 -0.024523605 0.011581725 0.015727572 0.009005603 -0.0212254 -0.04225759 0.021926088
0.0074949344 -0.009317983 -0.00304822 -0.0048466744 0.007670692 -0.0021409017 0.007978108 0.18973058
0.16247712 0.11231781 0.14289331 0.11133284 0.13796894 0.16406901 0.12700377 0.21017992
0.20734808 0.16924578 0.20871101 0.1809993 0.16307215 0.2234852 0.18230024 0.19326055
0.24014235 0.03874791 0.003838864 0.0153832445 -0.010242729 -0.012678656 -0.014296321 -0.042452455
-0.0566521 -0.03043736 0.138633 0.14733367 0.106251195 0.15300766 0.12671277 0.15075965
0.19076881 0.122936636 0.09735508 -0.03262269 -0.012316456 -0.035720877 0.00038612913 -0.0082444735
0.00052174326 -0.009988531 0.019954817 -0.013966083 0.19676352 0.18724507 0.19045953 0.17781532
0.17480278 0.19493376 0.16774583 0.16914007 0.17322542 -0.031702686 -0.03746088 -0.032116383
-0.032086633 -0.050047576 0.025184067 -0.0026233804 -0.010392842 -0.046339307 -0.008773793 -0.012734571
-0.0067057647 -0.051072977 -0.07320009 -0.041664705 -0.061313298 -0.06950908 -0.018687455 -0.0049208407
-0.0734171 -0.028281085 -0.07047115 -0.08644314 -0.037150826 -0.055199463 -0.11620122 -0.0978078
-0.014992897 -0.09663535 -0.060909446 -0.048809797 -0.07258708 -0.060720295 -0.04689296 -0.053643465
-0.043641634 0.24604666 0.20546937 0.23020953 0.29187903 0.24598256 0.23034866 0.28710648
0.2457006 0.23216878 -0.07910328 -0.085242175 -0.10501271 -0.06836401 -0.040888138 -0.111936934
-0.068322994 -0.03651257 -0.07357852 -0.14056176 -0.15625933 -0.16761997 -0.14631139 -0.119656526
-0.15038083 -0.159112 -0.10880931 -0.15722166 -0.0033400042 0.017029168 0.009980354 -0.02541055
-0.004015337 0.014610667 0.0107996045 0.021407904 0.036898628 -0.021442287 -0.0152774295 0.0024251086
-0.10394218 -0.03368189 -0.045703348 -0.12651363 -0.09448973 -0.080377676 -0.066771455 -0.057825487
-0.03825623 -0.12116833 -0.050269853 -0.050291814 -0.13345045 -0.100830786 -0.07141677 0.004103009
-0.01460239 -0.03341987 -0.03189412 -0.0645645 -0.030440986 -0.12090853 -0.088501945 -0.07383816
0.020916013 0.02857783 0.015396564 -0.010630322 -0.008014675 0.073840804 0.005850224 0.049999658
0.020301655 -0.0041824523 0.052522227 0.0147125935 0.02159027 0.039216474 0.006751377 0.011842003
-0.015317015 0.02533866 0.28509864 0.35530636 0.31138775 0.2984752 0.2935614 0.2946941
0.28305724 0.25491005 0.24339634 -0.04345168 -0.025613613 -0.07847638 -0.05296399 -0.0627416
-0.036225017 -0.032951526 -0.050992135 -0.02421128 -0.038417865 -0.014291023 0.0005451954 -0.065532126

enc_down_1.0.bias f4 [40]
00000000: 431c 01bc 209c 783c 5ad0 4ebc 9980 c43b
00000010: 05b3 99bd bab7 eabb 0000 0000 0be7 5a3d
00000020: 6993 b2bc e585 263d 3f03 b9bc b415 4ebd
00000030: fde9 fabc 8343 c4bc 2d0f 29bc 9bb9 64bc
00000040: 123b 59bc f66e e8bc abb5 803d fc82 b63d
00000050: 4ed3 c63d 725e 3dba 97d5 e7bc 09ef ca3c
00000060: 8c86 7dbc 9207 443a 701a 98bc 1f20 bc3d
00000070: d14f 55bc 7ea5 4cbb d317 663d 01f5 87bb
00000080: 240f d7bc 7295 1f3d bdd5 283c e7f3 603d
00000090: 9d59 9cbb fc7e 16bd 764f 3e3d 2bf7 95bc
-0.007880273 0.015173942 -0.012622917 0.0059967753 -0.075048484 -0.007163015 0.0 0.053442996
-0.021798806 0.040655036 -0.022584556 -0.050313666 -0.030629152 -0.023957973 -0.01031856 -0.013960267
-0.013258712 -0.028373223 0.062846504 0.08911702 0.09708272 -0.0007223851 -0.02830009 0.024772184
-0.015473973 0.00074779347 -0.018567294 0.09185814 -0.013019518 -0.003122657 0.056175064 -0.00414908
-0.026252337 0.03896088 0.010304865 0.054920103 -0.004771425 -0.036742195 0.0464625 -0.018306335

enc_down_2.0.weight f4 [40, 40, 3, 3]
00000000: f056 8a3c 9542 423a 9dd9 f6ba 2c16 233c
00000010: 927f 00bd 8729 053c 1ea9 853c 35a2 5bbc
00000020: 1492 513b 0f44 643c f163 a4bb 6481 19bd
00000030: 2878 93bc 00bc acbc 875c c0bc 14e9 8b3b
00000040: c0f9 42bd 1bf1 1b3c c37e e5b9 ab99 733c
00000050: 993d 51bc 0191 08bd f264 2d3c 5113 9a3c
00000060: 1d40 70bc 55a0 da3c 70f2 ac3c 486c 813c
00000070: e8b7 443b b7bb cdbc 6ff6 40bc 82bb dfba
00000080: 478a 2e3c ee30 9dbc a6e7 303c 2417 fabc
00000090: a11d 98bc 6b61 dc3b 7aac 303c 57cd 0abd
000000a0: dd76 2a3c 220b 8cbc 0cb9 9d3c a1bd 483c
000000b0: d669 ccbb 17a4 efbc 3703 22bc 5bc1 80bd
000000c0: 1647 7abc d1fd 45bd e617 f3bb 1823 e3b9
000000d0: bcd8 dcbb 5375 00bd def6 c33c 8e0b bc3c
000000e0: 0508 bdbc 12bc ad3c d38b 283b d129 20bd
000000f0: 4f4b 493b b09b b5bb f346 9dbb bed1 a83c
00000100: 664b 02bc c7d3 c03c 723f 88bc 7e44 3ebd
00000110: 3852 d0bc 1e7c da3b a56c 663c 2573 a63c
00000120: 4386 fdbb 4923 84bd 3659 d13b 9c01 b13c
00000130: 27c0 14bc 2555 76bc 672d 373d b052 d33b
00000140: f20d 01bd 7acd 99bc 5038 30bc 4de8 debc
00000150: e924 83bc 7c97 27bc cbc3 cd3c b98e a13c
00000160: 4441 e3bc f003 17bd bf0a 0c3c c9c2 0bbb
00000170: 83c7 503c 4ae1 68bd a78a 8dbc 9e0a d1bb
00000180: 931a 6abb e82e 583c d6f0 a3bc 4323 1c3b
00000190: 90a5 15bd 1e97 913a b375 973c 035c 8ebc
000001a0: d81f 86b9 d5fc 4fbc 7b2c 973c 2906 92bc
000001b0: c110 63bc 7bf4 6aba c8c4 babc 6574 a0bb
000001c0: fa34 b53c 9efe 10bd ca28 31bc 1fa2 86bc
000001d0: a3ba 47bd 84b5 c9bc 45c5 abbc 94a5 8d3c
000001e0: 9163 cbbc 9133 ccbc 936b 9dbc e01c e5bb
000001f0: fe06 933c 46b9 87bb a5f3 5f3b f019 3cbc
00000200: 0785 18bc b721 68bc 0be2 c5bc 9530 c73c
00000210: d92f b4ba b792 97bc 4df7 6d3c 0424 4e3b
00000220: d70c 25bc 7555 463c 3c39 87bc f95c 523c
00000230: 0d21 99bc 0696 fb3a c9a7 80bc 86ab aabc
00000240: 65e6 1a3b 49ac 1dbc f514 f3bc 608a 5bbc
00000250: ef45 64bd 27d7 01bd 35fd d83c c9a6 2bbd
00000260: 7d9c eebc dd9b 6ebc 9ccb 483c 00dd c53a
00000270: 3055 76bc 5e36 113d 4471 84bc 7215 67bc
00000280: dd39 debc dcf0 c5bc 3c41 a03c b87c 823c
00000290: cb85 813a f927 0fbb ac66 debb 70ae e7bb
000002a0: 212a d63b 0886 b4bc 45af c1bb 1ed3 95bc
000002b0: 308e 97bc 763c 1bbd 369d c6bc 3840 bcbc
000002c0: f3de b6bc be24 11bd 2a95 f4bb 493e 46bd
000002d0: 025b 003c b0f7 0539 1165 4dbc 6ec0 d6bc
000002e0: ec03 b33c 7109 813b 76ac 86bb eae3 f73c
000002f0: f046 313d b250 d3bc f43e 90bc d02d a33c
00000300: d1e8 93bc c28a 903c b3a9 a5ba 21ed 413b
00000310: bcdb b73b 36e0 ebbc 6cc6 903c fa06 123b
00000320: 3e28 323d cb04 8a3b ea48 8d3c df4d 7d3c
00000330: e77d 3bbd 5681 8d3c cc08 a0bc 93f4 3c3c
00000340: 7d15 123d 13e0 bbbc 694c 233d a5f0 61bc
00000350: 7493 fa3c c20d b73c e213 22bd dee7 b5bc
00000360: 433b f6bc a03e 8abc 378d 42bb c4c9 b53c
00000370: 601c 6f3b d92f 49ba f930 83bc 276f 173d
00000380: d3c4 ec3b b3c5 71b9 4e9c a7bc cc0a a2bb
00000390: 7168 583c 3f9f 7bbc 91bc 1fbc 7baf 2bbd
000003a0: af40 6abd 669e 72bc bc40 b5bc 557f b43c
000003b0: cd73 acbb 3b00 3bbd 006a 063d 3343 8fbc
000003c0: 1aa8 2fbc b195 703c 1c2e a2bc b88d 9fbb
000003d0: 38b2 72bc db40 c6b8 7d80 aabc 5f41 11bc
000003e0: 3a99 42bd 7c52 1abc 6654 40bd 792a 27bc
000003f0: 741f b73a 6381 153d 8834 67bc b2e4 2bbc
0.016887158 0.0007410434 -0.0018833164 0.009954017 -0.03137166 0.008127577 0.016315993 -0.013405372
0.0031977938 0.013932242 -0.0050167968 -0.037476912 -0.01800163 -0.02108574 -0.02348162 0.0042697284
-0.04760146 0.009517933 -0.00043772729 0.01486818 -0.012771034 -0.03334141 0.010583149 0.018808039
-0.014663723 0.02668778 0.021111697 0.015798703 0.0030016843 -0.025113923 -0.011777504 -0.0017069431
0.010653085 -0.01918837 0.010797417 -0.030528612 -0.018568816 0.0067254803 0.010783309 -0.033887234
0.010404316 -0.017095152 0.019253276 0.012252242 -0.0062382026 -0.029253049 -0.009888462 -0.0628688
-0.015275737 -0.04833776 -0.0074186204 -0.0004332296 -0.006739704 -0.03136189 0.023921426 0.022954728
-0.023075113 0.021207843 0.0025718107 -0.03910238 0.0030715053 -0.005542241 -0.0047997176 0.020607825
-0.007952547 0.023538483 -0.016631816 -0.046452038 -0.02542983 0.006667628 0.014063989 0.020318577
-0.0077369525 -0.064520426 0.0063888086 0.021607213 -0.009079016 -0.0150349485 0.044721033 0.006449066
-0.03150744 -0.018774737 -0.010755613 -0.027210379 -0.016008811 -0.010228988 0.025117775 0.019721376
-0.027741082 -0.03686899 0.008547484 -0.0021325818 0.01274288 -0.056855477 -0.017278029 -0.0063794395
-0.0035721406 0.013194777 -0.0200123 0.0023824729 -0.036534846 0.0011107659 0.01848874 -0.017377859
-0.00025582197 -0.012694557 0.018453827 -0.017825203 -0.013858975 -0.0008962822 -0.02279891 -0.004896688
0.022119988 -0.035399072 -0.0108129475 -0.016434727 -0.048761975 -0.024622686 -0.020968089 0.017290868
-0.02482775 -0.024926933 -0.019216334 -0.0069919676 0.01794767 -0.0041419594 0.0034172323 -0.011480793
-0.00930906 -0.0141681945 -0.024155637 0.024315158 -0.001374717 -0.018502576 0.014524293 0.0031454572
-0.010073862 0.0121053355 -0.016506784 0.012839549 -0.018692518 0.0019194491 -0.015705006 -0.020833742
0.002363586 -0.0096235955 -0.029673079 -0.01339969 -0.055730756 -0.031699326 0.026487926 -0.041907106
-0.029127354 -0.014563528 0.0122555755 0.001509577 -0.015034959 0.03545224 -0.01616729 -0.014104234
-0.0271272 -0.024162702 0.019562356 0.015928611 0.0009881792 -0.0021843894 -0.006787142 -0.007070355
0.006535784 -0.022036567 -0.0059107863 -0.018289145 -0.018500417 -0.037899457 -0.024244886 -0.02297984
-0.022323107 -0.03543543 -0.007464071 -0.048399244 0.007834198 0.00012776139 -0.012536303 -0.026214805
0.021852456 0.003937893 -0.0041099144 0.030260045 0.043280542 -0.025795314 -0.017608143 0.019919306
-0.018055351 0.01764429 -0.0012639075 0.0029590803 0.005610911 -0.028793436 0.01767274 0.002228199
0.04349541 0.004211997 0.017246682 0.01546046 -0.045774367 0.017273586 -0.019535445 0.01153292
0.035665024 -0.022933995 0.039867792 -0.013790284 0.03058789 0.022345427 -0.039569743 -0.02220529
-0.030057555 -0.016875565 -0.0029686221 0.022190936 0.0036485419 -0.00076746714 -0.016014563 0.036971238
0.0072256117 -0.000230572 -0.020460274 -0.0049451347 0.0132084945 -0.015357791 -0.009749548 -0.041915398
-0.057190593 -0.014808273 -0.022125594 0.022033373 -0.005262828 -0.045654517 0.032815933 -0.017488098
-0.010721231 0.014684127 -0.019797377 -0.004869189 -0.0148129985 -9.453456e-05 -0.020813221 -0.008865683
-0.04750941 -0.00941908 -0.04695549 -0.010202997 0.0013971166 0.036500346 -0.0141116455 -0.010491537

enc_down_2.0.bias f4 [40]
00000000: eb6f a3bc 1629 8bbb ee34 85bd 4624 50bb
00000010: acd4 01bc cfd7 73bd f5c2 14bd d889 6d3d
00000020: 487f a3bc 9dd7 153d 43f6 1bbd 3672 bfbc
00000030: 274f fcbc a1fc 70bc e76f 6abd b31a 84bd
00000040: 2d2b 56bd d904 2a3e 9958 313d c508 ce3d
00000050: c930 fbba f93f 8dbc cc67 a3bd 4162 89bd
00000060: b0cc 233d 4491 e4bd 0f37 ec3a 9866 9cbd
00000070: a237 7bbd afbb 84bb b611 73bc 7692 fbbb
00000080: 12b1 8cbd dd53 55bd 8f00 f03d 8497 93bd
00000090: 6770 b53c a43e 42bd c1a5 bbbb f948 edbc
-0.019950828 -0.004246841 -0.06504236 -0.0031759902 -0.00792424 -0.059531983 -0.036318738 0.057992786
-0.019958153 0.036582578 -0.03807665 -0.02336989 -0.030799462 -0.014708669 -0.057235625 -0.06450405
-0.05228727 0.16603412 0.043297384 0.100602664 -0.0019164319 -0.017242419 -0.07978782 -0.067081936
0.039990127 -0.1116052 0.001802178 -0.07636756 -0.061332352 -0.004050694 -0.014835766 -0.0076773716
-0.06869711 -0.05208193 0.117188565 -0.07206634 0.022148324 -0.04742302 -0.0057265465 -0.02896546

enc_down_3.0.weight f4 [40, 40, 3, 3]
00000000: d910 813c 1e2c 343d 2bdc 30bc e0af 363d
00000010: eb22 7c3b 0087 0fbb 984c 9abc 7f17 b4bc
00000020: b587 5a3c 2fe0 f53b e950 11bc a851 7cbc
00000030: 5842 b03a f311 d3bb 01ca 663b 8fd3 163c
00000040: 4cbe 8ebc 60a1 9f3c f209 efbd e445 5cbd
00000050: 6394 40be 4719 933d 901c 873d 46d9 263d
00000060: b9b0 163d 6f4f a53d 9f03 d13c ab83 6d3d
00000070: f42f 963c 8521 b33c 7e93 663c b3d9 7cbb
00000080: 44c7 083c f3a5 7abc 9ef7 82bc 5c7e 34bc
00000090: c343 833c 3220 b8b9 0dcf 25bd 82a2 20bc
000000a0: 9b20 2fbd 2378 15bd 3d04 d4bb c55e a93b
000000b0: 50cb 7f3c bf92 f23d d951 31bd f824 523d
000000c0: fd8f 493d 4d5d 7e3c 10c8 e5ba 9a6f 163d
000000d0: c680 813d ef79 03be 0717 24bd b87c 093d
000000e0: aa9e 43bd 0a26 f1bc 14ce 423b 740c 76bd
000000f0: 5e49 5abd 0380 61bc 24a2 eabc 5962 d3bd
00000100: 2d91 09be 3482 07be 9200 813d 39be fabb
00000110: b7cb 103d 8a26 063d ab5e 0a3d f529 a33d
00000120: 52d1 40bc f762 77bc 60d3 9cbb 987d 17bc
00000130: e360 dd3b b529 22bc 19cf d13b 89e0 a33c
00000140: 8dc1 003c 7bf5 5abe ddab 96bd 4803 00be
00000150: df7b abbe b552 0fbe f98f 79bd e89c aebe
00000160: 088e 31be d72a ecbd 8303 073d 2086 093d
00000170: ee09 3d3d d05e 2d3e 859c 81bd c243 de3d
00000180: 6c74 d23d 2c15 3f3b 0a99 a338 9322 02be
00000190: cc28 54be babd 91be 2e46 2e3d ec4c b1bb
000001a0: b4f5 86bd 74de 343d 63ff 573d 9a30 323c
000001b0: e9a4 90be db3f 6bbd 8bb8 e03d c1b2 44be
000001c0: a68f 5dbd c1c0 0e3e 34c3 d4bd 1577 cbbd
000001d0: ba0b be3d fc05 12bd 4a5e 8f3c 4dfb 5bbc
000001e0: f647 1a3d c585 bebc 764d d5bb 54ad 83bc
000001f0: 9774 623c 006e 273c 21ae 6ebb 0030 ce3c
00000200: f7e2 823c 49bc a63c 7975 ac3d a67b 8b3d
00000210: fc8c 3cbb 376e 163d a671 063d 9f67 a63d
00000220: 1264 a7bd df69 97bd 6a81 9c3d 8ac4 c53d
00000230: be7c a53d 02e1 acbd 6daa 31bd d523 dcbb
00000240: 9e08 b7bc 2dc8 2d3c 8588 38bd d62f 403d
00000250: 32bc bebd 16b8 93bd eff8 b43b 8be7 573c
00000260: dcee 18bb c0a9 9cbd 7c5f a43d f70e f03c
00000270: a9b0 f03c 3429 c93d bf1f a0bd 6880 2a3d
00000280: cb55 fd3d 7d6b 74bc 3372 f2be 5a1a 6dbd
00000290: 1cec 523d 22a3 bebe 1687 f83c 37c3 cb3b
000002a0: eb34 89be 03df 55bd 44ca 163d 43fe ffbd
000002b0: 53a6 0cbe 361c 87be 4a38 793d 5ea4 bb3d
000002c0: 9914 efbd f470 393c fda3 903c 690b 823c
000002d0: 0475 1fbd 060c 9ebb bd42 d6bc 6a12 46bc
000002e0: feb2 d9bc 09bf 70bb e89c 8bbb b20d 19bd
000002f0: 7c52 bdbc b132 67bc f9d6 84bc fc1a 76bc
00000300: 42b2 89bd e849 30bd 07d6 34bd 6464 4eb8
00000310: 8c73 77ba 2599 febb f321 92bd 1813 a43d
00000320: f6f3 15be 5004 033e 5f07 fb3d 1e03 b1bc
00000330: 7337 c5bc 2172 c43d 251d dc3c d42b 28be
00000340: ddb2 113e 870f 2b3e 3078 19be f6a0 b93d
00000350: 30ac 063e c3aa 56be bbf9 dc3d 0229 8d3d
00000360: 6090 e3bd 2a6d 3ebe 7f1f e9bd adc2 77bd
00000370: f149 81bd b1e8 2b3e 3423 73be f196 d63c
00000380: 9d40 ff3d dbb9 16be edd8 6b3d f348 26be
00000390: 63d2 103e 058e 313e 7b5d 2d3e 5780 32bd
000003a0: 1871 48bd 82f4 d7bd 9dac 1fbe 7ebb b93c
000003b0: 24b6 373d 01a1 02be 4ede 463d cd89 0d3d
000003c0: 9edc 6cbe e10c 0c3d 8411 21bd 5d90 7abe
000003d0: b52b 403d 1756 413d 991a 79be 662b dd3d
000003e0: 9123 fc3d 03f4 59be c6b2 483e 89c1 533e
000003f0: f891 5dbd 8999 7bbd b012 33bc 7e6f 1ebe
0.015755104 0.043987386 -0.01079468 0.04460132 0.0038472961 -0.0021900535 -0.01883535 -0.02198386
0.013338019 0.0075035314 -0.008869388 -0.015400328 0.0013447506 -0.0064413487 0.0035215619 0.009205713
-0.017424725 0.01948613 -0.11671819 -0.05377759 -0.18806605 0.07182556 0.06597245 0.04073455
0.03678963 0.080717914 0.025514422 0.057986896 0.018333413 0.02186657 0.014073251 -0.0038581907
0.00834829 -0.015298354 -0.015987214 -0.011016455 0.016023522 -0.00035119202 -0.040480662 -0.00980437
-0.042755704 -0.036491524 -0.006470232 0.005168768 0.015612438 0.11844396 -0.043290947 0.051304787
0.049209584 0.015525174 -0.0017530937 0.036727525 0.0632339 -0.12839483 -0.040061023 0.033566207
-0.047758736 -0.029437084 0.0029724883 -0.06007047 -0.053292625 -0.0137634305 -0.028641768 -0.10321493
-0.13434286 -0.13233262 0.06298937 -0.007652071 0.035350528 0.032751597 0.03378169 0.07966987
-0.011768656 -0.015099279 -0.00478594 -0.0092462525 0.0067559346 -0.009897639 0.006402862 0.020004528
0.007858646 -0.21382706 -0.07356999 -0.12501252 -0.33492944 -0.13996394 -0.06092832 -0.34104085
-0.17339337 -0.115316086 0.032962333 0.033575177 0.046152048 0.169307 -0.06328682 0.108527675
0.10276112 0.0029156907 7.8009514e-05 -0.12708502 -0.20718688 -0.28465062 0.042547397 -0.005410781
-0.06589833 0.04415746 0.05273379 0.010875845 -0.28250816 -0.057433944 0.10972699 -0.19208814
-0.054092072 0.13940717 -0.103887945 -0.099348225 0.092795804 -0.03565024 0.017501015 -0.013426614
0.037666284 -0.023257146 -0.006509478 -0.01607386 0.0138217425 0.010219097 -0.0036419707 0.025169373
0.015977366 0.020353453 0.08420844 0.068106934 -0.0028770557 0.036726203 0.032823227 0.08125233
-0.08173384 -0.0739324 0.07641871 0.096566275 0.08080433 -0.08441354 -0.04337542 -0.0067181387
-0.022342976 0.010606808 -0.04505207 0.04692062 -0.09313239 -0.07212846 0.0055228393 0.013177763
-0.002333573 -0.07649565 0.08026025 0.02930401 0.029381113 0.09822312 -0.07818555 0.041626364
0.12369879 -0.014918205 -0.47352752 -0.05788646 0.051494703 -0.37233835 0.030337851 0.00621834
-0.26798186 -0.052214634 0.03681399 -0.124996684 -0.13735323 -0.2638871 0.060844697 0.0916221
-0.116738506 0.011318434 0.01765632 0.015874581 -0.038929954 -0.0048232106 -0.02615487 -0.012089351
-0.026574608 -0.003673496 -0.004260648 -0.037366576 -0.02311062 -0.014111207 -0.016215788 -0.015021082
-0.06723453 -0.043039232 -0.044149425 -4.9207723e-05 -0.000943952 -0.007769721 -0.071353815 0.08011454
-0.14643845 0.12794614 0.12257265 -0.021607932 -0.024074292 0.09592081 0.026869366 -0.16422969
0.14228387 0.16705142 -0.14987254 0.09063904 0.13151622 -0.20963578 0.1078982 0.06892587
-0.11111522 -0.1859633 -0.113829605 -0.06048839 -0.06312931 0.16787983 -0.23743898 0.026195021
0.12463496 -0.14719336 0.057579923 -0.16238765 0.14142756 0.17339332 0.16930191 -0.043579426
-0.04893598 -0.10544683 -0.1559319 0.022672411 0.044851437 -0.1275673 0.04855185 0.034555245
-0.23131034 0.03419197 -0.039323345 -0.24469133 0.046916682 0.047201242 -0.24326552 0.10799293
0.12311471 -0.2128449 0.19599447 0.20679297 -0.054094285 -0.06142572 -0.010929748 -0.15472218

enc_down_3.0.bias f4 [40]
00000000: 9aae af3d 0042 3abe 6051 83bd 5d1e a2bc
00000010: 9b90 16be e498 11be 96e4 61bd 4a81 99bd
00000020: 10e9 b23d abad cdbd 3f9e 14bd 4e00 2c3e
00000030: 9126 6bbd d334 e53d b5e5 27bd 5d0f e6bc
00000040: a7eb 13bd 2ef4 e1bc eae2 2fbd 5968 a03d
00000050: 41aa 9b3d e257 a4bd 5eb9 05be c86a c8bd
00000060: a232 17be c2bd 22bd 1ba7 c2bd df71 793d
00000070: 1d0c f9bd 372f 09be dee7 39bd 58b7 41bc
00000080: 2902 07bd f09a 35be 1911 3bbc 7c88 54be
00000090: 0925 afbb 2839 a9bc 07ec f7bc 9987 b6bd
0.085782245 -0.1818924 -0.064120054 -0.019789869 -0.147036 -0.1421848 -0.055149637 -0.07495363
0.087358594 -0.1004289 -0.036283728 0.16796991 -0.057409827 0.11191716 -0.04099055 -0.028083498
-0.036113407 -0.027582254 -0.04294101 0.07832403 0.07600833 -0.08024575 -0.13058993 -0.09785992
-0.14765409 -0.03973175 -0.09504529 0.06089961 -0.121605136 -0.13396917 -0.04538714 -0.011823498
-0.032961044 -0.17734885 -0.011417651 -0.2075519 -0.005344991 -0.020657137 -0.030263914 -0.08912582

enc_up_3.0.weight f4 [40, 40, 3, 3]
00000000: d16b 49bb 0146 efbc 9b8c d83b ed76 a6bd
00000010: 5a98 103d ad92 d73d e081 b4bd 5018 503e
00000020: 4777 0d3e 5fb2 303d f134 eb3c 7ab2 8b3d
00000030: eee1 233d 964a 4abe d30e 28bd 3a5b ee3c
00000040: 12cd b6bd 4e86 97bd 69ca b23d 397f 843d
00000050: 96df 003c 7c29 a43d c199 f4bd 1228 64bc
00000060: 59ea 813d 0d2f 77be e253 dabc cda9 db3d
00000070: a6df 3f3d 22e5 c83d 3332 c93d f9db 2cbd
00000080: 8fdf c03c 3837 edbc 7a04 28bd be17 36be
00000090: afda 5cbe ea0a 84be 6f13 c1bd 7532 e33c
000000a0: 26cc 263e 98b0 2bbe 754a 0a3e 2865 873e
000000b0: 9126 6fbd 3b45 19be c633 2abe 6022 4f3c
000000c0: 4464 7e3c ed55 cfbd e5c7 b13b 2784 f5bd
000000d0: f1ac 81bd 485b 03be 0e12 433d 44bf 68bd
000000e0: d664 e83c 2e5d 8d3d 9bd8 3bbe 0c19 913d
000000f0: ce65 08bd 400d 11be 14f1 003e 0639 d63d
00000100: a860 953d 08bb e13d ef87 7d3d 43ba 2cbd
00000110: 610e 6b3d edbf 0fbd ff7b 9dbe b0d3 06bc
00000120: e96f 31bd 6e5d 7abd ccf4 31be 5fbd 4a3d
00000130: b012 273d 72a3 aebd 339b d83d 9458 103d
00000140: 83b7 0ebe 629b 463e c86f 0abe 5e6b 78be
00000150: 30b2 063e 0a10 42bd 7de8 97bc c5d4 81bc
00000160: ad73 5d3d 4d03 903d 2dd7 3bbd 8063 fd3c
00000170: 75a1 11bb f9f2 babb 21ed 75bb a4f9 623c
00000180: 964a d03b c5e1 683c a69b 1cbc 9fb5 ed3c
00000190: 4530 583d b82b a43b eb7f 4abd faf1 ec3d
000001a0: a6a3 f7bc ab16 e5bd 887f 0bbe 22f2 86bd
000001b0: b0fd a7bc 74b3 41be 1c64 fcbc d9a1 abbc
000001c0: 81f8 71be 1f41 b63d bc93 e33d f871 47bd
000001d0: 515a 3e3e 5cee 023e 175c c93d 392b 963d
000001e0: b592 bd3d e50c acbd f1b7 11bd b4d3 4f3d
000001f0: 4687 a1be db0d 3f38 ecb4 933d 6b76 cfbd
00000200: cead 87bd 6e5f 0e3d 86a2 6dba f272 de3d
00000210: ac9f a3bd 5423 133d d5eb 833d 7c6c 3d3c
00000220: c274 af39 4347 e23c 16c0 a9bc 9a98 f63a
00000230: ca00 953c ed97 023c c2ed d63c b21d 0ebc
00000240: c143 063e ea58 0fbf 347a 5bbe 7ba9 70be
00000250: b5ed 04be 1c3d cfbd 5a79 5abe 2b77 6dbd
00000260: 07cd 90bd 2f6a 953c 92ee 0d3e f972 3d3e
00000270: 936a d6bd 69f9 4c3e 21c6 0c3e 177b 9d3c
00000280: 97cd 70bd b448 92bc 0a41 b1bc 1c2e 1d3d
00000290: 0f78 e73c 09e0 b33c 4bdf 213a f450 623c
000002a0: d07d 2bbc f604 523b a110 eabb aedd 94bd
000002b0: 34b6 423d b7e0 d83d 5198 a3bd 0bd6 b23b
000002c0: d042 98bd abf6 e5bd 461e 02bd e20a cfbd
000002d0: 61bd 953d 533c 833c f492 33bd d9f5 cf3c
000002e0: 61ed 49bc 05ed d43d 848f 353c 954f 95be
000002f0: c586 033e 3238 ae3d 09bf 033d 364f cc3d
00000300: 2ab8 5abc 1682 9bbe 87e4 36bd fba1 ac3d
00000310: f34a b03d 36d8 12be 9c96 563d 9b69 503b
00000320: f24d df3d 9872 573c 2870 1fbe a00a 843e
00000330: 9837 fa3d e3c4 eebd a079 573e 1572 c7bd
00000340: 4379 c33d d50d 733d 0b82 243d 8734 a1be
00000350: 3e3e 4e3b e517 8d3b dc4d 003d d637 193e
00000360: fc13 8abd f130 403e e2a2 1e3e 142f 573d
00000370: 8083 40be ae54 cd3d 4871 95bd a243 803d
00000380: a098 943d 94db 05bc 8bab ee3b 4408 363d
00000390: 5c4d 843c ff90 e23a 37cc c43c d2bc ce3b
000003a0: 24e2 843c b57e f1bb 08e5 a63d a4f1 05bc
000003b0: 650d 473d 2bd6 233e c550 b0bd d00e 46bc
000003c0: 33f1 79bd b8c2 5cbe 55cf 5abc 3fad 38bd
000003d0: 10a9 ca3d 8f3e 0f3d 317a 80bd 5740 323d
000003e0: 0eb7 36bd 98a4 98b9 caa6 cf3d a18d 233c
000003f0: 6d3c ac3c a7c6 d9bb c482 e03b 1e53 1d3d
-0.003073443 -0.029208185 0.0066085584 -0.08128152 0.035301544 0.10526023 -0.08813834 0.20321774
0.13815032 0.043138858 0.028711768 0.06821151 0.040010385 -0.19755015 -0.041029762 0.029096235
-0.08925833 -0.073986635 0.08730013 0.06469578 0.007865807 0.08015725 -0.11943389 -0.013925569
0.063435264 -0.24139042 -0.026651327 0.10725746 0.046844147 0.098093286 0.09824028 -0.04220197
0.023544101 -0.028956994 -0.041019894 -0.17782494 -0.21567796 -0.25789577 -0.09427535 0.02773402
0.16288814 -0.16766584 0.13504966 0.26444364 -0.05838639 -0.14967816 -0.16621312 0.012642473
0.015526835 -0.10123811 0.0054254406 -0.11988097 -0.06331814 -0.1282779 0.04762464 -0.05682303
0.028368395 0.06902538 -0.18344347 0.070848554 -0.033300214 -0.1416521 0.12591964 0.10460095
0.07293826 0.110220015 0.061897215 -0.04216982 0.05738676 -0.035095144 -0.30758664 -0.008229181
-0.043319616 -0.061124258 -0.17378539 0.049497005 0.040789306 -0.085272685 0.10576477 0.035240725
-0.13937192 0.19395211 -0.13519204 -0.24259707 0.1315391 -0.047378577 -0.018543476 -0.015848527
0.054065395 0.070318796 -0.045859504 0.030931234 -0.002222148 -0.005705234 -0.0037525373 0.013853464
0.0063565476 0.014213984 -0.009558594 0.029017268 0.05278041 0.0050100945 -0.0494384 0.11569591
-0.0302294 -0.11185964 -0.13622868 -0.06589152 -0.02050671 -0.18916112 -0.030809455 -0.020951198
-0.23629953 0.088991396 0.111121625 -0.048692673 0.1858914 0.1278624 0.09832018 0.07332463
0.09256498 -0.08400897 -0.03557581 0.050739005 -0.31548518 4.5550853e-05 0.072122425 -0.10130008
-0.066249475 0.034758978 -0.00090650504 0.10861768 -0.07989439 0.035922363 0.06441466 0.011561509
0.00033465592 0.02762187 -0.020721477 0.0018813789 0.018188853 0.007970792 0.026236419 -0.008674072
0.13111784 -0.5599505 -0.21433336 -0.23502152 -0.12981303 -0.101190776 -0.21335354 -0.057974976
-0.07070356 0.018239109 0.13860539 0.1850089 -0.10469546 0.20017017 0.13747455 0.019223733
-0.058789816 -0.017856933 -0.021637458 0.03837405 0.02825549 0.021957414 0.0006174936 0.013813246
-0.010467008 0.0032046414 -0.0071430956 -0.072688445 0.047537044 0.10589736 -0.079880364 0.005457645
-0.074346185 -0.11228689 -0.031767152 -0.101094976 0.07311512 0.016019976 -0.043841317 0.025385784
-0.012324662 0.103967704 0.01108158 -0.2916228 0.12844379 0.08506812 0.032164607 0.09976046
-0.013349572 -0.30372685 -0.044651534 0.08429333 0.086080454 -0.1434029 0.052389726 0.0031801227
0.10903539 0.01314988 -0.15570128 0.25789356 0.12217635 -0.11658647 0.2104249 -0.09738556
0.09544613 0.059339363 0.04016308 -0.31485388 0.0031470205 0.004305827 0.031324252 0.14962706
-0.06742093 0.1876867 0.15491822 0.05253513 -0.18800163 0.10025917 -0.07296997 0.062629
0.072556734 -0.008170027 0.007283633 0.044441476 0.01615017 0.0017285644 0.024023158 0.00630913
0.016221114 -0.007369841 0.08149153 -0.008175287 0.04859676 0.15999667 -0.086091556 -0.0120884925
-0.06102104 -0.21558654 -0.013355096 -0.045087095 0.09895527 0.03497177 -0.06273306 0.04351839
-0.04460817 -0.0002911433 0.10139234 0.009982497 0.021024907 -0.0066459957 0.006851526 0.038409345

enc_up_3.0.bias f4 [40]
00000000: ac5b b7bd fe47 1cbe 3e42 a13e 3bce 2d3e
00000010: fd17 52be de6b 6f3e c941 2cbc 540b 593c
00000020: cfa9 6fbd 91d6 9e3c 6e7b 56be 64e4 8a3e
00000030: f619 993e 0e38 77bd b108 b9bd 83b7 213b
00000040: 7a75 973e 6575 bfbd 2467 433d a10d 65bd
00000050: b8d5 2ebd 2a53 8b3d 852b f43e c61e 7b3e
00000060: 3e7f f1bd 9589 0d3e 4433 80bd 6be6 743e
00000070: 2805 573d 60e9 1e3c 9fb7 2a3e 8edb 8a3e
00000080: 7826 223e dd9b 403e 4a8b d93b bf0a e83d
00000090: b438 e5bc 5c77 913d c334 8abd 3067 333e
-0.08953032 -0.15261838 0.3149585 0.16973202 -0.20516963 0.23380992 -0.010513731 0.01324733
-0.05851155 0.019389423 -0.20945522 0.27127373 0.2990262 -0.060356192 -0.09034861 0.0024676032
0.29581815 -0.09348563 0.047705784 -0.0559212 -0.042684287 0.06802972 0.47689453 0.24523458
-0.11791848 0.13822015 -0.06259778 0.23916022 0.05249515 0.009699196 0.16671608 0.27120632
0.15834987 0.18809457 0.006638919 0.11330175 -0.02798114 0.07102844 -0.06748345 0.17519832

enc_up_2.0.weight f4 [40, 80, 3, 3]
00000000: b48c 95be bfe1 acbe 46ba 03bf 9840 3abe
00000010: 6d23 29be 6e74 a2be a41c dbbd 1d1b 91bd
00000020: 6e03 15be 243c 9cbc db0e 1fbd 17e9 e7bc
00000030: e9d5 5abd 8619 b1bc 8ab0 30bd 6301 1abd
00000040: 8eb3 0abd aee9 e2bc 1900 13bd 01a9 60bd
00000050: 0ded 93bd bab0 b83c cb51 923c 928f f2bc
00000060: f166 a83d c067 26bb e6ba bbbd 5882 743d
00000070: a6b4 823a 5f19 64bc 67ed 953d 91a7 a03d
00000080: 8b28 3f3b 9306 953d 50b8 df3d 487d d63d
00000090: 2a9f 2e3e 805a 943d 9661 17be 39ca 4f3d
000000a0: 19a3 58bb 2626 39be 0517 ac3d 213a 823d
000000b0: 246e cfbc c89c fe3d 0147 ac3d 1bbb 6e3d
000000c0: 88d7 aa3d 82ab a43d 76c7 573c a108 223d
000000d0: 2771 623c 3827 733d ce06 35be 537b 06be
000000e0: b163 60be 44b4 e8bb e3c3 ad3d 0de5 073c
000000f0: 8d56 0b3e a03b 4f3e 8de3 253e 096d 1d3e
00000100: 9d71 043e 0022 b33d 06a9 483e 4563 333e
00000110: c606 033e 0366 013e ea6d 2c3e e704 153e
00000120: c50d 953c 0937 583c 1e7f 2abe 5d05 21bc
00000130: 2740 4bbc 2b3e d6bd 1535 d0bd ae8a abbd
00000140: 155f e7bd 4f4e 233d dcf2 ac3d 5555 af3d
00000150: 6f73 003e 8143 ed3d 95d3 ef3d e501 d43d
00000160: 3b43 4c3d 018d b23c 6260 84be 796e 9fbe
00000170: 8c7a febe 06bf 38be 32a2 6bbe 8bb3 b6be
00000180: 3b6e 2dbe 6b3d f9bd cb43 48be fd7b 9dbd
00000190: bef4 8bbd 9613 54be c63e 9dbd d579 28bc
000001a0: a944 27be 4faf 32be 1406 1fbe 1ef0 73be
000001b0: 99e1 123d aa94 a3bd 3f92 d1bd 1d70 cd3a
000001c0: 17c1 b3bd 0316 afbd 59f1 1c3e bf6e 693d
000001d0: d64c e8bd ddbe da3c 6089 26be 0df4 2cbe
000001e0: 2b82 083b ab00 89bd a39e 03be c082 ac3c
000001f0: d9d9 b5bd dc8d 04be 5b6a 01be 4392 2ebd
00000200: 2352 c8bd e657 e3bb 24ce 013e 1044 813d
00000210: 91b6 713d 9944 213e 4a69 003e 2cb6 afbd
00000220: 6811 30be cc4f 5cbe 55a2 4cbc 4796 d2bc
00000230: 1783 13be c993 d53d 9d6a 933d 4388 00bd
00000240: e41d af3e e93c ae3e 950c 923e b2dd 093e
00000250: e79b bc3d 4c0e e33d 0c1f 443e c902 4a3e
00000260: 1d9a 153e 2937 20be eba8 f9bd 9655 edbd
00000270: 5377 383a b93b f73c d4ac b73d 10ca ae3d
00000280: ec77 eb3d 3671 543d d4af 913d ec02 303d
00000290: 99fa d33c 85ff da3b 1f1d 823b 73bb 88bd
000002a0: c508 24bc 5e10 563c 963c a5bd 084c 2fbc
000002b0: d24a 62bd f487 223c 3651 7b3c 68c9 843c
000002c0: 46a2 d53c 3cdf f43c ca39 1cbc 40d7 3a3c
000002d0: df07 4fbd 3218 dcbd 55c9 64be e09f cd3d
000002e0: 5c17 573c fab5 0abd d5d5 653d 7859 fc3c
000002f0: b208 c0bc b7a2 42bd 9c85 f7bd 81b2 77be
00000300: 8aae a63c 1862 a1bd 4bf6 34be c5ad 723d
00000310: 8e1e 17bd f6f4 fdbd b4f6 813d 1237 be3c
00000320: 7147 8ebd a351 0e3e 3003 dfbb 52fc 25be
00000330: becb 743e b473 773d dd81 85bd e892 723d
00000340: a412 ac3d 7fcf 893c 44f1 0d3e ab9a 393e
00000350: c2dd 633d 2ab1 ee3d 51f2 0d3e b0c7 e73d
00000360: 0397 6b3e b710 0a3e b4c9 393d 61bf 4f3e
00000370: 41fb 033e a5b9 d33d 38e6 213e a4f5 f73d
00000380: d108 803d 5c9e 8a3d 4eb3 be3c 72c8 f5bc
00000390: 7212 613d c0bf 0c3d 88a0 a1bd c99e 023e
000003a0: f0b5 f43c e4b3 113c 5858 63bd a7c4 9dbd
000003b0: 4b75 fbbd f0a4 81bd a342 7fbd f115 bebd
000003c0: 8d19 4e3c a9ee f6bc 6752 c1bc 5190 f93c
000003d0: ea4a 93bc fd40 b2bd 1d85 1b3d 74ca e6bd
000003e0: 945a 20be 02b6 2c3e 75f6 7a3d 9e76 55bd
000003f0: fd55 443e 20ec 6c3e 6050 523e fa7a 0c3e
-0.2920891 -0.3376598 -0.51456106 -0.18188703 -0.1651742 -0.31729454 -0.10698822 -0.070852496
-0.1455209 -0.019071646 -0.038832527 -0.028309388 -0.053426657 -0.021618616 -0.04313711 -0.03759898
-0.033862643 -0.027699318 -0.035888765 -0.054848675 -0.07222948 0.022545207 0.017861268 -0.029609475
0.082227595 -0.002539143 -0.091665074 0.059694618 0.000997205 -0.013922065 0.073206715 0.07844461
0.0029168453 0.072766446 0.10923827 0.10473114 0.17052904 0.07243824 -0.1478332 0.050729964
-0.0033056198 -0.18080959 0.08402828 0.063587435 -0.025321074 0.124322474 0.084119804 0.058283906
0.083418906 0.08040525 0.013170114 0.03955901 0.013820923 0.059363574 -0.17678377 -0.13132982
-0.21913029 -0.0071015675 0.08484628 0.008294356 0.13607235 0.20237589 0.16200085 0.15373625
0.12933965 0.08746719 0.19595727 0.17518337 0.12795553 0.1263657 0.16838804 0.14552651
0.018195042 0.013196715 -0.16650054 -0.009827939 -0.012405432 -0.10461076 -0.101663746 -0.083760604
-0.11297432 0.039869603 0.08444759 0.08561198 0.12544034 0.11585141 0.11710278 0.10351924
0.049868803 0.021795752 -0.25854784 -0.3113897 -0.4970287 -0.1804162 -0.23011091 -0.35683855
-0.16936581 -0.12169918 -0.19557111 -0.076896645 -0.0683379 -0.20710596 -0.07677989 -0.010282953
-0.16334786 -0.17449687 -0.15529662 -0.23822066 0.035859678 -0.0798734 -0.10232972 0.0015673671
-0.08777063 -0.0854912 0.15326442 0.05699038 -0.1134278 0.026702339 -0.16263342 -0.16889973
0.002082954 -0.066895805 -0.12853484 0.02105844 -0.08879442 -0.1294474 -0.12638228 -0.042619955
-0.09781291 -0.0069379685 0.12676293 0.0631181 0.059012 0.15748824 0.12540165 -0.085796684
-0.1719414 -0.21514815 -0.012489875 -0.025706423 -0.14405476 0.104285784 0.07198069 -0.03137995
0.34202492 0.34030846 0.28525224 0.13463476 0.092094235 0.11086711 0.19152468 0.19727625
0.14609571 -0.15646042 -0.12190422 -0.1158859 0.00070368237 0.030179845 0.08968511 0.08534634
0.11497483 0.05186578 0.07113615 0.042971537 0.02587633 0.0066832923 0.0039707567 -0.06676378
-0.010011856 0.013065426 -0.080681965 -0.01069928 -0.055247135 0.009920109 0.015339186 0.01620932
0.026078355 0.029891603 -0.009535262 0.011403859 -0.050544616 -0.107468024 -0.22342427 0.10040259
0.013128128 -0.033864953 0.05611213 0.03080438 -0.023441646 -0.04751846 -0.12086031 -0.24189188
0.020346899 -0.07880038 -0.17672078 0.05924775 -0.036894374 -0.12400238 0.06345883 0.023219619
-0.0694722 0.1389833 -0.0068058 -0.16209534 0.23905846 0.060413077 -0.0651891 0.059222132
0.08401993 0.016822575 0.13861567 0.18125407 0.055631407 0.11654885 0.13861968 0.11317384
0.23006825 0.13482939 0.045358375 0.20287849 0.12888815 0.10338143 0.15810478 0.12107399
0.062516816 0.06768486 0.023278859 -0.030002806 0.05494923 0.034362555 -0.07891947 0.12755884
0.02987191 0.008892987 -0.055504173 -0.07703524 -0.12278231 -0.063302875 -0.06231941 -0.09281529
0.012579334 -0.030143099 -0.023598863 0.030464323 -0.017980058 -0.08703802 0.037968744 -0.112690836
-0.15659553 0.16866305 0.061270196 -0.052115075 0.19173427 0.2313695 0.20538473 0.13718787

enc_up_2.0.bias f4 [40]
00000000: f8e9 de3d cfad 163d 55e1 a93d 66a6 433e
00000010: beea 003e 6330 593c 5b46 113d 85ae 54bd
00000020: 6d36 c73c 14ba f03d ac6e ae3d 7c62 933d
00000030: d830 e83d 50a2 d73d 39fb f53b 6962 8f3d
00000040: 052c 313e 2ca5 c1bc 2808 543e 9561 d8bc
00000050: 4b45 a53c 1a23 253d 8581 573e 1d5d 90bc
00000060: 0b83 653e 6a23 a03d 01ff a2bc 4438 37be
00000070: 2c04 04be 0c7c c9bd 5081 223e de2c 6d3d
00000080: e657 f23d 351c 3f3e c2ad 4fbd 663d 1cbd
00000090: 483d 90bc 89bc 933c 8463 5c3c 74ae cd3d
0.1088447 0.03678685 0.08294932 0.19106445 0.12589547 0.013256165 0.035467487 -0.051924247
0.024317944 0.117542416 0.08517203 0.07196519 0.11337441 0.105290055 0.0075067547 0.07001192
0.17301948 -0.02363833 0.20706236 -0.026413718 0.020174643 0.04031668 0.21045502 -0.017622525
0.2241327 0.07819255 -0.019896986 -0.17892557 -0.12892216 -0.09838113 0.15869641 0.057904117
0.118331715 0.18663104 -0.050702818 -0.03814449 -0.017607346 0.018034237 0.013451461 0.1004304

enc_up_1.0.weight f4 [40, 80, 3, 3]
00000000: 1b18 19be cff5 1dbe fe73 e4bd 7a31 56be
00000010: 47a7 3cbe 7618 89bd e1fd c3bd 36c0 fabd
00000020: 5b53 a7bd 1f03 7ebd 64f0 163c 8aaa 853c
00000030: 4c43 43bd eeff 11bc 1e7b 17bc db85 a1bd
00000040: 8fbf 5bbc 6300 05bd 6e95 25bd 746f f8bc
00000050: 6901 96bd b5e7 c5bd b559 69bd b964 b5bd
00000060: d013 1abd b6c7 8cbd a818 21bc dd66 4c3e
00000070: 85e0 8f3d e2fa 34bd b0b6 653e 7cdb 133e
00000080: e38a c4bc 80e8 5e3e 66df fd3d 3f87 a0bd
00000090: 6e3f 983d bc90 d13d 22fc b93d 3f8d f83d
000000a0: c2f7 073e 98cc ea3d 31d1 1b3e 8834 063e
000000b0: 7e3b ee3d 2dfc ab3d 6de4 123e e05c 923d
000000c0: 25ac 9c3d 6110 383e f60c e43d 610f ff3d
000000d0: f374 293e 15b2 1d3e e2d9 cdbd 7482 acbd
000000e0: 8985 9bbd e3d2 d6bd 23af 83bd 02f5 b5bd
000000f0: ac07 1fbe 7421 6fbe 60bc 7dbe b577 2dbe
00000100: d761 9bbd ae0b 82bd 4c95 50be 3cf3 20be
00000110: 82e6 3dbe 74aa 70be 0e0e 37be 7ef4 4ebe
00000120: dc9e ee3c dc3e 703d 0b3e 753d 3cf6 583c
00000130: e113 3ebc 74ee 6e3d 3c62 68bd 113b eabc
00000140: abbf 18bb a2a3 f73d 40d0 003e 6059 b23d
00000150: b70a e13d 875b d43d b326 1d3d a27f 023e
00000160: 36da c93d 06de 083d 4db4 29be 58a5 7fbe
00000170: 1d01 abbe 9d15 68bd ff84 71be eba1 d1be
00000180: ed0b 20bd e353 3bbe 20e3 b3be 0ca3 233e
00000190: 8173 2b3e 0e31 2f3e e31f 213e b5d9 d63d
000001a0: 32c7 2c3e dea7 093e 62d5 933d 31a5 4f3d
000001b0: 0c68 053e 37fd 06bd 499b 3abe b957 243e
000001c0: aa38 9cbb c417 9bbd 398f 753e 2250 7d3d
000001d0: 3613 67bd f837 543e 54c4 3c3d bd42 da3c
000001e0: 308e 7b3e 464c 843d 40c6 a13d 803a 7f3e
000001f0: 4f37 be3d aa03 b23c 8dd5 b5bd 071b b7bd
00000200: 8b6c 13be e61b 22bd 727b bcbd b04e d0bd
00000210: 552b 3fbd 8d8f 89bd 3b2a d9bd 626c 5e3e
00000220: 4fad 8d3d cd8c 06bd 1c9b 6a3e cfda 9d3d
00000230: a448 5ebd 8c6a 713e 3391 983d a841 32bc
00000240: 206b 1fbd 320a daba 8f54 653d 633b 29bd
00000250: d747 b6ba a764 4a3d 42df 47bc 6b1b 2b3d
00000260: 1a43 df3d 232d 27bd 8604 9fbc 8220 7bbc
00000270: 7fef ca3c db60 37bc 6bee 9abc 315c 813c
00000280: 98f3 19bc 2044 04bb 7b19 5a3e 65c6 6e3e
00000290: 1174 d13d 88e2 5f3e e364 073e ef46 813c
000002a0: e369 0e3e 7dcd 993d e53e 893c 93e9 273e
000002b0: 9438 cf3d 6dac 943d cb6b bc3c 31de 8e3b
000002c0: 53b5 ddbc fa1f 16bd 5aeb 8fbd 145b cbbd
000002d0: 10e0 47bd 1bda fcbc caa7 d4bd 0542 0fbc
000002e0: 45fe adbc 527f 2abe cf1b 87be cfcd e0be
000002f0: c896 e5be 3154 85bc 5938 083d 3c94 d43b
00000300: 900e 29bd e4f8 003c 8b67 5a3d 490c fbbb
00000310: 006b 223d 7e3d b03c 2fef 29bd 5a34 853d
00000320: fb54 243d d22a a1bd 6fc9 643b 3cb1 a13c
00000330: 648b 5dbe be69 e8bd 5c2f 3dbd 20be ac3c
00000340: 3bfa 293b b7d4 593c e490 13bd bd5c 823c
00000350: 6b9f ac3c ecdb 9d3b 9225 4ebc 1515 073d
00000360: c96b 8bbd b86e 47be cbd7 6fbe 42e3 a43d
00000370: 93fe febc 71e5 44bd 2af2 7c3e d478 533e
00000380: a5c6 2f3e 00e7 883a 0b26 4c3d 6727 86bd
00000390: 7966 c3bc 9381 ad3b a9da 943b b863 9c3b
000003a0: c5ad 113d 34cc 3dbd ec8b 6a3c 8d87 c0bc
000003b0: 5d63 97bb 46d1 97bc a5c4 ebbc c693 85bc
000003c0: 081c 2c3c 454a e9bc 9183 943b e6a6 9fbe
000003d0: 892f b2be fe65 aebe 3aa9 d4be 4c59 cbbe
000003e0: 7259 c0be 0f38 b0be 97b0 acbe 5aa5 a3be
000003f0: f468 3cbd 81b7 50be 5705 6ebe 7e97 c93c
-0.14950602 -0.154258 -0.11154936 -0.20917311 -0.18423186 -0.06694119 -0.09569908 -0.122436926
-0.08170196 -0.062014695 0.009212587 0.01631667 -0.0476716 -0.008911116 -0.009245662 -0.07886859
-0.01341237 -0.032471072 -0.04042571 -0.030326582 -0.07324488 -0.09663335 -0.056970317 -0.08857102
-0.03761655 -0.06874029 -0.009832539 0.19961114 0.070252456 -0.044184573 0.22432971 0.14439195
-0.023992008 0.21768379 0.123961255 -0.07838296 0.07433973 0.10232684 0.09081294 0.121363156
0.13278106 0.114648044 0.15216519 0.13105977 0.11632441 0.08397708 0.1434495 0.07146621
0.076500215 0.17974998 0.111352846 0.12454105 0.16548519 0.15399964 -0.100513235 -0.084233195
-0.07593829 -0.10489442 -0.06429889 -0.08884622 -0.1553027 -0.23352605 -0.2477889 -0.16940196
-0.07587021 -0.06349884 -0.20369452 -0.15717787 -0.18544963 -0.23502523 -0.17876455 -0.20210454
0.029128484 0.058653697 0.059873622 0.013242301 -0.011601419 0.058332875 -0.05673431 -0.028592618
-0.0023307602 0.12091757 0.12579441 0.08708453 0.10988372 0.1036902 0.038366985 0.12744
0.098560736 0.033414863 -0.16572686 -0.24965417 -0.33399287 -0.056661237 -0.2358589 -0.40943846
-0.039073873 -0.18293719 -0.3513422 0.15980166 0.1674328 0.17108557 0.1573482 0.10490743
0.16872862 0.13442943 0.07218434 0.05069465 0.13027972 -0.03295633 -0.18223299 0.16049089
-0.004767497 -0.07572892 0.23980416 0.061844 -0.056414805 0.20724475 0.04608567 0.026643151
0.24565959 0.064598605 0.07899141 0.2492466 0.09287893 0.021730263 -0.08878622 -0.08940702
-0.14396875 -0.039577387 -0.09203233 -0.101712584 -0.046672184 -0.06716833 -0.10603758 0.21721032
0.069178216 -0.03284912 0.22910732 0.0770775 -0.054268494 0.235758 0.074495696 -0.0108799115
-0.03892052 -0.0016635119 0.055988844 -0.0413164 -0.0013906908 0.049412396 -0.012199225 0.041774195
0.109014705 -0.04081453 -0.019411337 -0.015327575 0.024772404 -0.011192526 -0.018912515 0.01579103
-0.009396456 -0.0020182207 0.21298783 0.23317869 0.10227216 0.21863759 0.13222079 0.015780894
0.1390758 0.07509897 0.016753623 0.16397695 0.10118213 0.0725945 0.023000618 0.0043599834
-0.027064001 -0.03665159 -0.070273116 -0.09929481 -0.048797667 -0.03086572 -0.10383566 -0.008743768
-0.02123941 -0.16650131 -0.26388404 -0.4390702 -0.448416 -0.016275497 0.033256862 0.0064873975
-0.041273654 0.00787184 0.053321403 -0.0076613766 0.039652824 0.021513697 -0.04148787 0.06504126
0.040120106 -0.078694955 0.0034910103 0.019737832 -0.21635205 -0.11348294 -0.046187744 0.021086752
0.0025936502 0.013295344 -0.03602685 0.015913362 0.02107211 0.0048174765 -0.0125822 0.03297909
-0.06807668 -0.1947583 -0.23422162 0.080511585 -0.03112725 -0.048070375 0.24701753 0.20651561
0.1716562 0.001044482 0.049840968 -0.06550484 -0.023852574 0.0052949875 0.004542668 0.0047726296
0.03556611 -0.04633732 0.014315587 -0.023502136 -0.0046199993 -0.018532407 -0.02878029 -0.016305815
0.01050473 -0.028477797 0.0045322855 -0.3118202 -0.3480189 -0.3406219 -0.4153536 -0.39716566
-0.3756824 -0.3441777 -0.33728477 -0.3196209 -0.04599853 -0.20382501 -0.23244224 0.02460837

enc_up_1.0.bias f4 [40]
00000000: 11f8 063e d5f4 38bb 8b28 1dbc ae5e 00bc
00000010: 99ab 1ebc a511 093d 4165 dbbb fb18 26bc
00000020: 439f a1bd 04c7 cc3d 9594 423e 6905 6ebc
00000030: 1a7a a0bd 4034 4c3c 5a95 1a3d f185 643d
00000040: 663d 823d a7ef 18bc 8e22 de3d 9597 42bc
00000050: 17cb cebd 9d98 86bd e53e a7bc be56 86bb
00000060: a804 2abd da25 683e 70c7 273e 6219 88bc
00000070: 8762 ddbb fe02 07bd 02b7 303e 82cc 68bd
00000080: d709 b33d ea35 79bc 358c 50bc 2a04 9abc
00000090: f5b7 49bc f110 62bc d765 013d 0d9a 6f3e
0.13180567 -0.0028222103 -0.009592186 -0.007835073 -0.009684467 0.033464093 -0.00669542 -0.010137792
-0.07891705 0.09998897 0.19001992 -0.014527657 -0.07835789 0.012463629 0.03774009 0.0557918
0.06359367 -0.009334481 0.108464345 -0.01187696 -0.1009733 -0.065720774 -0.020415733 -0.004099696
-0.041508347 0.22670689 0.16384673 -0.016613666 -0.00675613 -0.032961838 0.17257312 -0.05683566
0.08742111 -0.015210608 -0.01272874 -0.018800814 -0.012311925 -0.013797984 0.031591263 0.2339861
